augmented_model.onnx (onnx, 49900 bytes, 6 tensors)

fc1.bias f4 [100]
00000000: f710 8abd 8cc8 5a3e bb47 753e 401d 253c
00000010: 94a3 923d a0a8 9b3c c734 183e 881c be3d
00000020: ee5b 7c3e df98 1abe 069b 6d3e 4a71 64be
00000030: c65b e3bd ae4b 0abe 6401 55bd e5b6 423f
00000040: 1e4d 42be c436 ddbd f0eb b53e 4e6c 39be
00000050: 1070 5abe b624 63bf 02e8 4fbe 0a7c 713e
00000060: a427 6cbe 16f2 3f3e d076 cf3d f622 7dbe
00000070: f089 a2bc 349d ab3d 3138 f83d 7f6b 023c
00000080: 287c 2cbf 3823 513e 7e19 71be 6f61 1cbd
00000090: 6b15 f3bd 9353 01be 04bb 9b3e 15ad 23be
000000a0: b491 033e f0a0 abbd ba41 493e 243b d53d
000000b0: 7345 01be c474 a2bd d26b 48be c0ad 5d3d
000000c0: b054 e73d 1bee 13be d84a 503e 2792 8cbe
000000d0: f1f2 0b3e 310d 8cbe 6c38 933d c8af 2bbd
000000e0: d08c c3bc 00b3 433d fc57 53be 5053 283e
000000f0: 00c0 173c 508e c8bc 1088 e9bd 202b 63be
00000100: 328c 00be ec02 82be 1e8d 1b3d 3692 6abe
00000110: d845 8a3d 23d8 253d 54f4 c13d 0026 133e
00000120: 18e4 003d ebc0 993e caf8 99bd cce7 603e
00000130: 18fd 3e3e c0e5 753c 1ab3 313e 0798 813e
00000140: 4a9d 39be 4bbd e43e a04c 7fbe bbfa d63e
00000150: 8ebf c5be 7228 2cbe e137 27be c838 68bd
00000160: 2672 e6bd 0045 673c daa5 373e 32eb 6d3e
00000170: 8e71 093e 12ce f9bd 36a6 a7bd 9c3b 78be
00000180: 8054 7c3b eaa9 b83d be48 223f 380f 343d
-0.06741517 0.21365565 0.23953144 0.0100777745 0.07160106 0.019001305 0.14863883 0.09282786
0.24644443 -0.15097378 0.23203668 -0.22308841 -0.11101489 -0.13505432 -0.05200328 0.76060325
-0.1897473 -0.10801461 0.3553157 -0.18107721 -0.21331811 -0.8872789 -0.20303348 0.23582473
-0.23061997 0.18744692 0.101300836 -0.24720368 -0.019841164 0.083795935 0.12120093 0.007960199
-0.6737695 0.20423591 -0.23544881 -0.038178857 -0.118693195 -0.12629537 0.3041612 -0.15983994
0.1284855 -0.08380306 0.19653979 0.10411671 -0.12624149 -0.079324275 -0.1957238 0.05412078
0.1129545 -0.14446299 0.2034105 -0.27455255 0.13666894 -0.27353814 0.07188496 -0.041915685
-0.023870856 0.04777813 -0.20639032 0.16438031 0.009262085 -0.024481922 -0.11402905 -0.2218442
-0.1255348 -0.25392854 0.037976377 -0.22907338 0.06751603 0.040489327 0.0947043 0.14369965
0.031467527 0.30029997 -0.07518156 0.21963423 0.18651235 0.01500839 0.17353478 0.253113
-0.18126407 0.4467567 -0.24931574 0.41988167 -0.38622707 -0.16812304 -0.1632991 -0.056694776
-0.11252241 0.014115572 0.17934361 0.23234251 0.13422224 -0.12197508 -0.08185999 -0.24241489
0.0038502514 0.090167835 0.63392246 0.043959826

fc2.bias f4 [100]
00000000: c45f a6bc aeed 16bb 2483 5cbd 4272 84bc
00000010: b10d 19bd 6705 a4bd 3a2c 83bd 4344 9a3c
00000020: 88f9 2a3d 2f5b cabd 4349 ab3d 5825 b83d
00000030: 9eb5 a0bd 5029 903d 7e85 353d 4f18 97bb
00000040: 6aca aa3d a643 37bd 0948 953d 2971 cbbd
00000050: f6e8 e8bc 5150 29bd 6cd7 a8bd dae1 73bd
00000060: 59ac bebd e757 103d 491e 433d d918 5ebd
00000070: 438b b03d 5695 e33b 5ec2 9ebd 5847 af3d
00000080: 76c5 a93d 9841 06bc 836c 2dbc 271c 69bd
00000090: 770b 32bc 9818 8d3d 9337 873d 0e65 e53d
000000a0: 2f27 143d 1707 ee3c e8c8 c53c a838 99bc
000000b0: e254 5ebd d8f6 95bd e05b 9fbd 7b97 48bb
000000c0: 7136 c3bb 398d 413d be1d 5ebc 34c7 7dbd
000000d0: c306 65bd 41eb 22bd 043c a13d 4942 b7bd
000000e0: 11d9 f4bd b659 c83c 4c9e b9bd 6df9 f13d
000000f0: 82d2 c4bd 4acf a1bd c8c9 b33d 1ac7 233c
00000100: 6608 2dbd 7c89 a73d df6a 2fbc 6f01 d13d
00000110: 829a 2cbb a700 273d b501 32bd 7d01 0b3d
00000120: 6198 73bd 76bb d13d 89f6 ad3d 87d9 91bc
00000130: a9a3 723d 9b69 ff3b b560 973d 8500 81bd
00000140: 660f a33d 3e7e 5f3d ac51 7b3d 1089 763d
00000150: 700a bb3d 08b8 1fbd eaa1 923d ce02 5d3d
00000160: 1405 1fbd 9ccf 5fbc 47ea b83c 0ce1 5cbd
00000170: ed30 843d 4f59 7d3d 2a97 883d c014 b33b
00000180: 2795 f5bd cadf 64bd 2747 d33b 1ba1 ce3d
-0.020309336 -0.0023029852 -0.053836003 -0.016167764 -0.037366573 -0.08008843 -0.0640492 0.018831378
0.041741878 -0.09880673 0.08363583 0.08991498 -0.07847141 0.0703913 0.04431676 -0.004611052
0.08339389 -0.04474225 0.0728913 -0.09933693 -0.028431397 -0.04133636 -0.082442135 -0.05954156
-0.093102165 0.03524008 0.047636304 -0.054222915 0.08620312 0.0069452925 -0.07751916 0.085585296
0.08289616 -0.00819435 -0.010584953 -0.056911614 -0.010866991 0.068894565 0.06602397 0.11200915
0.03617018 0.029056115 0.024143651 -0.018703774 -0.05428017 -0.07322472 -0.07781196 -0.0030607868
-0.0059574177 0.04725382 -0.013556896 -0.061957553 -0.05591465 -0.039775137 0.07872775 -0.0894819
-0.11955465 0.02445684 -0.09063396 0.11815152 -0.09610464 -0.079008654 0.08778721 0.0099962
-0.042244337 0.0818052 -0.010706632 0.102053516 -0.002633721 0.040772106 -0.04345866 0.033936966
-0.05947149 0.102408335 0.084942885 -0.01780392 0.05923811 0.0077945716 0.07391492 -0.06298927
0.079619214 0.054563753 0.061357185 0.060189307 0.0913285 -0.038993865 0.07159789 0.053957753
-0.038823202 -0.013660338 0.02257265 -0.05392556 0.06454644 0.06185275 0.06669457 0.00546512
-0.11991339 -0.055877484 0.006447691 0.10089322

fc3.bias f4 [3]
00000000: 1983 013e 27f3 f73c 09c1 343d
0.12647666 0.030267311 0.044129405

fc1.weight f4 [13, 100]
00000000: 6bb7 dbbd 08a8 2dbd 8a34 3e3e 6ef1 8dbe
00000010: e055 193c 7a90 80bd 68d1 333e 22bb 6b3e
00000020: 2c7a aa3d b2b4 6fbe 50e7 df3c 00b1 88bc
00000030: c89d 4bbe d8ed 82bd ec27 8bbd 80b0 983e
00000040: c026 813d 407f 56bd 392d 443e 2498 77bd
00000050: 4d68 17be ff0b 48bf 47cf d2bd 0077 d8ba
00000060: 80bf b0bd a78e 823e 9e31 573e 88d6 1abe
00000070: ecf2 433e 3c8d 063e 487e 883d 974f 92bd
00000080: e3a5 91be 32bf 28be 06af 363e 79c2 39be
00000090: fdf0 d7be c8f2 56bd 4289 6d3e ec4f 2abd
000000a0: f92b 8a3e d26d aabd 74a2 16bd 1491 aabd
000000b0: 1070 623e 4157 21be 906c 7b3d 224c 563e
000000c0: 4473 81be c717 2f3e 6cf5 f33d ce52 3a3e
000000d0: 069f 3f3c 2c7c b6bd b098 1dbe 496e 1cbe
000000e0: 0906 843e 1872 983d 68f3 1f3d e266 39be
000000f0: e057 a4bc bca3 dc3d c075 cb3c de49 4b3e
00000100: 4af0 20be a862 ecbd 17f1 69bc c78a a4be
00000110: 3021 ad3c 039a 263d 50c2 1c3e cc93 fd3d
00000120: 5e06 6d3e cbc8 d9bd 70f1 a43c 7457 2c3e
00000130: 1e78 6c3e 1e25 0c3e f8e2 5f3e 82d6 1cbe
00000140: c5a5 11be 303c 573d e04e 35bc bcbb d73d
00000150: 0d2b 75bd 4063 cd3b 6d17 8a3e d914 1bbe
00000160: e872 e4bd 8048 463e 7c25 e8bd b624 1fbe
00000170: acc3 ac3d 99fa 5fbe 0026 dabd 3aa2 5d3e
00000180: 6c1f 2bbe e4ff 143e e3dc 863d e87d 35bb
00000190: 92e1 f6bd d680 4d3e 5018 aabe 7a2f 663e
000001a0: d277 84bd f3f4 883e a0e0 38be cac3 773e
000001b0: 7acd 323e f88b e13d 2a2d 99bd 4041 a13b
000001c0: 9651 2b3e a256 1d3e 126c 383e 6d95 f8be
000001d0: acdf be3d 37cc f1bc 8b5a ee3c 54b7 083e
000001e0: d604 f6bd c6a2 f13d 347b 173f e000 65bd
000001f0: 585a a73d d9b9 4ebe 843d ab3d 4638 f4bd
00000200: fb9b 843e 06e7 6bbe 35d5 d63d 62ff 1f3e
00000210: c6fe 373f e891 683d 10da 843d 1de1 2abe
00000220: 6eb1 443d ff0c 19be 99d5 c8bc caba 5e3e
00000230: 1250 88be fb26 09be 80f7 0d3b b89f c13d
00000240: b21f 543e f0e9 ea3c af4a 14be 12b6 bfbd
00000250: cfd9 7ebe 889e c3bd 39b6 8d3e a5a8 87be
00000260: 24e3 b9bd 4075 7dbe 908e aa3c 699a 12be
00000270: 874e 53be 4f42 00be 682e 4c3e ba0f 233e
00000280: d2f2 4c3e 7cf7 fe3d c6e7 79be 42f2 7e3e
00000290: ae9f 89be 98c4 8c3d 8468 36bd 822a 143e
000002a0: 26ab 673e 24df 84be 72d9 713e c4fd 9bbd
000002b0: 00da 35bb b272 7bbe 22da 8ebd 109e 883d
000002c0: 641d e5bd 2a42 9dbd 5861 f43d 248f 423e
000002d0: 74fd 09be 9f51 6f3e b629 0cbe f1fc cc3d
000002e0: 0de4 aebe b63e a1bd 20aa 263e b637 8cbe
000002f0: 1428 3cbd 9c4f 483e 08bb 623e b8fa 5a3d
00000300: 86f4 5e3e 72b1 30be b063 cd3d fc05 7abd
00000310: 2f63 813e 1a2b ccbd ec73 46bf ddea 67be
00000320: 89e5 553e e2c4 88be 6fac 40be f034 e63d
00000330: 80b5 ad3b fcff a4bd f6e3 40be 06f7 5b3e
00000340: ce42 3b3e 1ed0 7b3e 80d3 613b 0032 533a
00000350: 8e61 a0bd 4fea 17be 84f6 a53d 92a8 94be
00000360: b899 8bbe 2888 273e 3743 163d 4015 173c
00000370: 3896 e1bd 16b9 71bd d94b fa3d 605f 6ebc
00000380: 8cdc e63d 5e9b 40be 30da 33be a468 87be
00000390: 4487 2c3e c089 89bc 72d1 c0bc 6ca2 6abd
000003a0: 06a8 573f 6446 c63d 3c5c 10bd 3ab8 9ebe
000003b0: a277 acbe bec4 8bbd c13f a33e 5a1a 483e
000003c0: 0090 a6ba 35ca 87be 7438 af3d e26f 623e
000003d0: 4f23 80be d94f 07be 1006 e6bc 8a0e 03be
000003e0: 5239 ffbd 5538 df3d 3c22 e7bd 25e4 7cbe
000003f0: d922 58be 4091 92bb c447 843d 4d4b 8abe
-0.107283436 -0.042396575 0.1857473 -0.2772326 0.009358853 -0.06277557 0.17560351 0.23020604
0.08324084 -0.23408774 0.027331978 -0.016685963 -0.19884408 -0.06393021 -0.06794724 0.2982216
0.06306219 -0.05236745 0.19157876 -0.060447827 -0.14785881 -0.78143305 -0.10293441 -0.0016514957
-0.08630276 0.2549946 0.21015021 -0.151209 0.19135636 0.13139814 0.06664711 -0.07144087
-0.28446874 -0.16479185 0.17840204 -0.18140592 -0.42176047 -0.052477628 0.23196891 -0.041580126
0.26986673 -0.08321728 -0.03677602 -0.08328453 0.22113061 -0.15755941 0.06138283 0.2092748
-0.25283253 0.17098914 0.11912045 0.1819565 0.011695629 -0.08910403 -0.15390277 -0.15276445
0.25785854 0.07443637 0.03905049 -0.18105653 -0.020061433 0.10773417 0.024836421 0.19852397
-0.15716663 -0.11542255 -0.014278672 -0.3213713 0.02113399 0.04067422 0.153085 0.12381706
0.2314696 -0.10634001 0.020134658 0.16830236 0.23092696 0.13686034 0.21863925 -0.15316203
-0.14223392 0.052547634 -0.011066169 0.10533854 -0.05985551 0.006267935 0.26970997 -0.15144671
-0.11154729 0.19363594 -0.113352746 -0.15541348 0.08435759 -0.21872939 -0.10651779 0.21643916
-0.16711205 0.1455074 0.065850995 -0.0027693454 -0.12054743 0.20068678 -0.33221674 0.22479048
-0.064681664 0.2674938 -0.18054438 0.24195781 0.17461196 0.11013025 -0.074793175 0.0049211085
0.16730341 0.15365079 0.18009976 -0.48551503 0.09320006 -0.029516323 0.029095909 0.13351184
-0.12012641 0.11798625 0.5917237 -0.055909038 0.081715286 -0.20188083 0.083613425 -0.11924796
0.25900254 -0.23037347 0.10489885 0.15624765 0.7187313 0.056779772 0.064869046 -0.16687436
0.048020773 -0.14946364 -0.024515914 0.21750942 -0.2662359 -0.13393776 0.0021662414 0.09454292
0.20715216 0.028676003 -0.14481615 -0.09360899 -0.24887775 -0.09551722 0.27678087 -0.26495853
-0.09076527 -0.24751759 0.020819932 -0.14316715 -0.20635425 -0.12525295 0.19939578 0.15923968
0.20014504 0.12449548 -0.24404821 0.24897102 -0.26879638 0.06873435 -0.044533268 0.1446934
0.22623882 -0.25951493 0.23618105 -0.07616761 -0.0027748346 -0.24555472 -0.06975199 0.06670773
-0.111872464 -0.076786354 0.11932629 0.18999916 -0.13475591 0.2337098 -0.13687786 0.10009182
-0.34158364 -0.07873289 0.16275835 -0.27386254 -0.04593666 0.19561619 0.2214166 0.05346176
0.21772966 -0.1725519 0.100287795 -0.061040863 0.25270984 -0.099691585 -0.7752063 -0.22648187
0.20888342 -0.2671271 -0.18815778 0.11240566 0.0053011775 -0.08056638 -0.1883696 0.2148095
0.18287203 0.24591109 0.003445834 0.0008056462 -0.07831107 -0.14835475 0.0810366 -0.2903486
-0.27265716 0.16360533 0.036685195 0.009221375 -0.1101498 -0.059014402 0.12221498 -0.014549106
0.11272535 -0.18809268 -0.175637 -0.26447022 0.16848475 -0.016789317 -0.023537371 -0.057283804
0.8424076 0.09681395 -0.03524421 -0.3099993 -0.33685023 -0.06824635 0.31884578 0.19541302
-0.001270771 -0.2652146 0.085556895 0.22112992 -0.25026938 -0.13214053 -0.028079063 -0.12798515
-0.12462105 0.10899416 -0.112858266 -0.24696405 -0.21107043 -0.0044728816 0.06459001 -0.27010575

fc2.weight f4 [100, 100]
00000000: 61b0 97bd 5241 02bd 397f e6bc a4c9 13bd
00000010: 10da d23c 16d3 c7bc 58ac 89bc fdd0 d53b
00000020: 0e96 1d3d 68c0 9cbd 8d38 83bd 60f2 10bd
00000030: 8a82 623d 6f64 de3b 711b df3c bcdf babc
00000040: f7cc 44bd 9740 a43b 099a 7bbd 77a9 c9bd
00000050: 6b28 d7bd 79e5 acbd 2f3c 85bd 621c 7b3a
00000060: 5b5e febc fdfd eebc 1256 a13d f9f0 bd3d
00000070: 58d2 7dbd 6e16 4bbd 91cb 8a3c 5c40 773d
00000080: 4bf0 d23c c12d a0bd 0685 97bd 04a2 973d
00000090: f2bc b33d 9df1 8e3b c517 29bc e163 20bc
000000a0: 47c1 8bbd 32a8 54bb 7d37 383d 6fa7 273d
000000b0: f2e8 1a3d db31 87bc e365 95bd 7236 d43c
000000c0: 6bf6 9a3d 4df9 7bbd 6184 a3bd 577e ae3d
000000d0: a572 65bd 8cf3 28bd 7880 9b3d 1910 ddbc
000000e0: f9ee c53c 699c 5c3d 5ecd d43b f8e3 56bd
000000f0: 7796 88bc 0aee 933d e1e3 463d 4d74 57bd
00000100: e3c2 80bc bd26 ce3b b859 d8bd bce9 0a3d
00000110: bcf0 e5bd fc92 04bd e9ec aebc 1c8b 6b3d
00000120: 0e2f 10bc 1508 cbbc 9e55 863c 6dfc 3dbb
00000130: 2a71 00bd 0263 adbd 6bf8 633a 72ea a13c
00000140: a84a a1bc 636c 763d b32c 983d ead1 99bc
00000150: a5d3 263d 6473 23bc b9f0 e43d 8ae0 04bd
00000160: 4079 86bd f7cf 4e3c 9671 b0bc 955e 0a3d
00000170: 69d2 733d 9ede 873d 9000 9ebc be70 ba3d
00000180: 82b3 3fbc 8d61 c9bd 3783 733d 6a2b 5b3b
00000190: d41e d3bd 89c1 b8bd 5749 2d3d f03b 2ebd
000001a0: d57c cc3d 685e 53bd 1ea8 bc3d 3d60 d63a
000001b0: a62f 823c c24d 34bd 71af f7ba 24c6 e5bc
000001c0: 25e2 1cbd 7c7a b8bd 5a8a a0bd 281f a23d
000001d0: 6888 ed3b 1a14 0abb 5809 0d3d 129d 7d3d
000001e0: a965 503d 63f9 9b3d c106 b2bd a362 263d
000001f0: 47bf ca3c 253d cdbc 0324 a83d d5e7 8cbd
00000200: a68e 24bb c110 863c 9f36 bf3c d21d b23d
00000210: 6af3 9dbd 2d54 b9b9 71c4 253d fc6e 673d
00000220: 55c0 8bbd c1c7 8b3d dfa5 be3b 2bd5 d2bc
00000230: 7122 1e3d e2f6 303d efb1 bb3c a29b 83bd
00000240: 917f 223d cec1 783a 625f e83b e4a9 e13d
00000250: 654a 613b ffce 85bd aa22 30bd e169 fbbc
00000260: 8d12 e93d a9f9 93bd c7ab 133d 6b65 c23d
00000270: 7c2b 0abe 8095 013d 70b5 a3bd 9223 11bd
00000280: 5790 d4bd 9a6b 8b3d 36ce 2f3d 5afb f43c
00000290: ac51 a3bd da85 1fbd da32 85bd e820 953d
000002a0: e337 9c3d fa55 adbd 2232 c23b ea7a 593d
000002b0: 7cbe ab3d 92bc 6bbb b527 7b3c 2841 38bd
000002c0: 7794 1dbd 8a7c bf3d de94 453d dce4 f93a
000002d0: 0e8b ac3d 34b7 08bd a235 433d 1f12 a2bb
000002e0: f4fe 8d3d 77f3 363d 20bc 0f3c 2928 873d
000002f0: ec19 163d bf06 893c e599 03bb 78a4 d03b
00000300: fb3d babd 9c68 843d a54d ba3d 9a2a 1c3d
00000310: 3937 89bd 3168 89bd 1c11 573d 5d93 ba3d
00000320: 42ef 873e 298b ccbe 6245 f9be a93f ccbe
00000330: f797 f03e 64f8 e6be 160e abbe 1602 23bf
00000340: 80c7 dcbe 088a a63e 10e7 b63e 28d6 2f3e
00000350: bdd4 d53e 2eb2 303c 682b e73d 3f86 85be
00000360: d1a6 0abf 2e84 39bd bfdf af3e 44a9 b33c
00000370: da09 e93e 2e87 ae3e 6b4f af3e 3068 cf3e
00000380: 2452 d43e e6fc aa3e 9129 37bf da25 61be
00000390: 1d84 a33e 21d9 16bf 047e ed3e a9f7 bbbe
000003a0: 9bd6 1abf b662 ce3b d4cd d73e a2be e33e
000003b0: af0b cabe c52d e93e 10a0 5d3e 5afb 0cbf
000003c0: 7e27 993e 4663 afbe 4f6c 903e eabd 9fbe
000003d0: f3e0 d0be 395f 483e ffb0 523e 63ab 8a3e
000003e0: d1ad 19bf f59c a63d cc17 3dbe 85d8 33be
000003f0: 0d82 d8be ccf1 a43e 9f8c ec3e c6c4 adbe
-0.074066885 -0.031800576 -0.028136836 -0.03608097 0.025738746 -0.024392646 -0.016805813 0.0065251575
0.03847318 -0.07653886 -0.064072706 -0.035387397 0.055300273 0.006786875 0.027234765 -0.022811763
-0.048047032 0.0050125825 -0.061426196 -0.09846776 -0.10505756 -0.08442206 -0.0650562 0.00095791195
-0.031050852 -0.029173845 0.07877745 0.092744775 -0.061968178 -0.049581937 0.016942771 0.060364112
0.025749346 -0.07821227 -0.07398419 0.07403949 0.08776273 0.0043622986 -0.0103206085 -0.009789438
-0.06823974 -0.0032448885 0.044974793 0.04093116 0.03781981 -0.016503265 -0.07294824 0.025904868
0.07566532 -0.06151705 -0.07984234 0.08520191 -0.056017537 -0.04124789 0.07592863 -0.026985215
0.024161803 0.0538601 0.0064942082 -0.0524635 -0.01667331 0.07223137 0.048557166 -0.052601147
-0.01571793 0.006291239 -0.105639875 0.033914313 -0.11227557 -0.032366738 -0.021353202 0.057505712
-0.008800281 -0.024784127 0.016398247 -0.0028989569 -0.03135792 -0.0846615 0.000869638 0.019765113
-0.01968892 0.06016196 0.07430401 -0.018776853 0.040729184 -0.009976242 0.11178727 -0.0324407
-0.06566095 0.012622825 -0.021538537 0.033781607 0.059526835 0.06634258 -0.019287378 0.09103535
-0.011700513 -0.098330595 0.059451308 0.0033442625 -0.103086144 -0.09021289 0.04230627 -0.04253763
0.09984747 -0.051603705 0.09211753 0.0016355586 0.015891861 -0.044019468 -0.001889689 -0.028048582
-0.038301606 -0.09007737 -0.078388885 0.07916099 0.007248927 -0.002106911 0.03443274 0.061917372
0.0508782 0.07615926 -0.086926945 0.04062141 0.024749411 -0.02505357 0.08209994 -0.06880156
-0.002510944 0.01636541 0.023341475 0.08697094 -0.07712443 -0.00035348666 0.040470544 0.056502327
-0.06823794 0.068252094 0.005818113 -0.025736412 0.038607065 0.043204196 0.022911994 -0.06426169
0.039672438 0.00094893284 0.0070914486 0.11018732 0.0034376618 -0.06533622 -0.04300181 -0.030690135
0.113804914 -0.07225353 0.03605249 0.09492 -0.1349315 0.031636715 -0.07993591 -0.035434313
-0.10379093 0.06807633 0.042921267 0.02990501 -0.07974562 -0.03894601 -0.0650384 0.07281667
0.07627847 -0.08463664 0.0059263865 0.053095736 0.083859414 -0.003597055 0.015329291 -0.044984013
-0.038471665 0.09349926 0.048237674 0.0019065398 0.0842496 -0.03337784 0.04765857 -0.004946008
0.06933394 0.04466578 0.00877288 0.06599457 0.036645815 0.01672685 -0.0020080742 0.0063672625
-0.09093853 0.06465265 0.09096841 0.038126566 -0.06699986 -0.06709326 0.05250655 0.091101386
0.26549727 -0.3994992 -0.48685747 -0.3989232 0.4699094 -0.45111382 -0.33409184 -0.6367506
-0.43120956 0.32527184 0.35723162 0.17171538 0.4176387 0.010784669 0.11287576 -0.26078984
-0.5416079 -0.045292072 0.34350392 0.021931298 0.4551533 0.3408751 0.3424028 0.40509176
0.41468918 0.3339607 -0.715478 -0.21987095 0.31936732 -0.5892506 0.46385205 -0.36712387
-0.6048371 0.0062983884 0.42149222 0.4448138 -0.3946204 0.45542732 0.2164309 -0.5507103
0.29912943 -0.34255427 0.28207633 -0.3119958 -0.40796623 0.19567575 0.20575331 0.27083883
-0.6003085 0.08135406 -0.18466109 -0.17563064 -0.4228672 0.32215726 0.46201035 -0.3393919

fc3.weight f4 [100, 3]
00000000: b0e4 353e 38e5 ef3e f027 edbe 7cfe c3be
00000010: b6f9 20bf b763 203f f502 e63e 46b7 08bf
00000020: 084f f53d 35bb 0b3f 73fc b4be 0e9f 9abd
00000030: f702 1dbf 2f4e dc3e becd c63d 98a1 d03e
00000040: fd75 c6be 5943 423e 7a25 e83e 1880 adbe
00000050: 8f98 76be 5a01 e43e cea4 9bbe 88fd e2bd
00000060: 6ec0 f43c 3b56 06bf 2fc4 fa3e 5a6c 8ebe
00000070: a486 273e 8940 1a3d 72fa adbe 01f3 d33e
00000080: 81fb 043d 91cb 383e e096 a93e 9f91 ffbe
00000090: 6a91 a7be db55 a43e 4e5f 9fbd 66b9 8a3e
000000a0: 001c d13e 12ac 18bf 4d7e 3e3e f365 033f
000000b0: bbf5 1dbf 8324 d93e 4a1d 4dbe 5199 60be
000000c0: 3006 f03e 978d 0dbf 29e8 553d 5a4c 5cbe
000000d0: f79c e1be d6e4 f03e a35c 00bf 1e8a bc3e
000000e0: d26e 763e fa4b a5be fb8e 26be 1167 e53e
000000f0: b510 ddbe 7309 633e e48e 90bc 98ee 05bf
00000100: 3495 b43e 5036 923e de3d 07be 5e40 fb3e
00000110: 9417 bebe df57 82be 20e2 ba3e 755a 8dbe
00000120: 3eaa 8abe 4ad9 fb3e 76e1 91be e898 113e
00000130: 7aab 043f 5545 1abf 313e 883e f692 f0be
00000140: 05fb 153e c35e 693e 47f9 c0be 5c4d 003d
00000150: 0ef0 d8be 40a1 9d3e f612 5e3e c8ce bd3e
00000160: aece 06bf 9010 a2bc 33a4 3dbe a7e4 043f
00000170: d267 c1be fbc2 3fbd f1c0 14bf 5156 093f
00000180: c993 d43e 3738 12bf 35db 403e 11fc e6be
00000190: 6ced 66bf 235b 5d3f 60d5 dbbe dab6 913e
000001a0: f777 743b a81c aabe 548d a43e 14f2 b33d
000001b0: 43e1 a53e 0673 e9be dd65 e2bc 35c1 cdbe
000001c0: b676 a63e 424b 0c3e 4489 ccbe 8c4d c73d
000001d0: 6108 783e 3617 5c3e 138d 16bf 25f8 ac3e
000001e0: dc34 e2be 7b26 8c3e fab4 5d3e 5f84 fa3e
000001f0: fe1c d9be c36d 1cbe 8086 acbe 8a3d 943e
00000200: 9a22 103e 1097 e33e 9b8a 78be 0da9 07be
00000210: 9e38 e23e 3c0f d0be 6aa0 b03c 3234 d2be
00000220: 4929 2bbd 1a5c 923e 1ac0 a1be 61b6 bcbc
00000230: 3cc7 ae3e 2209 11bf 1619 233e 511b c93e
00000240: 0a61 ce3e 5478 11bf 3a6a 493e c842 86be
00000250: d9b4 a0be c36a 1c3f d709 b13e 0377 c1bc
00000260: 15fd 95be efad d23e bf60 91bd 871b 95be
00000270: 6716 1c3e c38a 26bf 70f2 d03e da28 e7be
00000280: 47f5 aa3e b812 1cbd 181e 0cbf 01af be3d
00000290: dc08 1c3e 9f22 d33e cb57 78be a822 94be
000002a0: 3cb0 96be b035 e23e b420 fbbd 5d00 cebe
000002b0: 21e7 673e 8c0f 9c3d 4c9d 2abe fafb b0be
000002c0: 445b d03e 0076 f43e 0268 02bf d253 99bc
000002d0: 532c 7ebd 7dc5 0a3f 8338 b8be d757 8ebe
000002e0: c393 1cbe e245 d83e 7491 4e3e e441 b43e
000002f0: c27b e4be 81a1 f23e 384f f9be c41f 063e
00000300: 43f9 fc3e a10d fdbe c2a7 c13d db66 a2be
00000310: 7164 b13e 953a 83bc 34d3 c2be 0d6b ec3e
00000320: 3878 cdbd 88f9 b23e 609a 08bf 655f 093e
00000330: fe8e 003e ca01 fe3e 62ef dbbe a59a f6be
00000340: 939c 323e db11 3c3e 7a22 0a3f 3cb7 ddbe
00000350: fdf3 0dbd 2c7d babe 3c56 bbbd 1008 ac3e
00000360: dd3d 12bf c1ea 213e 9dec 2f3e f7af dc3e
00000370: b1b8 50bd c79e 07bf a912 eebe 8b39 b23e
00000380: 0c71 603e 8d6f f13e e841 0fbe 3321 a5be
00000390: 9054 ccbe 53a3 493e 777f 1d3e 9fb5 cf3e
000003a0: 1b87 98be 2b37 8fbc ac85 e9be 680b 113e
000003b0: 297f 573e 32a6 4abe 6de6 ee3e ec3e c7be
000003c0: 8024 b5be 7465 7c3e 3722 d53d 0ca1 0a3d
000003d0: b44b 2fbf 3e08 1a3f b6c0 bcbe c09c f83d
000003e0: e34e f03d 262a b83d c9f6 143f 9f9d 1dbf
000003f0: b968 cdbd 499a 1cbf 775a 083f 7177 e23e
0.17763019 0.46854568 -0.46319532 -0.38280094 -0.6288103 0.6265215 0.4492413 -0.53404653
0.11977965 0.5458253 -0.35348853 -0.075498685 -0.6133265 0.430284 0.09707211 0.40748286
-0.38761893 0.18971004 0.45341092 -0.3388679 -0.24081634 0.4453228 -0.30399173 -0.110835135
0.029876914 -0.5247533 0.489778 -0.2781704 0.16359955 0.0376592 -0.33980137 0.41396335
0.032466415 0.18046404 0.3312292 -0.49915788 -0.3272813 0.32096753 -0.0778185 0.27094573
0.40841675 -0.5963756 0.18602867 0.5132744 -0.6170308 0.4241067 -0.20030704 -0.21933486
0.4687972 -0.55294174 0.05222336 -0.21513501 -0.44065067 0.47049588 -0.5014135 0.36824125
0.24065712 -0.32284528 -0.1626548 0.44805196 -0.4317681 0.22171573 -0.01764626 -0.5231719
0.35270083 0.28557062 -0.13207194 0.49072546 -0.37127364 -0.25457665 0.36500645 -0.27608076
-0.2708301 0.49189216 -0.28492326 0.14218485 0.5182415 -0.6026204 0.26609948 -0.46987122
0.14646538 0.22790055 -0.37690184 0.031323776 -0.42370647 0.30787086 0.2168692 0.37071824
-0.5265912 -0.019783288 -0.18519668 0.51911396 -0.3777452 -0.046816807 -0.58106905 0.53647333
0.41519 -0.5711703 0.18833621 -0.45114186 -0.9020603 0.8646719 -0.4293623 0.28459817
0.003730295 -0.33224988 0.32139075 0.08786407 0.32398424 -0.45595568 -0.027636463 -0.40186468
0.32512444 0.13700584 -0.39948475 0.09731588 0.24221946 0.2149323 -0.5880901 0.3378307
-0.44180954 0.27373108 0.21651068 0.48929116 -0.42404932 -0.15276246 -0.33696365 0.289532
0.140757 0.4445119 -0.24271624 -0.13248082 0.4418382 -0.40636623 0.021560866 -0.41055447
-0.04178742 0.28585893 -0.31591874 -0.023036184 0.3413638 -0.5665456 0.15927538 0.39278653
0.4030841 -0.5682423 0.19669428 -0.26222825 -0.31387976 0.61100405 0.3457782 -0.02361632
-0.2929465 0.41148326 -0.07098531 -0.29122564 0.15242921 -0.65055484 0.40809965 -0.45148355
0.33390257 -0.03810379 -0.5473342 0.09310723 0.15237755 0.4123735 -0.2425224 -0.2893269
-0.2943133 0.44181585 -0.12262097 -0.40234652 0.22646762 0.07620153 -0.16661566 -0.34567243
0.4069463 0.47746277 -0.50939953 -0.018716726 -0.06205399 0.54207593 -0.35980615 -0.2780139
-0.15290742 0.42240816 0.20172673 0.3520652 -0.4462567 0.47388843 -0.48693252 0.13098055
0.49408922 -0.4942446 0.094558254 -0.31719097 0.34646943 -0.016019145 -0.3805176 0.46175423
-0.100326955 0.34956002 -0.5336056 0.13415296 0.12554547 0.4961074 -0.42956072 -0.4816486
0.17442541 0.18366186 0.5395886 -0.4330386 -0.034656513 -0.36423624 -0.09147307 0.335999
-0.57125646 0.15812208 0.17180105 0.43103 -0.050957385 -0.5297665 -0.46498612 0.34809527
0.21918124 0.4715542 -0.13989985 -0.32251891 -0.39908266 0.1969121 0.15380655 0.40568253
-0.29790577 -0.01748236 -0.45609796 0.14164507 0.21044602 -0.19789961 0.46660176 -0.38915193
-0.3537941 0.24648076 0.104069166 0.033844993 -0.6847489 0.60168827 -0.36865777 0.12139273
0.117337964 0.08992414 0.58189064 -0.61568636 -0.1002974 -0.6117292 0.5326304 0.44231752
