wine_test.onnx (onnx, 47829 bytes, 6 tensors)

fc1.weight f4 [100, 13]
0.20837519 -0.12643461 -0.047673613 0.1584912 -0.2146866 0.044010907 0.08213809 -0.2646407
0.048490435 -0.096860275 0.24879232 0.012140393 0.20976472 0.1250301 0.10702723 -0.26299477
0.23960057 -0.22671354 0.12074664 0.12598753 -0.00180915 0.23893711 -0.07339911 -0.16370246
0.09132853 -0.06176787 -0.23372181 -0.19711232 -0.17701979 0.07985318 -0.19392508 0.12649292
0.214511 -0.112529814 0.15686134 0.00580889 0.17678905 -0.034971416 -0.17319533 0.20970935
-0.17055193 0.06441665 0.15805945 -0.20076004 -0.25212425 0.15498471 -0.2740978 -0.20700923
0.12021938 -0.092982456 0.1957682 -0.059927646 -0.034502555 -0.107145466 0.0032109898 -0.6627749
-0.2896872 -0.21029322 0.50607914 0.06226312 0.25255495 0.25823054 0.13671292 -0.09752574
0.0056679184 -0.047606632 0.2513108 0.09254554 0.019957066 -0.17730767 -0.235477 -0.088459566
0.14291295 -0.14997979 -0.11649576 -0.24270743 0.26160648 0.25062284 -0.15956552 0.008935392
-0.01544413 0.049174637 -0.18023933 -0.17303292 -0.04073769 -0.21323165 0.030887961 -0.14179346
-0.2192291 -0.013685554 -0.116187975 0.11462492 0.22551188 -0.16381362 -0.08666566 -0.048975334
-0.2702894 -0.2690162 0.11060792 -0.018003047 -0.14178202 0.2650306 -0.27639955 0.24511227
-0.26479444 -0.16330707 0.15181553 -0.07020138 -0.08327313 -0.18928522 0.08472416 0.22358897
0.09038535 0.27151015 -0.2202524 -0.2284126 -0.16625708 -0.028127968 0.04846868 0.005648762
0.033026516 -0.17933926 -0.07194881 0.02271384 0.07902795 -0.18667655 0.18859476 -0.02140528
0.103204906 0.25059792 0.14649978 0.109417945 -0.10385123 -0.19548896 0.09744233 0.22619137
0.14976296 0.022660613 0.22962764 -0.09759529 -0.110993564 -0.120736614 -0.1479103 -0.011186779
-0.2678549 0.1965504 -0.27714056 -0.13175446 0.11122215 -0.015432239 -0.11418232 -0.24865438
0.16459924 0.2608947 0.02104792 -0.10915819 -0.06461297 -0.20699108 0.07930961 0.115621716
-0.056613743 -0.13633668 0.14467815 -0.0349492 0.102265894 0.055185825 0.18888855 -0.13090347
-0.24791704 -0.038548782 -0.292147 -0.3170279 0.14598256 -0.08125947 0.1297618 0.06740952
0.17543228 -0.006231349 0.19290274 -0.17222835 -0.23086818 -0.07318967 -0.062849194 0.16245157
-0.037410885 0.032042176 -0.13384919 -0.21494338 0.101172745 -0.13768716 0.2569265 0.25340953
-0.24397762 -0.11559883 -0.17182045 0.2770402 -0.1421998 0.26194927 0.22017327 -0.038244396
-0.08227444 0.20364735 -0.0432657 -0.040094554 0.05003646 -0.25857013 -0.011234462 0.14443868
-0.114410594 -0.02723819 -0.17146039 -0.039705664 0.1380744 -0.014739811 -0.20192415 0.0609954
-0.20587015 0.24402055 0.109876096 0.024008185 -0.21692389 0.269038 -0.26838046 -0.011565161
-0.22843517 -0.22939529 0.07112181 0.18740094 0.09938818 0.2617512 -0.022350375 -0.20134473
0.0637812 -0.02412844 0.010687381 -0.031813003 -0.25843263 -0.13196792 0.21037883 0.15281525
0.2225865 0.073754534 0.23004556 0.04175901 0.023148682 -0.04728591 -0.17261899 0.099484876
-0.2501246 -0.13680737 0.07541914 -0.08354316 -0.23023103 -0.10912026 0.053268634 -0.15488507
00000000: 4e60 553e 1378 01be 6845 43bd 844b 223e
00000010: ced6 5bbe c844 343d 0438 a83d fc7e 87be
00000020: e89d 463d ae5e c6bd 6ac3 7e3e 80e8 463c
00000030: 90cc 563e e407 003e 1831 db3d 40a7 86be
00000040: da59 753e 9827 68be 044a f73d e002 013e
00000050: 0021 edba eeab 743e 4652 96bd 9ea1 27be
00000060: 740a bb3d 4e00 7dbd c554 6fbe d0d7 49be
00000070: ad44 35be 108a a33d 4c94 46be 5c87 013e
00000080: c6a8 5b3e 0876 e6bd 42a0 203e 8058 be3b
00000090: 3008 353e 303e 0fbd 1e5a 31be 0cbe 563e
000000a0: 2aa5 2ebe e0ec 833d 56da 213e 0a94 4dbe
000000b0: 6e16 81be 50b4 1e3e 8c56 8cbe 3afa 53be
000000c0: 9435 f63d 966d bebd 7677 483e b176 75bd
000000d0: 8d52 0dbd 156f dbbd 786f 523b 9eab 29bf
000000e0: e151 94be 1b57 57be 678e 013f 9d07 7f3d
000000f0: e24e 813e cb36 843e 79fe 0b3e 93bb c7bd
00000100: f2b9 b93b 2cff 42bd cfab 803e 8488 bd3d
00000110: 007d a33c 2490 35be e220 71be 4a2a b5bd
00000120: c657 123e 4d94 19be 5495 eebd 4c88 78be
00000130: 49f1 853e a351 803e 2565 23be c065 123c
00000140: 6009 7dbc 586b 493d a990 38be 8b2f 31be
00000150: 90dc 26bd 6659 5abe c008 fd3c 4e32 11be
00000160: 987d 60be 6039 60bc f6f3 edbd 78c0 ea3d
00000170: 96ec 663e c2be 27be c47d b1bd 5c9a 48bd
00000180: 5f63 8abe 7ebc 89be 6886 e23d 207b 93bc
00000190: 4e2f 11be 17b2 873e 3e84 8dbe b6fe 7a3e
000001a0: 2393 87be f839 27be 8875 1b3e bec5 8fbd
000001b0: 1a8b aabd fcd3 41be dc83 ad3d 82f4 643e
000001c0: f41b b93d 6103 8b3e d889 61be fee4 69be
000001d0: 4c3f 2abe a06c e6bc 1887 463d 4019 b93b
000001e0: d046 073d b6a4 37be e659 93bd 6012 ba3c
000001f0: 68d9 a13d 2328 3fbe fc1e 413e 205a afbc
00000200: 185d d33d 5f4e 803e 0a04 163e 8416 e03d
00000210: f4af d4bd 422e 48be d88f c73d b69e 673e
00000220: 765b 193e c0a2 b93c 8223 6b3e 0ae0 c7bd
00000230: 9850 e3bd c244 f7bd cc75 17be c048 37bc
00000240: 4724 89be 8244 493e 5ee5 8dbe a4ea 06be
00000250: 70c8 e33d 80d7 7cbc 6cd8 e9bd 419f 7ebe
00000260: b48c 283e fd93 853e b06c ac3c 548e dfbd
00000270: ce53 84bd 78f5 53be 146d a23d 14cb ec3d
00000280: d0e3 67bd d89b 0bbe 8226 143e e426 0fbd
00000290: c870 d13d 880a 623d 006c 413e 8f0b 06be
000002a0: f7dd 7dbe 54e5 1dbd 4b94 95be 7b51 a2be
000002b0: 747c 153e 5d6b a6bd 47e0 043e 010e 8a3d
000002c0: 85a4 333e 5830 ccbb 4c88 453e a15c 30be
000002d0: b568 6cbe 77e4 95bd 14b7 80bd b459 263e
000002e0: 283c 19bd a83e 033d c30f 09be 1e1a 5cbe
000002f0: a833 cf3d ddfd 0cbe df8b 833e e5be 813e
00000300: 45d5 79be 14bf ecbd b3f1 2fbe 37d8 8d3e
00000310: d39c 11be 371e 863e 1a75 613e 28a6 1cbd
00000320: 807f a8bd ee88 503e 6037 31bd 303a 24bd
00000330: 08f3 4c3d 4e63 84be c010 38bc bce7 133e
00000340: 1a50 eabd a022 dfbc 5093 2fbe 68a2 22bd
00000350: 6063 0d3e 407f 71bc 34c5 4ebe 50d6 793d
00000360: a0cf 52be 86e0 793e b806 e13d d0ac c43c
00000370: 4c21 5ebe 59bf 893e 2a69 89be cd7b 3dbc
00000380: e9ea 69be 99e6 6abe 50a8 913d 08e6 3f3e
00000390: 088c cb3d 4104 863e 2218 b7bc 502d 4ebe
000003a0: b89f 823d 02a9 c5bc 201a 2f3c 5a4e 02bd
000003b0: 4851 84be 9922 07be 8c6d 573e 9a7b 1c3e
000003c0: b7ed 633e 9e0c 973d 1091 6b3e 7f0b 2b3d
000003d0: 4ea2 bd3c dfae 41bd 08c3 30be babe cb3d
000003e0: 5510 80be 3b17 0cbe 5a75 9a3d ad18 abbd
000003f0: afc1 6bbe 717a dfbd 3630 5a3d 319a 1ebe

fc1.bias f4 [100]
-0.104616955 0.25691935 -0.19945207 -0.09050563 -0.47851363 0.20167878 -0.035588935 -0.21407694
0.067622006 0.028672755 -0.2234985 -0.034589514 -0.22860165 0.15021022 0.20896915 -0.21043
-0.22455014 0.09014025 -0.21195564 -0.20872155 0.059343368 0.23333439 0.26801404 -0.21844836
-0.1643693 -0.13475259 -0.07972749 -0.0037924051 0.017317146 -0.112927765 -0.042733025 0.19168651
0.007731855 -0.17873727 0.58408934 0.019207075 -0.19235778 -0.13355988 0.25578257 -0.72285
0.15210006 -0.28535387 0.12835944 -0.06494987 -0.16523972 0.013601571 -0.19732478 -0.25885662
-0.14299922 0.2591224 -0.20952357 0.11507571 0.073675126 -0.12558778 0.087100536 -0.0986699
0.12931493 -0.24903272 -0.2606872 -0.11214048 0.1943247 -0.23249842 -0.6145801 0.11118087
0.1403486 -0.24488086 -0.2636363 0.05471896 -0.01570201 -0.14730594 -0.04749614 -0.21849257
-0.23616435 0.08112762 -0.0025115013 0.16777611 -0.13632648 -0.55120635 0.13022192 0.84823775
0.11961222 -0.2311703 0.04380568 -0.11278931 0.23222473 -0.16495924 -0.085711956 -0.23990723
0.11151722 -0.18829438 -0.047105104 0.1440599 -0.0020967126 -0.0074334713 -0.021991879 -0.27732375
-0.17741379 0.34391275 0.17442265 0.01610628
00000000: 6a41 d6bd ef8a 833e 2a3d 4cbe 045b b9bd
00000010: bdff f4be e284 4e3e b4c5 11bd fc36 5bbe
00000020: 687d 8a3d 20e3 ea3c cadc 64be bcad 0dbd
00000030: 8d16 6abe b5d0 193e 02fc 553e f67a 57be
00000040: 79f0 65be 749b b83d e60a 59be 1abb 55be
00000050: 0812 733d 36ef 6e3e 2339 893e edb0 5fbe
00000060: 6d50 28be 95fc 09be 2b48 a3bd 008a 78bb
00000070: b0dc 8d3c ac46 e7bd d308 2fbd 7849 443e
00000080: 805b fd3b e706 37be e186 153f 2858 9d3c
00000090: 70f9 44be ecc3 08be eff5 823e b30c 39bf
000000a0: 1ec0 1b3e e719 92be a870 033e 7004 85bd
000000b0: 9a34 29be 20d9 5e3c 820f 4abe db88 84be
000000c0: 636e 12be b1ab 843e 598d 56be d0ac eb3d
000000d0: fce2 963d 159a 00be c461 b23d 7213 cabd
000000e0: 226b 043e 6f02 7fbe cb78 85be e8a9 e5bd
000000f0: 0efd 463e 1114 6ebe 1f55 1dbf ccb2 e33d
00000100: 8bb7 0f3e 0cc2 7abe 56fb 86be fd20 603d
00000110: 80a1 80bc 5ed7 16be 508b 42bd 84bc 5fbe
00000120: 11d5 71be 3d26 a63d 0098 24bb 80cd 2b3e
00000130: 2b99 0bbe dc1b 0dbf e558 053e 1c26 593f
00000140: 40f7 f43d e8b7 6cbe 966d 333d 15fe e6bd
00000150: 52cc 6d3e 13eb 28be c089 afbd 3eaa 75be
00000160: 2463 e43d 3ed0 40be 48f1 40bd 7084 133e
00000170: 0069 09bb 7a94 f3bb 5028 b4bc 61fd 8dbe
00000180: f6ab 35be 5515 b03e da9b 323e 51f1 833c

fc2.weight f4 [100, 100]
0.042405404 0.02250868 0.020243645 -0.06978854 -0.42416126 0.019162636 0.0032019168 -0.02231627
-0.05709033 0.050218936 -0.030314103 -0.009965517 0.06422079 0.020614551 0.051044114 -0.07179182
0.028204195 -0.013209164 0.091493145 0.13545918 0.0140593685 0.06875268 0.03721068 -0.0150314
-0.088024616 0.013168074 -0.07954508 0.068000086 0.0047438145 -0.022343032 0.2488565 0.015691265
0.06618544 -0.07943551 -0.06646236 1.8618509 -0.049352515 -0.61359483 -0.11183306 0.10720234
-0.07966123 -0.20750323 0.0058224048 -0.10880492 -0.048289787 -0.042535815 -0.0015459316 0.028576981
-0.18558647 0.06896729 -0.09824594 -0.051735617 -0.10766619 -0.030692738 -0.093213074 0.09426678
0.22777812 0.02253957 -0.08365362 0.00792484 -0.044094943 -0.006337108 -0.3046051 0.0058346237
0.06211459 -0.0030964878 0.06704093 -0.090106994 -0.042568076 -0.09482199 0.047517844 0.06928327
-0.030746602 -0.055753566 -0.066032186 -0.065438576 -0.036878098 -0.2725499 0.07817156 0.6138994
-0.012419641 -0.0036640004 0.094712906 0.08909218 0.010487914 -0.03219175 -0.021770284 -0.058062598
0.04384143 -0.013070585 -0.04364949 -0.064799584 -0.07302647 -0.09007645 -0.041072275 -0.019707432
-0.08153222 0.1480991 0.021803321 0.018684143 0.04616135 0.054444604 0.085238524 0.070489086
-0.25395837 -0.01413215 -0.051945593 -0.08375267 0.0073586106 -0.08159747 0.021678425 0.09302778
-0.027541913 0.11844349 0.09045414 -0.0014411276 0.038469993 -0.015950762 -0.042488992 0.045664437
0.056235526 -0.030231582 -0.04362327 -0.032180272 0.08425956 -0.026685178 -0.03478248 0.07442572
0.06829544 0.07812544 0.087928556 -0.004793778 0.064271815 -0.040412225 1.6165931 -0.21654648
0.04886208 -1.2161995 0.02727876 -0.6018473 0.07854725 -0.22405863 0.027265968 -0.040170994
-0.0550913 0.00029697033 -0.082483105 0.09631813 -0.049046338 -0.008103976 -0.051749263 -0.09787933
-0.016930094 -0.0076647443 0.036680304 0.09243741 0.19756141 -0.00017233193 -0.009232912 -0.04329399
-0.03176028 -0.08446782 -0.16598858 0.085174866 -0.08055026 0.030761827 -0.051366508 -0.2853374
0.051460322 0.06948649 0.026415102 0.04720276 0.08510152 -0.047063623 -0.0136353355 0.075516604
-0.014652377 -0.1822505 -0.00020395432 0.79920113 -0.0693477 0.050539207 0.060700733 0.022256253
0.008313157 0.055974957 0.09621728 -0.068435535 0.050977133 0.10620583 -0.023399325 -0.06621852
-0.090026625 0.03142802 -0.04721504 0.047761552 0.014323769 0.0031381105 -0.019430507 -0.08174358
0.09579166 -0.03954765 -0.05139134 -0.028776303 0.3712206 -0.04371891 0.068010755 0.08697442
0.010070108 0.0016126719 0.0328226 -0.07368388 0.03743314 0.15554306 0.08720956 0.116953485
0.08213847 -0.044861723 -0.051939487 0.0072912937 0.1150328 0.096344925 0.03218258 -0.07104491
0.035658978 -0.030527756 0.05537426 -0.07028162 -0.045555856 -0.043687247 -0.12851918 0.036084794
0.066513434 -0.037584163 1.7065185 -2.1873782 0.10538251 0.5119674 -0.016552271 -0.97834206
0.05854349 0.069315635 0.049222544 0.034348503 0.0037190914 0.11819676 0.050404802 0.020465354
0.0035978423 0.105799474 0.09679552 -0.048737146 -0.0721283 -0.07011547 -0.04199809 0.010946788
00000000: 4ab1 2d3d 2064 b83c 00d6 a53c 4bed 8ebd
00000010: aa2b d9be f6fa 9c3c 40d7 513b 9cd0 b6bc
00000020: 8dd7 69bd 5fb2 4d3d 4855 f8bc 6846 23bc
00000030: 3186 833d d9df a83c a213 513d 9707 93bd
00000040: 7c0c e73c 406b 58bc c260 bb3d d0b5 0a3e
00000050: 4459 663c 35ce 8c3d 3a6a 183d 4346 76bc
00000060: 4046 b4bd e8be 573c 88e8 a2bd a143 8b3d
00000070: 0072 9b3b bc08 b7bc 3dd4 7e3e f88a 803c
00000080: 3b8c 873d 16af a2bd 6b1d 88bd 2151 ee3f
00000090: dd25 4abd 8d14 1dbf bb08 e5bd e78c db3d
000000a0: 6d25 a3bd ba7b 54be dfc9 be3b 1dd5 debd
000000b0: 83cb 45bd 093a 2ebd dba0 caba 461a ea3c
000000c0: 610a 3ebe b93e 8d3d 2b35 c9bd bae8 53bd
000000d0: 1780 dcbd 566f fbbc 7fe6 bebd f10e c13d
000000e0: ab3e 693e e8a4 b83c 9752 abbd 30d7 013c
000000f0: e69c 34bd 84a7 cfbb 33f5 9bbe 5f30 bf3b
00000100: de6b 7e3d 72ee 4abb c14c 893d 048a b8bd
00000110: dd5b 2ebd 0832 c2bd 12a2 423d 63e4 8d3d
00000120: 4ce0 fbbc da5d 64bd e23b 87bd a904 86bd
00000130: 7d0d 17bd a98b 8bbe 6918 a03d 8328 1d3f
00000140: c07b 4bbc ba1f 70bb d7f8 c13d f675 b63d
00000150: 80d5 2b3c 7fdb 03bd 9857 b2bc 0cd3 6dbd
00000160: 1293 333d 0226 56bc cfc9 32bd a5b5 84bd
00000170: e78e 95bd 007a b8bd 673b 28bd 7b71 a1bc
00000180: 5dfa a6bd 4aa7 173e e19c b23c 7d0f 993c
00000190: af13 3d3d 4e01 5f3d 8991 ae3d 955c 903d
000001a0: d506 82be 898a 67bc e7c4 54bd 8586 abbd
000001b0: 8020 f13b 931c a7bd f496 b13c 5985 be3d
000001c0: 949f e1bc 8092 f23d 0540 b93d 38e4 bcba
000001d0: b692 1d3d 2cab 82bc f008 2ebd a20a 3b3d
000001e0: 3957 663d 39a8 f7bc 50ae 32bd 76cf 03bd
000001f0: 4790 ac3d e09a dabc 1378 0ebd 836c 983d
00000200: 7bde 8b3d 3b00 a03d e313 b43d 2015 9dbb
00000210: f1a0 833d 4a87 25bd 86ec ce3f 5cbe 5dbe
00000220: 9b23 483d 6dac 9bbf b577 df3c aa12 1abf
00000230: 61dd a03d a06f 65be e15c df3c 578a 24bd
00000240: 6aa7 61bd afb2 9b39 e7ec a8bd 7142 c53d
00000250: d0e4 48bd 8ac6 04bc 09f7 53bd f574 c8bd
00000260: fbb0 8abc 8928 fbbb 163e 163d d34f bd3d
00000270: 8a4d 4a3e 00b4 34b9 a445 17bc 0a55 31bd
00000280: 1117 02bd 77fd acbd e9f8 29be 2970 ae3d
00000290: 89f7 a4bd 3a00 fc3c b065 52bd be17 92be
000002a0: 0fc8 523d ef4e 8e3d 7c64 d83c ae57 413d
000002b0: b549 ae3d c9c5 40bd be66 5fbc 73a8 9a3d
000002c0: 8610 70bc e09f 3abe 92dc 55b9 7298 4c3f
000002d0: 2b06 8ebd 3302 4f3d 55a1 783d bf52 b63c
000002e0: e833 083c ff45 653d 910d c53d ee27 8cbd
000002f0: 66cd 503d 7182 d93d f1af bfbc 939d 87bd
00000300: e15f b8bd abba 003d 8f64 41bd 9ea1 433d
00000310: 3eae 6a3c c2a8 4d3b ba2c 9fbc 2e69 a7bd
00000320: 6b2e c43d b7fc 21bd ba7f 52bd 48bc ebbc
00000330: a010 be3e 9a12 33bd 3949 8b3d a51f b23d
00000340: 18fd 243c 4a60 d33a fe70 063d 93e7 96bd
00000350: 7e53 193d ae46 1f3e ed9a b23d 4f85 ef3d
00000360: 3738 a83d edc0 37bd 80be 54bd ceeb ee3b
00000370: 5196 eb3d 7d50 c53d e2d1 033d fe7f 91bd
00000380: 260f 123d 5815 fabc 1fd0 623d cfef 8fbd
00000390: c798 3abd 66f1 32bd 889a 03be a6cd 133d
000003a0: 3238 883d daf1 19bd 336f da3f 01fe 0bc0
000003b0: c9d2 d73d 4c10 033f a198 87bc a074 7abf
000003c0: 4ccb 6f3d 5bf5 8d3d 949d 493d 04b1 0c3d
000003d0: 00bc 733b 2511 f23d 4475 4e3d f5a6 a73c
000003e0: c7c9 6b3b 65ad d83d bb3c c63d 9aa0 47bd
000003f0: 01b8 93bd b398 8fbd 3006 2cbd 285a 333c

fc2.bias f4 [100]
-0.061188497 -0.042268306 0.101050034 -0.05532669 -0.017188855 0.09544315 0.0484723 0.07699681
0.086685255 -0.027229168 0.031696998 -0.043048833 -0.01588968 -0.07215456 0.0019167239 0.077319935
-0.021908913 -0.019586643 0.064241946 -0.04918751 -0.05435168 -0.106886625 0.100766666 -0.09298361
-0.06235497 0.03962934 -0.03050568 -0.074810036 0.034067135 -0.055414695 -0.0885726 0.041805428
0.050853822 0.05386273 0.025371378 0.039710853 0.06133774 0.008068859 0.06353875 0.09220568
-0.031355478 0.07213395 0.057408884 0.02656706 -0.021212693 -0.11554788 0.030475473 -0.048161052
-0.020117778 0.047032718 -0.05493607 -0.060884126 0.10724435 0.03520446 0.017761385 0.01026037
0.048778627 -0.03188368 -0.01540808 0.055926025 -0.07917112 -0.121331595 -0.042648666 0.05459237
0.007588445 -0.09262515 -0.08968801 -0.015395353 -0.0134508815 -0.03680111 0.073230594 -0.0909339
0.07210758 -0.08337354 -0.08037353 -0.08405225 0.0338415 -0.0007007056 -0.01165458 0.067498825
0.08389477 0.057819463 0.02987846 0.0031656758 0.05749912 -0.06392719 -0.06350774 0.07312978
0.00025480404 0.06758084 -0.034312684 0.039883796 0.053567972 -0.11227339 0.10863121 0.019428127
0.034048874 0.030507974 -0.024294797 -0.073266834
00000000: caa0 7abd 8821 2dbd 52f3 ce3d 3d9e 62bd
00000010: a4cf 8cbc b377 c33d e48a 463d 81b0 9d3d
00000020: 0a88 b13d b40f dfbc b6d4 013d f953 30bd
00000030: 132b 82bc c5c5 93bd 953a fb3a ea59 9e3d
00000040: 527a b3bc 2b74 a0bc 4891 833d d878 49bd
00000050: de9f 5ebd 60e7 dabd c15e ce3d 316e bebd
00000060: ed67 7fbd 6052 223d 0ce7 f9bc 0136 99bd
00000070: fb89 0b3d 85fa 62bd 8d65 b5bd 2b3c 2b3d
00000080: 194c 503d 2a9f 5c3d a3d7 cf3c d9a7 223d
00000090: 483d 7b3d 3f33 043c 9b20 823d 55d6 bc3d
000000a0: 9a6e 00bd f7ba 933d 9425 6b3d 2aa3 d93c
000000b0: 3ec6 adbc 5ea4 ecbd b3a7 f93c 8644 45bd
000000c0: 0ace a4bc 61a5 403d a504 61bd a261 79bd
000000d0: eda2 db3d 8d32 103d 5380 913c 1c1b 283c
000000e0: 19cc 473d 7698 02bd 2c72 7cbc b012 653d
000000f0: 7824 a2bd b37c f8bd 5eb0 2ebd 409c 5f3d
00000100: 7ea8 f83b 41b2 bdbd 59ae b7bd ca3c 7cbc
00000110: 1661 5cbc c3bc 16bd ecf9 953d 8d3b babd
00000120: 24ad 933d bfbf aabd e19a a4bd 9623 acbd
00000130: 629d 0a3d 8faf 37ba daf2 3ebc d33c 8a3d
00000140: 05d1 ab3d 1ad4 6c3d acc3 f43c 3a77 4f3b
00000150: 3284 6b3d 42ec 82bd 5910 82bd 11c5 953d
00000160: 3897 8539 d367 8a3d 758b 0cbd 315d 233d
00000170: 176a 5b3d 97ef e5bd 0a7a de3d bc27 9f3c
00000180: d576 0b3d dceb f93c e205 c7bc ec0c 96bd

fc3.weight f4 [3, 100]
-0.60217863 -0.3735137 0.19430035 0.4181503 -0.55718136 0.20047161 -0.5896999 0.51404876
0.37671018 0.49847063 0.6052312 -0.481723 -0.57091796 0.01500585 -0.50948185 0.31130034
0.36788717 0.5295109 0.21977188 -0.62243843 -0.6886966 0.29628855 -0.6515233 -0.5117837
-0.3452261 0.5533804 0.6238983 0.5961363 -0.53377265 0.56782925 -0.3586517 -0.49565217
-0.48951054 0.29196674 0.49748093 0.4974753 -0.037198823 -0.40661138 0.23529495 0.21975747
-0.48278514 0.498823 0.4993794 0.14327607 -0.48087993 0.020531397 0.5808278 -0.55467755
0.20355317 -0.5633493 -0.68261874 -0.51609623 0.31655693 -0.33885998 0.68601334 0.5127362
-0.11297175 0.38181314 0.53342044 0.41893193 -0.35798258 0.41499278 -0.5275755 0.2753651
0.39163497 -0.6099432 0.27706173 -0.45296785 -0.40647835 -0.4982312 -0.63426936 -0.4721231
-0.64864576 -0.45620167 0.42900845 0.5787059 -0.5074332 -0.21324563 0.65727055 0.43098864
-0.4968736 0.7075998 0.49260086 -0.5950709 -0.3045722 -0.021361077 0.18224137 0.36376747
-0.60676503 0.46856967 -0.4899836 -0.40077445 -0.10095929 0.13875854 0.36510184 0.21835476
-0.5048497 -0.5057566 0.41044804 0.3067409 -0.04346971 0.31428003 0.33079752 -0.454942
0.5177627 0.43902588 0.2496064 -0.44750342 -0.39627784 0.14464338 -0.49308342 0.36788356
0.047954656 -0.5485873 0.33391708 -0.71383697 -0.5864808 -0.6118887 -0.4750391 0.22100045
0.27225438 -0.53149277 0.327835 0.081277594 0.63579935 -0.47621205 0.45816374 -0.22241236
0.5852689 -0.48448774 -0.6239405 -0.20843352 0.42576915 -0.40987846 -0.5352638 -0.45558771
0.5715058 0.2791514 -0.57086253 -0.6982592 0.45880905 -0.2164653 -0.21682109 0.53890145
0.4230321 0.062181298 -0.2838914 0.074183166 -0.6493438 0.2697847 0.22901395 0.4838223
0.50285095 0.6081746 -0.37263384 -0.44791964 -0.75775224 0.109348655 0.0035904942 -0.013516543
-0.4970061 -0.54813844 0.13921185 -0.6358339 0.17755707 0.25612637 -0.012765537 0.5799349
0.14827278 0.009129088 0.23974177 -0.3954228 0.2573741 0.5305508 0.012202699 -0.32740745
0.23723677 -0.5671901 -0.3535294 0.24266975 0.43372124 0.32687098 0.25610945 0.1882262
0.5561991 0.75736344 -0.54646796 0.19239047 0.1654546 0.16126962 0.4551308 0.036588244
0.3346028 -0.5324222 0.33042634 -0.5734063 0.2783484 -0.0895873 0.26439682 -0.49760482
0.4855506 -0.20629624 -0.45947868 0.003895552 -0.15853745 -0.65810835 0.12474881 -0.11170011
0.10397075 -0.6676387 -0.16432355 -0.039531313 0.48794 0.48782408 0.014384108 0.39715606
0.24171282 0.12132813 0.3259066 0.20936906 0.16272965 0.31051964 0.32174492 0.2967965
-0.31986496 -0.05415703 -1.1702195 -0.3836605 -0.31308165 -0.036459528 0.5608381 0.73956376
0.02127645 0.10909526 0.21141192 0.15415654 -0.5644315 0.067044616 0.32017848 0.46667624
-0.06157181 -0.12549254 -0.25513765 -0.56480306 -0.20257019 0.031978462 -0.25054815 0.30433956
0.5320503 0.25703958 0.1845257 -0.107714854 -0.5824564 -0.43345365 -0.07520186 -0.14049259
00000000: 6128 1abf 303d bfbe acf6 463e cc17 d63e
00000010: 70a3 0ebf 6e48 4d3e 93f6 16bf b398 033f
00000020: 28e0 c03e 8b37 ff3e 6ff0 1a3f 66a4 f6be
00000030: ae27 12bf 19db 753c 676d 02bf c262 9f3e
00000040: b55b bc3e 078e 073f e10b 613e 2058 1fbf
00000050: 6c4e 30bf 22b3 973e 3bca 26bf 4204 03bf
00000060: 7ac1 b0be 57aa 0d3f cdb7 1f3f 639c 183f
00000070: 53a5 08bf 425d 113f 32a1 b7be 1fc6 fdbe
00000080: 20a1 fabe aa7c 953e d2b5 fe3e 15b5 fe3e
00000090: cb5d 18bd 5e2f d0be 29f1 703e 1a08 613e
000000a0: 9d2f f7be ba65 ff3e a8ae ff3e f6b6 123e
000000b0: e535 f6be 7631 a83c 21b1 143f 59ff 0dbf
000000c0: 3e70 503e a937 10bf 1ac0 2ebf e21e 04bf
000000d0: c013 a23e 0e7f adbe 929e 2f3f ae42 033f
000000e0: bc5d e7bd 037d c33e 3e8e 083f 3f7e d63e
000000f0: 7e49 b7be ef79 d43e 300f 07bf a8fc 8c3e
00000100: 6184 c83e 3d25 1cbf 09db 8d3e 67eb e7be
00000110: ee1d d0be 2918 ffbe 7a5f 22bf 1eba f1be
00000120: a60d 26bf 4493 e9be ffa6 db3e 1226 143f
00000130: 24e7 01bf 105d 5abe e242 283f 8baa dc3e
00000140: 3766 febe 4325 353f 2e36 fc3e 9156 18bf
00000150: e3f0 9bbe 6dfd aebc 7b9d 3a3e bb3f ba3e
00000160: f454 1bbf 5de8 ef3e 21df fabe 4f32 cdbe
00000170: bfc3 cebd b816 0e3e a1ee ba3e 6498 5f3e
00000180: d43d 01bf 4479 01bf 3f26 d23e 250d 9d3e
00000190: 4b0d 32bd 50e9 a03e 4b5e a93e 28ee e8be
000001a0: 198c 043f 00c8 e03e d298 7f3e 2b1f e5be
000001b0: eee4 cabe 651d 143e 6e75 fcbe 3c5b bc3e
000001c0: 1a6c 443d 3870 0cbf 2ef7 aa3e 05be 36bf
000001d0: 9b23 16bf bda4 1cbf 5338 f3be f14d 623e
000001e0: ed64 8b3e e90f 08bf fdd9 a73e de74 a63d
000001f0: bfc3 223f 11d2 f3be 7094 ea3e 11c0 63be
00000200: 2fd4 153f c70e f8be 91ba 1fbf 996f 55be
00000210: 6afe d93e 97db d1be 0c07 09bf cb42 e9be
00000220: 344e 123f efec 8e3e 0c24 12bf 1dc1 32bf
00000230: 05e9 ea3e 14a9 5dbe 5906 5ebe 72f5 093f
00000240: aa97 d83e d1b1 7e3d 375a 91be 58ed 973d
00000250: 653b 26bf 3821 8a3e a282 6a3e 8eb7 f73e
00000260: d7ba 003f 55b1 1b3f ddc9 bebe b955 e5be
00000270: 0dfc 41bf 30f2 df3d 7f4e 6b3b 7e74 5dbc
00000280: 9577 febe cd52 0cbf 8d8d 0e3e 03c6 22bf
00000290: 85d1 353e ff22 833e 8b26 51bc 9d76 143f
000002a0: d2d4 173e 2c92 153c de7e 753e db74 cabe
000002b0: 8ac6 833e 2dd2 073f d4ed 473c f3a1 a7be
000002c0: 32ee 723e 5f33 11bf ce01 b5be 6b7e 783e
000002d0: b610 de3e a25b a73e c720 833e 5ebe 403e
000002e0: 1063 0e3f 92e2 413f 53e5 0bbf 0202 453e
000002f0: ee6c 293e dd23 253e e706 e93e 8edd 153d
00000300: 0f51 ab3e d24c 08bf a42d a93e c1ca 12bf
00000310: ae83 8e3e 8c79 b7bd 055f 873e 0fc6 febe
00000320: 179a f83e 523f 53be ca40 ebbe 844c 7f3b
00000330: a457 22be ca79 28bf 4e7c ff3d 07c3 e4bd
00000340: 9eee d43d 5fea 2abf 6f44 28be 96eb 21bd
00000350: 46d3 f93e 14c4 f93e 52ab 6b3c 0a58 cb3e
00000360: 9183 773e e27a f83d 3bdd a63e d864 563e
00000370: 9aa2 263e 6efc 9e3e c0bb a43e b6f5 973e
00000380: 57c5 a3be c3d3 5dbd c1c9 95bf 266f c4be
00000390: 3d4c a0be 9656 15bd 1693 0f3f 0d54 3d3f
000003a0: f34b ae3c 566d df3d 5e7c 583e 36db 1d3e
000003b0: 957e 10bf b04e 893d 6fee a33e 30f0 ee3e
000003c0: b932 7cbd 1e81 00be 67a1 82be ef96 10bf
000003d0: 8f6e 4fbe d9fb 023d d947 80be 65d2 9b3e
000003e0: 7334 083f b19a 833e 4ef4 3c3e 9b99 dcbd
000003f0: dd1b 15bf a3ed ddbe 6f03 9abd 4add 0fbe

fc3.bias f4 [3]
-0.11910297 0.032210615 0.03173194
00000000: 42ec f3bd 47ef 033d 5af9 013d
