models/home_state_dict.pt (torch, 49439 bytes, 6 tensors)

fc1.weight f4 [100, 13]
00000000: e133 2fbe 7d94 75be 9df9 6abe f06b 463d
00000010: aa26 1c3e bdb8 813e dacd 163e d61f 6fbe
00000020: 3ec8 773e 5d14 8c3e 2daa 78be 8099 56bb
00000030: 54f7 c33d 07e9 97bd f100 79be f119 133e
00000040: 8b29 7ebe 1cc1 2a3e 91da febd 8bb0 27bd
00000050: be3a 5abe 9f04 e3bc 9519 27be 2744 3abe
00000060: 57d8 ebbc bf4d 143d 15a8 1d3d f545 19be
00000070: 0723 0ebe 4107 b5be 8a64 a6bd 9c34 aebc
00000080: 2767 393c d570 0fbe ed24 573d 1ecc 51be
00000090: 2dc8 1ebe cb3b 3a3e 7912 03bd 56ce 75be
000000a0: e4d0 00be c512 06be f0c6 c33d dc1b 3bbe
000000b0: e166 55be 2e83 5e3e a8a1 59be 6977 18be
000000c0: d0bb efbc 1873 5dbd c662 5a3e 66fa 633e
000000d0: 54a0 9fbd 536f 09be 9ce8 c03d f4e1 993d
000000e0: a4fc 4cbe 0538 88be fe90 783e e23a 0abe
000000f0: 8512 8b3e a8f2 fdbc 406d 213e dc2c 73be
00000100: a07c 533e 1003 303e feb6 62be d42e 573e
00000110: f0be 01be a61a 3c3e b331 87be d025 123d
00000120: 3c5f 243e 5200 633e 806d 243b 4a30 483e
00000130: 8010 f93d 1023 1c3e 3446 debd dbb7 873e
00000140: 3b98 8cbe 6c4e 023e a064 333e 3ea2 0c3e
00000150: c8c5 313d 0e48 60be 504d 003d 7eda 3abe
00000160: 177f 843e 7cca 97bd cafd 6e3e cfa7 7ebe
00000170: f43d e1bd 7060 1b3d 4080 103c daee 6f3e
00000180: 1add 94bd 3182 21be 6c94 553e 1e47 683e
00000190: ecf5 64be cd9e 83be 419d 04be 08a1 403e
000001a0: 2c8c 88bc 2c0a 953d 4680 c4bc c8cb 913e
000001b0: 6949 a13e 6a4b 443e c3e3 21bf d26a 3c3e
000001c0: 5fda d83d ac24 4f3e 2028 923e 9bef 9e3d
000001d0: 4ddc 02bd 4b0b 843e c63c 80be c024 933b
000001e0: 6885 88bd e611 5fbe 2606 0f3e 377a 42be
000001f0: 887e 87bd 68be 1b3e a4cb 923d 5c70 58be
00000200: a286 073e dfd6 0fbe f200 14be 50fc 62be
00000210: d0ac 1dbe d01f 0abd 486f 33bd d5b6 883e
00000220: 4481 d8bd 187b 86be 3bb9 10be 8c33 a63d
00000230: 688e 73be 00ee c6bd e48b 77be 1099 803e
00000240: d8d6 d7be a05f ecbe c14b c73d c7c1 313e
00000250: 5328 003f 4172 873f 1eee a43f 1bfa b93f
00000260: c754 78bf 2b2a 943f e271 823f fe99 36bd
00000270: fce2 72bd e0bd b53c eac4 1f3e 7c9b 533e
00000280: 4000 d4bb 6e1d d8bd da22 363e 3801 77bd
00000290: 5f8a 853e c8a3 353e d036 94bd 8082 4b3b
000002a0: 4c8b 60be 64c3 373e 50ba ad3c b069 f43c
000002b0: 7b82 8d3e 7e31 693e b4f5 8b3d a032 3cbd
000002c0: 2c1d 5abe 006f 75bb dc81 cbbd 8552 843e
000002d0: e4bb ee3d a032 4fbe 9f87 01be 5af6 c1bd
000002e0: 683c 273d fc14 b23d 7c92 c73d 89c1 883e
000002f0: 5660 62be ec7d d33d 9055 62be 6247 643e
00000300: 1eb7 6d3e e99e 7fbe 0a88 33be eabc 84bd
00000310: 6055 6dbc 70ca 013e 221e 01be f708 873e
00000320: b8da f93d 106a 5abd 4016 063d a226 123e
00000330: c4d3 d63d c21d 16be 5ec7 7bbe 7e84 0c3e
00000340: 435e 073f 2a67 e03c 2789 2abf 80eb fb3e
00000350: 6ec9 21bd 54ef 79bf 09d4 abbf 9bd7 593f
00000360: 07c5 95bf 3cf7 5d3f 3304 643e 9409 04bf
00000370: 6563 36bc ac2c 99bd 78ea da3d b0f0 acbd
00000380: ac43 d13d 0a25 5f3e 6ab0 553e 8aef 6e3e
00000390: 003e 213d a789 893e 7a6a dabd a015 073c
000003a0: 9e00 a1bd aafb 503e 966d c6bd b235 92bd
000003b0: aa64 f8bd f3c0 843e abaa 87be fc82 933d
000003c0: caea b5bd 0412 adbd 0ab8 a3bd 9c90 023e
000003d0: d004 c33c 0a09 95bd ba76 5d3e b61f 563e
000003e0: 92fa 793e 2039 a2bc bab2 86bd e45a 11bd
000003f0: c0bc f6bc 0085 983c 1d64 8bbe 20c3 3dbd
-0.17109634 -0.23982425 -0.22946782 0.04844278 0.15249124 0.25336257 0.14726964 -0.23351988
0.2419748 0.27359286 -0.24283667 -0.0032745302 0.095686585 -0.07417493 -0.24316765 0.14365365
-0.24820535 0.16675228 -0.12444032 -0.04093985 -0.21311471 -0.027712164 -0.16318353 -0.1819006
-0.028789682 0.036206957 0.038490374 -0.14968093 -0.1388055 -0.35357097 -0.08124645 -0.02126532
0.011316097 -0.14007886 0.05252545 -0.20488021 -0.15506049 0.18186872 -0.03200004 -0.24004492
-0.12579685 -0.13093098 0.09559429 -0.18272346 -0.20840026 0.21729729 -0.21253073 -0.14889301
-0.02926436 -0.05406484 0.21326742 0.22263488 -0.07794252 -0.13421373 0.09419367 0.075138
-0.2001825 -0.2660524 0.2427406 -0.13499025 0.27162567 -0.030999497 0.15764332 -0.23747581
0.2065301 0.17188668 -0.22140118 0.21013957 -0.12670493 0.1836954 -0.26405105 0.035680592
0.16051954 0.22168091 0.002508968 0.19549671 0.1216135 0.1524775 -0.10853234 0.26507458
-0.27459893 0.12725228 0.17518854 0.13733765 0.04340151 -0.21902487 0.03132373 -0.1824741
0.25878212 -0.07411668 0.23339 -0.24868701 -0.10998145 0.037933767 0.00881964 0.23430958
-0.07268734 -0.1577232 0.208574 0.22683379 -0.22359437 -0.25707093 -0.12950613 0.18811429
-0.016668402 0.07277331 -0.023986947 0.28475785 0.3150132 0.19169393 -0.6323816 0.18400124
0.10588526 0.20228833 0.28546238 0.07760545 -0.031948376 0.25789866 -0.25046366 0.004490465
-0.0666607 -0.21784171 0.13967189 -0.18991934 -0.06615931 0.15209353 0.071677476 -0.21136612
0.13234952 -0.1404681 -0.14453486 -0.22166562 -0.15397954 -0.033721745 -0.043807298 0.2670199
-0.105715305 -0.26265788 -0.1413316 0.081153005 -0.23784792 -0.09713364 -0.24174458 0.25116777
-0.421561 -0.46166706 0.09731246 0.17359076 0.5006153 1.0581743 1.2885168 1.4529451
-0.9700436 1.1575369 1.0191004 -0.044580452 -0.0592985 0.022185266 0.1560246 0.20664781
-0.0064697564 -0.10552488 0.17786732 -0.060303897 0.2608213 0.17738259 -0.07237017 0.0031053126
-0.21928138 0.1794563 0.021207005 0.029835552 0.2763861 0.22772786 0.068339735 -0.045946717
-0.2130019 -0.0037450194 -0.09936878 0.25844207 0.11656931 -0.20234156 -0.12649392 -0.09470816
0.040829092 0.08695409 0.097447366 0.26710156 -0.22107062 0.10326752 -0.22102952 0.22292855
0.23214385 -0.24962963 -0.17532364 -0.06481345 -0.014485687 0.1267488 -0.12609151 0.26374027
0.121999204 -0.053323805 0.032736063 0.1427255 0.1048961 -0.14659789 -0.24587771 0.13722417
0.52878207 0.027392942 -0.6661553 0.4920311 -0.03949874 -0.9763081 -1.3424083 0.8509461
-1.1700753 0.86705375 0.22267227 -0.51577115 -0.011132096 -0.074792236 0.106892526 -0.08444345
0.102179855 0.21791473 0.20868078 0.23333564 0.03936577 0.26862833 -0.1066484 0.008244902
-0.07861446 0.20408502 -0.096888706 -0.07139148 -0.12128575 0.2592846 -0.26497397 0.07202718
-0.08882673 -0.08450702 -0.07994087 0.12750477 0.023806006 -0.07277115 0.21627322 0.20910534
0.24411991 -0.01980263 -0.06577058 -0.03548707 -0.0301193 0.018618107 -0.27224818 -0.046328664

fc1.bias f4 [100]
00000000: 22d7 9abd fa53 a9bc be9a d03d 2fac 52be
00000010: 2005 d63d 007d c03a b11c 89be 4642 47be
00000020: 290c cc3e 2554 823e 7e46 763e ce0b 363f
00000030: 38af 44be 5443 433e 0093 673c f8da efbd
00000040: 0f11 163f 82ba 4f3e eed0 6c3e 3acd 713e
00000050: e084 eabc 96c3 d2bd 1b4e 51be a8a7 223d
00000060: 5df5 8c3e b21b 053e 60fe 4cbd 4cb2 f0bd
00000070: 4265 17be 7867 cabd 7888 0f3f e22d 80be
00000080: acab 52be 4a97 84be d014 be3d b6b1 763e
00000090: ccce 8e3d ffea 8cbe 8265 41be 4852 d23d
000000a0: 7873 633d 17da 48be 30d6 bcbd b909 173f
000000b0: 4fce fcbd c89a 353d 12f0 883c 8e21 8c3e
000000c0: d227 1c3e fada 05be 4c76 99bd 4c48 acbd
000000d0: ff41 52be 36c7 513e 58eb 1c3e 6f51 80be
000000e0: 28fe 94bd c891 6f3d dbf9 1a3e 6a27 683e
000000f0: 1425 ffbd 68ea 753d c07f 1bbc 4fa1 b13d
00000100: 6025 e1bd 0700 88be 70a4 43bd a22e c5bd
00000110: 7291 4fbe 6836 2f3e b5ba 863e 2050 e0bd
00000120: 0d23 12be 6a5f cb3d 2004 3a3e 1d89 d63e
00000130: 327f 4b3e e041 6b3c 7aa0 703e 07f4 1bbe
00000140: 2628 3d3e 2224 c9bd 7028 b73d 8766 04bd
00000150: ec68 7cbe ee23 fcbd 48e7 6cbe 5062 a0be
00000160: 366f 3dbe 523e 243e 24e0 8b3e a9b9 32be
00000170: 60d6 e6bd bc1a 10be 7220 3e3e 4c2d 1fbe
00000180: ed04 9e3d afc3 86be f6a9 233e 0716 793e
-0.075605646 -0.020669926 0.10185765 -0.20573495 0.10450196 0.001468569 -0.26779702 -0.19458875
0.39853027 0.25454822 0.24050328 0.7111176 -0.19207466 0.19068652 0.014134169 -0.11711687
0.5861978 0.20285991 0.23126575 0.23613444 -0.028627813 -0.10291211 -0.20439951 0.03971067
0.27530947 0.12998846 -0.05004728 -0.117527574 -0.1478472 -0.09883016 0.5606761 -0.25035006
-0.205733 -0.25896674 0.092813134 0.24091229 0.06973037 -0.27523038 -0.18886378 0.102696
0.05553004 -0.19614445 -0.092205405 0.5899921 -0.12344038 0.044337064 0.016716037 0.2736935
0.15249565 -0.13071814 -0.074932665 -0.08412227 -0.20532988 0.20486149 0.15324152 -0.2506213
-0.07275039 0.058488637 0.15134375 0.22671285 -0.12458244 0.060038 -0.009490907 0.08673345
-0.10993457 -0.2656252 -0.04776424 -0.09628035 -0.20270327 0.17110598 0.2631432 -0.10952783
-0.14271183 0.09930308 0.18165636 0.41901484 0.1987274 0.014358968 0.23498717 -0.15229808
0.18472347 -0.09821345 0.0894326 -0.03232434 -0.246494 -0.123115405 -0.23135102 -0.31325006
-0.18499455 0.16039398 0.27319443 -0.17453636 -0.112713575 -0.14072698 0.18567064 -0.15544623
0.07715783 -0.2632117 0.15982804 0.24324809

fc2.weight f4 [100, 100]
00000000: 3155 d1bc 4909 9c3d 8ead a83d 456a 963d
00000010: 0599 343d 080e d23c e1c5 e03c 5f72 553d
00000020: 5cbe a1bd a8ad 783c 8a1e 5c3d 3243 91bf
00000030: 4344 913d 6037 323b 2dee a3bd 6de2 cc3d
00000040: dbe6 d4bd 29b9 903d 2a4a a33b 5f2b 113e
00000050: bbe1 10bd e33b 853d 34ce 13bd e77f 4a3d
00000060: 323d 7f3d 3bcf 5cbd 41ac 853d d316 ab3d
00000070: 4d83 f93d dbd6 e83d 1922 cbbf d40d d83c
00000080: 7978 d33d 6564 713d b76a afbd 3620 033d
00000090: 5fb7 be3d 81b3 0dbd 931b 223c fb61 9f3b
000000a0: 175b b3bc a7cf ed3e 5701 a53c 8394 aebf
000000b0: 1bae 313f b8d6 b9bc daf4 8cbe c14f f3bd
000000c0: c367 1cbc 05a9 0b3c b0f5 99bd 4ff3 a43d
000000d0: 78a4 dc3d c745 ba3d 80c2 143a a5c5 4dbc
000000e0: 6b20 eabc 8787 ee3d f357 3d3e 2706 e8bc
000000f0: 3b2f 253c 00ea 55bd 10f7 e8bc 20b0 983d
00000100: 3f04 7a3d 431d 233e 173e 1d3d 0261 f53c
00000110: 1308 473e 4501 c93d 77e0 5bbd 2021 3fbc
00000120: fae4 aa3d 306e a73d 7066 ae3c 189b 97be
00000130: 8143 db3d 247a 0bbd d05d 37bc db39 a7bb
00000140: 0357 e9bc bd55 953d b228 3a3d 596a 8f3d
00000150: e1fc 143e 92a8 8f3c ff59 b43d 500f a63c
00000160: e301 9b3d e680 7ebc 61f9 6e3d 6d76 95bd
00000170: c867 b6bc aa58 7c3d 8fc5 443d 9685 93bd
00000180: adc8 a8be 0231 db3c 1283 98bc f48c 9ebe
00000190: d94b a23d 8577 c03d f928 e03d a687 d73c
000001a0: 32b3 2ebb f108 e6bc 0d5f 913d 09aa aa3d
000001b0: 2bcf c3be bd42 a13d 14d2 acbc d3a8 6cbf
000001c0: fff4 bb3d 7d5e 6ebd 177a b73d 7edd 1fbd
000001d0: e141 b5bf 1793 ce3d 08cd 663d c990 80bd
000001e0: 5647 e43a f56b 0a3d 5a5e 25bd 7060 acbc
000001f0: 5a95 233d 35ee 93bb 803e 4f3a aede 1b3d
00000200: d93c c53d 5369 0abd 406c 95bf 8e14 86bd
00000210: 6113 d33b b47b acbc 006a dbba 2d46 4cbd
00000220: 4ae9 0c3d 7376 f5bc f206 13bd 4e0b 02bd
00000230: e3c0 84bd d494 1d3f 47b3 e33d e661 7f3e
00000240: 9ddf 0abf b07e e03b 7c13 6dbd ef96 d53d
00000250: fb31 f3bd cb90 5b3d 270e 5cbd dc36 7f3d
00000260: f3f4 bc3d c918 cb3d 58c4 91bc c7cd ef3d
00000270: 4eb7 cabc 8f5a eb3d 505d 4cbc 8dfb 003e
00000280: 2b63 113c 5d07 993d 915e 1d3d ad4d 1f3d
00000290: d4ed fe3c b2d9 fb3c 3ded c93d 6cac 7fbd
000002a0: 21d9 a13e b020 533c 28bd c1bc ad1e 633c
000002b0: dfc7 a0bc 6ec4 4abd 6677 543c 805c c3be
000002c0: 2b3b b73d b319 8dbd 6d2f 923d 9810 a63c
000002d0: db75 003e 50fa ac3d b4a4 ff3c 771f ed3d
000002e0: 1dcb ec3d dbf4 bc3d 607c 193b 33f4 003f
000002f0: f0fb 613c 0129 42bd 35e5 b93d 3b4f 83bd
00000300: e090 77bd 5c97 01bd f452 f83c e726 913d
00000310: 9562 08bf 9ebe 8cbd 5327 02bc fdd9 f9be
00000320: cf66 c73b 6f24 363d cfd4 a53c eba7 f43c
00000330: 1e1d 0abe fdbf 51bd 5dcb 093d c2bb 0abe
00000340: cd08 9e3e 227a 90bd 2a56 b2bd 2905 7b3f
00000350: 149d dbbc fbc8 ad3d 5d47 7abd b34e 94bd
00000360: d709 b83f c322 66bd 544b 94bd 7f2b c23c
00000370: 6128 bbba a702 03be 3eb2 413d 82fa 4c3c
00000380: c38f b83d 3487 893d ee4d 593d 5b71 403d
00000390: 7f26 69bd 1d10 16bc 422f 963f bdc8 22bd
000003a0: df19 14be 07f1 e8bc e882 0abc d0e1 81bb
000003b0: 622e 6b3d ed83 db3c 2ad3 de3c 50d7 8ebd
000003c0: 76ac 05be 99d0 08bf 5489 f5bd 5c7d 09be
000003d0: 6e5d ca3d a9c1 c83d 8267 443e b85f 453d
000003e0: c0f7 2b3d bae4 b7bd 9079 04bd 771e 5bbd
000003f0: b4a1 95bd e9bd 1dbd 0d15 2cbd 741e 9dbd
-0.025553318 0.076189585 0.08236228 0.07344488 0.044091243 0.025641456 0.027438106 0.052111026
-0.07897636 0.015178122 0.05374006 -1.1348631 0.07093098 0.002719365 -0.08004413 0.10004125
-0.10395595 0.070665665 0.0049832063 0.14176701 -0.035371523 0.06505563 -0.036085322 0.049438383
0.06231422 -0.053908568 0.065269955 0.08353963 0.12183247 0.113691054 -1.5869781 0.026373781
0.10325713 0.058933634 -0.08565276 0.03201314 0.09312319 -0.034595016 0.0098942695 0.004863975
-0.021894021 0.4644749 0.02014224 -1.3639072 0.6940629 -0.022685394 -0.27530557 -0.11880446
-0.009546223 0.008524184 -0.07517564 0.0805422 0.107735574 0.0909534 0.0005674735 -0.012559329
-0.028579911 0.116469435 0.18490581 -0.028323246 0.010082061 -0.052225113 -0.028438121 0.07455468
0.061039206 0.15929131 0.03838929 0.029953483 0.19436674 0.09814695 -0.053680863 -0.011665612
0.08344455 0.081753135 0.02128908 -0.29610515 0.10706235 -0.03405203 -0.0111918 -0.0051033325
-0.028483873 0.07291744 0.045448966 0.07002706 0.1454959 0.017536435 0.08806228 0.020270973
0.07568719 -0.0155336615 0.058343295 -0.072979786 -0.022266284 0.061607994 0.04803997 -0.07203214
-0.32965603 0.026756767 -0.018617187 -0.30966914 0.07924623 0.093977965 0.10945315 0.0263098
-0.0026657102 -0.028080435 0.070982076 0.08333213 -0.38243994 0.078740574 -0.021096267 -0.92445105
0.09177589 -0.05819558 0.08958834 -0.03902959 -1.416073 0.10086649 0.056347877 -0.062776156
0.0017416279 0.033794362 -0.040373184 -0.021042079 0.039937355 -0.0045144805 0.00079057366 0.03805416
0.096307464 -0.03379185 -1.167366 -0.06546889 0.006441519 -0.02105508 -0.0016739964 -0.049871612
0.03440217 -0.029963708 -0.035895295 -0.031749062 -0.06482103 0.6155522 0.11118179 0.24939689
-0.54247457 0.00685104 -0.05787991 0.10429179 -0.118747674 0.053604882 -0.053724434 0.062308177
0.09226408 0.09916837 -0.01779382 0.11709171 -0.02474561 0.11491882 -0.012473419 0.12595959
0.008873741 0.074721076 0.038420264 0.038892437 0.031119265 0.030743454 0.09859703 -0.062420294
0.3161097 0.012886211 -0.023649767 0.013862294 -0.019626556 -0.049503736 0.01296792 -0.3815651
0.08946832 -0.06889667 0.07137952 0.020271584 0.12544958 0.08446181 0.031206466 0.11578267
0.11562178 0.0922639 0.002342008 0.5037262 0.013792977 -0.047402386 0.09076921 -0.064115964
-0.060440898 -0.03163849 0.030312993 0.07087498 -0.53275424 -0.06872295 -0.007943946 -0.48799124
0.006085254 0.04446834 0.020243077 0.029865226 -0.1348767 -0.051208485 0.033641208 -0.13548186
0.3086609 -0.07054545 -0.08707841 0.9805475 -0.0268083 0.084855996 -0.061103214 -0.07241573
1.4378003 -0.056185495 -0.0724093 0.023702381 -0.0014279002 -0.1279398 0.047289126 0.012510898
0.09011795 0.06715241 0.053052835 0.046983104 -0.05692148 -0.009159115 1.1733172 -0.03974222
-0.14462994 -0.028435243 -0.008454062 -0.0039636865 0.05741728 0.026796306 0.0272003 -0.06974661
-0.1305407 -0.53443295 -0.11989084 -0.13426727 0.098811015 0.09802563 0.1918011 0.048186988
0.04198432 -0.08979173 -0.032342494 -0.05349585 -0.07306233 -0.03851119 -0.042012263 -0.07671824

fc2.bias f4 [100]
00000000: 9014 a83c 1b64 a63d f918 cbbd c163 a43d
00000010: 6ef7 823d 8a67 99bd 7a84 0fbd b8d1 6abc
00000020: fefe 65bc 6788 5fbd 5995 93bc 5929 80bd
00000030: 1990 0ebd 2a64 9dbd c24c 383d 6ec8 253d
00000040: f835 2fbd 87e1 9b3c 752b e2bd 4d0f cfbc
00000050: ff10 313d 2cff 343c c84e d33c 31f6 3abd
00000060: 6443 0a3d 8937 703d e6c1 d53c efa4 c5bd
00000070: 9915 75bd e064 05be 6f52 ca3b d7cd b43d
00000080: 1df9 4dbd e920 403d 2ba5 f5bc dc10 51bc
00000090: 73d8 103d 4b89 bb3d 78bd ffbc 8250 713d
000000a0: 4244 27bd 38b5 813c fa7d a23d 2281 733d
000000b0: d43d fabd 8622 dfbc 57fd c9bd 58a3 d63d
000000c0: cb5d 71bd 48f9 a8bc a927 f83c b7d0 d7bd
000000d0: 683e 16bb 4e11 1c3e e65b c7bc a235 e13d
000000e0: b0de af3c 0b87 2dbc 5a90 533d e592 8a3c
000000f0: ca5a cf3d d5ca ed3d b7bb 80bd 37c9 96bd
00000100: 2c7c 97bc 576f 003e 3d87 643c 1347 58bb
00000110: b03c 793b 5fd8 aabd 67b9 2f3d ee10 9bbd
00000120: 3c03 083e ad34 8c3c 0b36 593c 2431 953d
00000130: ce76 2e3d d6d1 36bd babd aebd f79f ce3d
00000140: fee9 33bc 8a25 7e3d 7ac4 d93c b756 4e3c
00000150: 430b 41bd 7c00 013d 6470 77bc a6b1 063e
00000160: a55e e0bd 0158 7c3d 20bb 7c3d 12b0 54bd
00000170: 1898 96bb 84fd 883c 9f4f 313d 925f f23d
00000180: 5336 a73c 6e4c 33bc 768b aebd 72a6 cebd
0.020517617 0.08124562 -0.099168725 0.08026839 0.0639485 -0.07490452 -0.03503845 -0.014332227
-0.014037846 -0.054573443 -0.01801555 -0.062578864 -0.03480539 -0.076851204 0.044995077 0.040474348
-0.042776078 0.019028438 -0.11043445 -0.02527585 0.0432291 0.011047166 0.025794402 -0.045644943
0.033755675 0.058646712 0.026093435 -0.09650599 -0.05983505 -0.13026762 0.0061743776 0.08828323
-0.0502864 0.046906386 -0.029985985 -0.012760367 0.035362672 0.09157046 -0.031218275 0.05891467
-0.04083658 0.015833482 0.07934184 0.059449323 -0.12218824 -0.027238142 -0.09862774 0.10480374
-0.05892734 -0.020626679 0.030292349 -0.10537856 -0.002292538 0.15240976 -0.024335813 0.10996558
0.02146849 -0.010591279 0.051651336 0.016915748 0.101247385 0.11610953 -0.06285804 -0.073625974
-0.018491827 0.12542473 0.013948259 -0.0033001348 0.0038030557 -0.08342051 0.042901423 -0.075715885
0.13282484 0.017114962 0.013257514 0.072847635 0.04259377 -0.04463371 -0.08532281 0.100891046
-0.010981081 0.06204752 0.026582945 0.012593917 -0.04712988 0.031494603 -0.01510248 0.13153705
-0.10955552 0.061607365 0.061701894 -0.051925726 -0.0045957677 0.016722448 0.043288823 0.11834635
0.020411646 -0.010943515 -0.08522694 -0.10090341

fc3.weight f4 [3, 100]
00000000: 8c41 9e3e 8feb e43e 6e39 dabe d8bf 073f
00000010: ed77 0b3f 19f7 433e 3989 9cbe 2461 fe3e
00000020: dece 0b3f 7a30 61be 03c8 b0be b480 12be
00000030: 4e7e 9c3e 6bf5 fd3d aba7 96be 150c da3d
00000040: 2f19 f0be a51f 803d 6ed8 e8be bdb3 13bf
00000050: 0d26 0ebf d4d3 f73e 17be e73e 1cee de3e
00000060: 40b0 babe 3abe 733d 7e18 0e3e 74d8 02bf
00000070: a7d3 94be 5b11 c3be 12f6 9dbe 37f1 b53e
00000080: c0a2 cbbc e8ca c03d c8b5 c1be 7551 8cbe
00000090: 9903 f3be 7f90 e53e 1979 b13e 78ea 1dbd
000000a0: 3469 c2be 8718 a4be 81c4 d0bd 58e3 783e
000000b0: e4c8 63be 9502 c83e 278b f8be 4405 a23e
000000c0: 73d8 0cbf 9507 1fbf 56f9 debe 5743 84be
000000d0: 11c3 02bf a5fa ec3e 2141 2bbf fedd d93e
000000e0: 3028 053f d070 433f 9045 4ebd 6a39 1cbf
000000f0: ec4a bf3e b277 203f 2dcd 873e f485 f03a
00000100: 27d0 d4be d95a bc3e 8434 4dbe c324 13bf
00000110: 373e 98be c899 01bf 9a84 2e3e 6f55 75be
00000120: 8b21 fd3e 2168 9e3e a281 c33e ca45 e13e
00000130: 8f6a d13e 2c08 8ebb f65c 403d c6ba 003f
00000140: 715b aebe 03f1 fa3e 38a1 4b3f 7926 0fbf
00000150: bb92 a5be 85b5 463e cfc5 533e da12 d13e
00000160: 1120 1fbe 3ceb 44be ae88 853d 6b7a c13e
00000170: 5bca 09bf 8bd1 bc3e a3b1 dd3e f338 0f3e
00000180: fa1c 92be 6e2c b6be 4715 14bf e401 20bd
00000190: 4d0d 0bbf 3f9a 6bbe ab08 323e a807 ddbe
000001a0: 5553 fcbe 2670 983e e208 cc3e 9f77 f4be
000001b0: bb01 ccbe d90f 993e a22d 803e 9db6 d43e
000001c0: 3cc4 a03e 1d2c 903e feff a5be d305 bf3e
000001d0: 1152 eb3c 5f6c f4be 5228 663e 6e27 f73e
000001e0: 9d58 8a3e d6c7 36be 7cbc b4be ac0a b9be
000001f0: 848b 863e 3512 b73e d4d1 a3be c655 b43e
00000200: 987e ae3e 19c4 ab3e 04a4 b3be c2f3 bdbe
00000210: ecb8 d03e ea49 bb3e 00f6 cd3e 084f ba3e
00000220: 4b1b c63e eb72 cabe 48eb ddbe 6f55 ef3e
00000230: 6891 a73e fa0f 313e 8eef e1be 0411 eabe
00000240: 56cc 103f b015 46be f0f3 dfbe 834a fcbe
00000250: 244b 373d 61eb 8a3e 7f5a 013e c174 8e3e
00000260: 5002 3d3e 01a9 c7be e84f 313e 44f7 92be
00000270: 9f26 debe 672d 0abf 15b2 b4be 0d97 8b3e
00000280: f462 50be a354 cbbe f3dd 7b3e 71f7 dd3e
00000290: e088 8a3e 571b b9be c2fd efbe eb12 c53e
000002a0: 1c46 bb3e 5246 ca3e 9e6b debe b410 993e
000002b0: d9f2 a3be 095f 603e a322 debe 56d2 a8be
000002c0: 812d 9ebe ecc7 bf3e 8889 eb3e 1f16 e3be
000002d0: c4ba 193c 56cd b2be 440f 9bbe edff 763c
000002e0: 9dd3 a63e 244f 0dbf bc2c b6be c566 b3be
000002f0: 15d2 c83e 0404 c13e b5d2 ab3e 25bc d1be
00000300: 4dcd 69bd 456f b5be 8bfc e6be 3fb9 04bf
00000310: b4d8 933e 7a42 4e3e ab57 213e de99 eb3e
00000320: 067d 113f e3f0 04be d227 4b3d 776d 3ebd
00000330: 201a 823d 5020 05bf d5fb 21be 5c36 65bc
00000340: c8da 59be da25 7bbe f7bc 26bd 8db4 d5be
00000350: 84b2 15bf 47ec 1dbf 5081 4a3f 910a 16bf
00000360: 131d d93e 977e 033f c0aa 153e 7bdb 4dbe
00000370: b5b1 333c e94c 93be 8b23 debd 1184 0d3d
00000380: 437d 123d 1af5 f0be d793 283e 9a5a 423e
00000390: 976d 91bd 11e0 b83b e67b 303f f33e 4f3e
000003a0: 3462 cbbe 6f4b 0dbf 230a a1be adc9 5abe
000003b0: 5c46 3c3d d835 8ebd 6866 2e3e a3a2 17bf
000003c0: 2f4c 17be e63b 2b3e 283b 253f d3ba 8d3e
000003d0: 53c7 09bf e2dc 81be 0c54 2d3f 7c25 a23e
000003e0: fd51 033f fec8 6a3e e399 963e 776b 9ebe
000003f0: 2c94 363e 580c c53d bc68 173e 7c11 62bd
0.30909383 0.44710967 -0.4262194 0.53027105 0.5447987 0.19137229 -0.30573443 0.49683487
0.5461253 -0.21991149 -0.34527597 -0.14306909 0.30565113 0.124003254 -0.29424796 0.10646836
-0.46894214 0.06256036 -0.45477623 -0.57696134 -0.5552681 0.484038 0.45262215 0.43541038
-0.36462593 0.059507586 0.1387653 -0.5111153 -0.29067728 -0.3809918 -0.308518 0.35535595
-0.024857879 0.09413701 -0.37834 -0.27405897 -0.47463682 0.44836804 0.34662703 -0.038553685
-0.3797089 -0.32049963 -0.1019373 0.24305475 -0.22244602 0.3906447 -0.48543665 0.31644642
-0.55017775 -0.62120944 -0.43549603 -0.25832626 -0.510789 0.46284977 -0.66896254 0.4255218
0.52014446 0.76344013 -0.05035931 -0.61025107 0.37361848 0.6268264 0.26523724 0.0018350468
-0.41565058 0.3678806 -0.20039564 -0.5747797 -0.29734966 -0.50625277 0.17042771 -0.23958372
0.49439654 0.3093882 0.3818484 0.43998557 0.4090161 -0.0043344703 0.046963654 0.50284994
-0.3405414 0.49012002 0.79542875 -0.5591808 -0.3233851 0.19405182 0.20680927 0.40834695
-0.15539576 -0.1923036 0.0652021 0.3778871 -0.53824395 0.3687862 0.4329959 0.13986568
-0.28537732 -0.35580772 -0.57844967 -0.039064303 -0.5431717 -0.23008059 0.17386119 -0.43169904
-0.49282327 0.29773062 0.39850527 -0.47747514 -0.3984507 0.29894903 0.25034815 0.41545573
0.31399715 0.28158656 -0.3242187 0.3730913 0.028725656 -0.4773893 0.22476318 0.4827227
0.27020732 -0.17849669 -0.35300052 -0.36140954 0.26278317 0.35756078 -0.31996024 0.3522169
0.34080958 0.33548048 -0.35086071 -0.37100035 0.40766084 0.3657983 0.40226746 0.3638842
0.38692698 -0.395408 -0.43343568 0.46744868 0.32728124 0.17291251 -0.44128078 -0.45716107
0.5656179 -0.1934421 -0.43740797 -0.49275598 0.044749394 0.27132705 0.12632178 0.2782345
0.18457913 -0.38996127 0.17315638 -0.28704274 -0.4338884 -0.5397553 -0.35292116 0.2726368
-0.20350248 -0.3971301 0.24596386 0.43352845 0.27057552 -0.3615367 -0.4687329 0.38490996
0.36576927 0.39506775 -0.4344148 0.29895556 -0.32021216 0.21911253 -0.433858 -0.32972974
-0.30894092 0.37457216 0.46003366 -0.44352815 0.009382907 -0.34922284 -0.30285084 0.015075666
0.32583323 -0.55198884 -0.35581005 -0.35039344 0.3922278 0.37698376 0.33559194 -0.40963855
-0.057080556 -0.35436454 -0.4511455 -0.51845163 0.2887627 0.20142546 0.15756099 0.4601583
0.56831396 -0.12982516 0.049598522 -0.046491113 0.06352639 -0.5200243 -0.15818723 -0.013990011
-0.21274865 -0.24526158 -0.040707555 -0.41739312 -0.5847552 -0.61688656 0.79103565 -0.58609873
0.42404994 0.51365036 0.14615917 -0.20103256 0.010967662 -0.28769615 -0.10846623 0.034549776
0.03576399 -0.47061998 0.16462646 0.18979874 -0.07100981 0.005641945 0.68939054 0.20238857
-0.3972336 -0.5519323 -0.31453046 -0.21365996 0.045965537 -0.06943864 0.17031252 -0.5923254
-0.14775155 0.16722068 0.6454339 0.27681598 -0.5381977 -0.25363833 0.6770637 0.31669223
0.5129698 0.22928235 0.2941428 -0.30941364 0.1782996 0.09621495 0.14786047 -0.055192456

fc3.bias f4 [3]
00000000: cb9f 953c 4edb 1bbd 7ee7 a83d
0.018264672 -0.038050942 0.08247279
