models/home_state_dict.pt (torch, 49439 bytes, 6 tensors)

fc1.weight f4 [100, 13]
-0.017080445 -0.23841175 0.20918992 -0.15946108 0.11307891 0.102874905 -0.25121763 0.10635927
-0.0030510782 0.27144787 0.18228912 0.23607847 -0.121391535 -0.42765784 1.0122697 0.4211791
-0.03280768 -0.29741982 -0.8024496 -0.53398293 -1.2758437 -1.2065086 1.3077034 -1.2566754
-1.0421722 -0.018715715 -0.166768 -0.27348778 0.18933377 -0.24764338 -0.21633528 0.18217969
-0.13877642 0.03413868 0.008437872 0.17147812 0.21507075 0.18894032 -0.090020865 -0.24585548
0.20874643 -0.2485623 0.010889888 -0.15316217 0.065512836 -0.266137 0.27410713 -0.27328274
0.13858867 0.2257174 -0.060857043 -0.25320566 -0.055615246 0.17528701 0.05829507 -0.18037042
-0.21853687 0.10389066 0.19187355 -0.2229476 0.22374192 -0.0037563443 -0.11865373 0.07350445
0.20563868 0.116667025 -0.26523066 -0.11352572 -0.11792881 0.11761309 0.025677504 0.22441268
-0.24884523 -0.22269204 0.016876401 0.07912663 -0.0887521 -0.11074872 -0.036810964 -0.2198391
0.05170721 0.1887185 0.25883785 0.1594486 0.061620444 -0.023578703 -0.19651425 0.09540099
-0.13263251 0.088400245 0.052443534 0.25733373 0.22651455 0.13001847 0.12265831 0.20943344
0.2256538 0.07528025 -0.17221181 0.17591357 0.047570586 -0.11814751 -0.06984097 0.0070969462
-0.19203132 -0.040936917 -0.18208817 0.113494016 -0.20087957 0.24059165 0.12418953 -0.005016774
-0.12034684 -0.0010445514 -0.028426383 -0.16414222 -0.021751931 -0.15388197 0.12565705 0.012742043
0.0862996 -0.27018064 -0.2400555 -0.1807687 -0.08905913 -0.15996516 0.27037796 0.04785624
-0.079517394 -0.22218129 0.2653688 -0.25715026 0.22152215 0.04220739 0.03765294 0.1614342
0.2708443 0.12561816 0.14586586 -0.070841014 -0.049728394 -0.18782088 0.08841309 -0.13336378
-0.15894365 -0.23144084 -0.19064182 -0.15583238 -0.0641433 0.1754781 -0.00038930774 -0.1612093
-0.04385127 -0.07094738 0.16380367 -0.25989363 0.032836743 0.2212517 0.26727834 0.2089779
-0.16077846 0.06133297 -0.26356405 -0.08221248 -0.1647763 -0.27471393 0.22898486 -0.053039983
-0.062047485 0.24298099 0.039545685 0.036326647 0.03236264 0.18809402 -0.23703264 0.07820085
0.11932251 -0.02630052 0.03883475 0.12512287 0.027511656 0.26699767 -0.036228955 0.05348468
0.13554728 0.17172879 0.18299073 -0.1178509 0.034287393 0.034841746 -0.027094066 0.08462417
0.19617325 0.15865123 0.2691982 0.06006231 0.3367273 0.5076596 0.11292443 0.26359603
0.47734898 0.21982233 0.3156232 -0.032983877 0.31055486 0.18473661 0.097672634 0.23276624
0.26902205 -0.019888915 -0.078471534 0.123089306 -0.086341165 0.13932453 0.25689667 -0.17643946
0.0077288183 -0.15482402 0.05965238 0.14513151 0.11446007 -0.25692433 0.200156 -0.24127732
0.11993897 0.026375532 -0.07949048 -0.1413727 -0.0066996813 0.02372709 -0.18787187 0.014184028
0.26714066 0.22297475 0.10739002 -0.29850137 0.0715732 0.6128582 0.10141638 -0.52618647
-0.9502488 0.30839777 -0.27861744 -0.041914385 0.05424081 -0.21356621 -0.03307212 -0.171276
0.14695084 0.097234786 0.22461966 0.026475132 0.119948685 0.08978808 0.19176131 -0.052662015
00000000: 4aec 8bbc 3622 74be e235 563e c449 23be
00000010: ea95 e73d 14b0 d23d 999f 80be e4d2 d93d
00000020: 99f4 47bb 37fb 8a3e 00aa 3a3e 8ebe 713e
00000030: 209c f8bd f8f5 dabe 0e92 813f c9a4 d73e
00000040: 5961 06bd 6947 98be 566d 4dbf 1bb3 08bf
00000050: d94e a3bf e06e 9abf d362 a73f bdda a0bf
00000060: e665 85bf b351 99bc 3bc5 2abe 9706 8cbe
00000070: b6e0 413e 3a96 7dbe ff86 5dbe 508d 3a3e
00000080: 681b 0ebe 00d5 0b3d 003f 0a3c f697 2f3e
00000090: 823b 5c3e 9279 413e dc5c b8bd 8ac1 7bbe
000000a0: a0c1 553e 1e87 7ebe 806b 323c 8bd6 1cbe
000000b0: 982b 863d 1c43 88be c557 8c3e b7eb 8bbe
000000c0: 30ea 0d3e 7622 673e 3c45 79bd 2ca4 81be
000000d0: d0cc 63bd 707e 333e d0c6 6e3d 06b3 38be
000000e0: 21c8 5fbe a0c4 d43d 807a 443e 604c 64be
000000f0: 9a1c 653e 002d 76bb ba00 f3bd 8089 963d
00000100: f292 523e 1fef ee3d 50cc 87be 2c80 e8bd
00000110: a984 f1bd 22df f03d a159 d23c 70cc 653e
00000120: 49d1 7ebe 6209 64be 6140 8a3c 250d a23d
00000130: a9c3 b5bd 3ad0 e2bd 18c7 16bd 801d 61be
00000140: f0ca 533d 6c3f 413e 6586 843e 7e46 233e
00000150: b865 7c3d 2028 c1bc 083b 49be 9861 c33d
00000160: d1d0 07be 300b b53d 08cf 563d 3fc1 833e
00000170: 6ef3 673e 9023 053e 4834 fb3d b875 563e
00000180: ca11 673e 882c 9a3d 4b58 30be b022 343e
00000190: 60d9 423d 52f7 f1bd c808 8fbd 808d e83b
000001a0: dca3 44be 78ad 27bd 5275 3abe 8d6f e83d
000001b0: 60b3 4dbe a85d 763e 1557 fe3d c063 a4bb
000001c0: 6778 f6bd 54e9 88ba 72de e8bc e614 28be
000001d0: 1b31 b2bc 3c93 1dbe 3eac 003e 00c4 503c
000001e0: d8bd b03d 1e55 8abe 1cd1 75be 6e1b 39be
000001f0: a264 b6bd e8cd 23be fb6e 8a3e e804 443d
00000200: 04da a2bd 7e83 63be 6bde 873e 33a9 83be
00000210: b4d6 623e a8e1 2c3d f839 1a3d 024f 253e
00000220: 1bac 8a3e 0ca2 003e dc5d 153e 1815 91bd
00000230: 00b0 4bbd 1e54 40be ec11 b53d 8490 08be
00000240: 20c2 22be d4fe 6cbe 9c37 43be 8692 1fbe
00000250: 905d 83bd 88b0 333e 001c ccb9 0d14 25be
00000260: 649d 33bd dc4c 91bd 26bc 273e c710 85be
00000270: d27f 063d ce8f 623e b5d8 883e 4dfe 553e
00000280: 1ca3 24be 4838 7b3d def1 86be 045f a8bd
00000290: 1ebb 28be 4ea7 8cbe 027b 6a3e 7440 59bd
000002a0: 8125 7ebd 02d0 783e a8fa 213d 40cb 143d
000002b0: b08e 043d b89b 403e afb8 72be c427 a03d
000002c0: 5c5f f43d 3074 d7bc 3011 1f3d 3620 003e
000002d0: 2060 e13c ebb3 883e d064 14bd c012 5b3d
000002e0: e8cc 0a3e acd9 2f3e ec61 3b3e d05b f1bd
000002f0: f070 0c3d 38b6 0e3d 60f4 ddbc 704f ad3d
00000300: a4e1 483e 7875 223e 59d4 893e e603 763d
00000310: 8567 ac3e fbf5 013f ec44 e73d 0ff6 863e
00000320: 1667 f43e 1b19 613e 5d99 a13e 1a1a 07bd
00000330: 0c01 9f3e 982b 3d3e 9708 c83d 465a 6e3e
00000340: 42bd 893e 14ee a2bc afb5 a0bd 3f16 fc3d
00000350: a3d3 b0bd 17ab 0e3e f687 833e 8cac 34be
00000360: 0742 fd3b 308a 1ebe 0e56 743d 5b9d 143e
00000370: 0b6a ea3d 968b 83be b2f5 4c3e 6711 77be
00000380: 90a2 f53d 8011 d83c e8cb a2bd 01c4 10be
00000390: 0089 dbbb 505f c23c 7c61 40be 2064 683c
000003a0: a9c6 883e 7e53 643e 4cef db3d 2cd5 98be
000003b0: f894 923d 46e4 1c3f 64b3 cf3d 28b4 06bf
000003c0: 8143 73bf 50e6 9d3e f2a6 8ebe 6bae 2bbd
000003d0: 9d2b 5e3d 1ab1 5abe a276 07bd fa62 2fbe
000003e0: 487a 163e 0823 c73d b202 663e 60e2 d83c
000003f0: a8a7 f53d d0e2 b73d 145d 443e 20b4 57bd

fc1.bias f4 [100]
0.204905 -0.5197216 0.14945924 0.082689196 -0.088941425 -0.02965349 0.19416946 -0.14429455
0.06839062 0.047540903 0.18076792 0.26229116 -0.03501804 0.24672565 -0.13858406 0.43107203
0.030695448 0.00910008 0.17682454 0.23192468 0.16606195 0.036098897 -0.24609913 -0.25021678
-0.49959764 -0.0478663 -0.20357972 0.17958224 0.0734539 -0.13205731 -0.23445883 -0.1762485
-0.08276726 -0.017338037 -0.065523416 0.028534442 -0.060808033 0.12793428 0.09222406 -0.055038303
-0.094376475 -0.21202438 -0.17852113 -0.1335713 -0.25789067 0.18261272 0.0002643466 -0.19974567
0.10988114 -0.06217906 -0.14068004 0.6993293 0.05746907 -0.12900706 0.066610634 -0.079444766
-0.25790957 0.07100195 -0.017028749 -0.16058838 0.21780762 -0.14975788 -0.87276477 0.1301448
0.4047361 0.19837233 0.017431319 -0.0023857057 -0.31344223 0.18436253 0.15864423 0.10595586
0.23876336 -0.2443473 0.14760697 0.16840783 -0.037135333 -0.08655666 -0.10570885 0.013830423
-0.13107559 0.11860293 -0.080166385 0.024216622 -0.04704337 0.17361975 -0.04810062 0.0070943832
0.4461326 0.120627284 -0.15492722 -0.07940929 -0.13158377 0.22601596 -0.27364105 -0.23004352
-0.046095595 0.27027354 0.180989 -0.22815911
00000000: 9ed2 513e 7a0c 05bf d80b 193e f458 a93d
00000010: ec26 b6bd e0eb f2bc 5cd4 463e f3c1 13be
00000020: 6210 8c3d 40ba 423d 3a1b 393e 074b 863e
00000030: 146f 0fbd a6a5 7c3e fbe8 0dbe 79b5 dc3e
00000040: 0575 fb3c 8018 153c 7e11 353e aa7d 6d3e
00000050: 250c 2a3e 70dc 133d 6901 7cbe 6a1c 80be
00000060: 43cb ffbe 740f 44bd 3477 50be 68e4 373e
00000070: 006f 963d 083a 07be fa15 70be 7d7a 34be
00000080: e281 a9bd 8008 8ebc 2431 86bd 10c1 e93c
00000090: d811 79bd 3401 033e f8df bc3d d86f 61bd
000000a0: 7448 c1bd eb1c 59be 3ece 36be eac6 08be
000000b0: 3f0a 84be d4fe 3a3e 0098 8a39 218a 4cbe
000000c0: 5d09 e13d 78af 7ebd 6e0e 10be 3f07 333f
000000d0: b064 6b3d 6d1a 04be 286b 883d f0b3 a2bd
000000e0: b90c 84be 7869 913d e07f 8bbc 4871 24be
000000f0: f608 5f3e 215a 19be 836d 5fbf ae44 053e
00000100: 9239 cf3e 1e22 4b3e 20cc 8e3c 8059 1cbb
00000110: 807b a0be 88c9 3c3e a273 223e 63ff d83d
00000120: 627e 743e 2e36 7abe 4826 173e 1a73 2c3e
00000130: 381b 18bd 9e44 b1bd e27d d8bd 0099 623c
00000140: ae38 06be 18e6 f23d 462e a4bd f061 c63c
00000150: 8cb0 40bd 60c9 313e 2805 45bd 0078 e83b
00000160: 7e6b e43e 700b f73d 3ea5 1ebe 56a1 a2bd
00000170: e5bd 06be ba70 673e ae1a 8cbe 8790 6bbe
00000180: bcce 3cbd 4b61 8a3e 2e55 393e 8ba2 69be

fc2.weight f4 [100, 100]
-0.021304747 -0.52638113 0.033961482 -0.019384086 -0.047949735 0.06659283 -0.10189315 -0.027603319
0.005731875 -0.035696067 0.022978807 0.050077476 0.015743472 -0.0643917 0.052167255 0.40063328
-0.04563317 0.033996347 -0.031715408 -0.11615557 -0.05742717 -0.13108233 0.05641497 0.037590094
0.20275447 -0.047852755 0.034186486 -0.09876513 0.027513517 0.035420265 0.05120014 -0.08752214
0.044778176 -0.10241292 -0.10841101 -0.016787583 -0.09508087 -0.07944741 -0.028206637 -0.059903454
-0.07358484 0.0432069 -0.044100404 -0.006809786 -0.04327712 -0.015620103 -0.07297497 0.0035676218
0.07095099 -0.14285168 -0.07811036 1.5383761 -0.058093082 -0.015658243 0.06400325 0.060237892
-0.10009759 -0.028567133 -0.07470026 -0.15261668 -0.09807825 -0.07052429 -0.18116832 -0.00539409
-0.004392609 -0.014593326 0.054224916 -0.13026558 -0.16649406 -0.10051263 -0.13677812 -0.05699568
0.09106519 0.03193734 -0.06686596 -0.030338585 -0.11676035 -0.1171555 -0.069641255 0.03805663
-0.1339445 -0.053581577 -0.10022687 -0.06096609 -0.042654786 0.04465324 0.06525568 0.044740997
2.054211 0.11361931 0.098409005 -0.035121754 0.078268655 0.018159904 -0.09851954 -0.036257885
-0.0022005464 -0.08245755 -0.04232222 0.13782172 -0.006209021 0.53700817 0.06266344 0.04488235
-0.056635566 0.07261578 0.05330305 -0.068470724 0.03848264 0.042144574 0.003187345 -0.022788957
-0.06498815 0.120035104 0.110299714 0.047960266 -9.480589e-05 0.11638286 -0.41525853 -0.02878741
-0.016848018 -0.01121965 -0.012997106 0.08673372 0.58867437 0.096427806 -0.053068254 -0.082024716
0.023503311 -0.05229324 0.033782918 0.07474518 0.020137928 0.08803614 0.3770054 -0.027968938
0.009808756 -0.058831733 0.11638784 -0.07345755 0.045959134 0.0076953266 0.07921498 0.029807575
-0.050607484 -0.19576551 0.08084326 -0.02884197 -0.0014824189 -0.017262261 0.06419665 -0.66379803
0.02464614 0.31038103 0.029515512 -0.025550328 0.033634037 0.045194324 0.11801801 0.25143793
-0.0046637207 -0.0477387 0.49935633 0.08983799 -0.73295057 0.023892365 -0.0746576 -0.03072829
0.4027583 0.014204861 0.005697956 0.06179452 -0.07767268 0.015092173 0.06957433 -0.05169624
0.03394471 0.0066920533 0.06486998 0.030569037 0.07324792 -0.016900884 0.0809271 0.07737806
0.0208229 0.09836196 0.06566035 -0.02491472 -0.7424339 -0.059665006 0.07281839 -0.08582646
-0.09180205 -0.007588148 0.031042911 0.030193575 0.0839978 0.028184768 0.056529112 0.034096513
0.015207095 0.090772 -0.08477222 0.09940124 -0.030720523 0.01123062 -0.015512312 0.025733363
-0.073190115 0.02615232 -0.08904729 0.035907276 -0.038156774 0.004904316 -0.056452285 -0.08777957
-0.14266108 -0.11950784 -0.6005135 -0.08295218 -0.02892529 -0.06465633 0.044422038 -0.082964346
1.0337199 -0.023142934 0.019849611 0.01606816 -0.014405958 -0.07854153 -0.085095026 -0.09579427
-0.04824661 -0.09021657 0.30765983 -0.010175328 0.0749717 -0.11521899 -0.16756932 0.010484051
0.091388084 -0.052344345 -0.069643475 0.012023523 -0.0773057 -0.3533725 -0.07629549 -0.010978411
0.09078034 0.026239552 -0.10744115 1.6896666 -0.0017963275 0.4481032 0.053690903 0.055874176
00000000: 4b87 aebc eac0 06bf 321b 0b3d 60cb 9ebc
00000010: f166 44bd d261 883d 5bad d0bd 5b20 e2bc
00000020: 74d2 bb3b 0a36 12bd 0d3e bc3c 0a1e 4d3d
00000030: 74f8 803c ccdf 83bd 55ad 553d ce1f cd3e
00000040: d9e9 3abd c13f 0b3d 04e8 01bd f9e2 edbd
00000050: c138 6bbd 723a 06be 6213 673d 12f8 193d
00000060: de9e 4f3e 4001 44bd 2107 0c3d 5f45 cabd
00000070: 0764 e13c d714 113d 3db7 513d cf3e b3bd
00000080: 5269 373d ddbd d1bd 9706 debd 1d86 89bc
00000090: c2b9 c2bd 53b5 a2bd 9b11 e7bc 535d 75bd
000000a0: a6b3 96bd b8f9 303d a0a2 34bd a024 dfbb
000000b0: 5943 31bd 76eb 7fbc e773 95bd c3ce 693b
000000c0: c14e 913d b647 12be 53f8 9fbd 82e9 c43f
000000d0: 03f3 6dbd b745 80bc 2314 833d 02bc 763d
000000e0: f7ff ccbd 9f05 eabc 73fc 98bd 8c47 1cbe
000000f0: 40dd c8bd 0a6f 90bd 3084 39be e8c0 b0bb
00000100: e0ef 8fbb d818 6fbc f21a 5e3d 5764 05be
00000110: 6b7d 2abe 91d9 cdbd 900f 0cbe 4d74 69bd
00000120: 6380 ba3d bad0 023d 05f1 88bd a088 f8bc
00000130: 0d20 efbd 39ef efbd 13a0 8ebd 45e1 1b3d
00000140: bf28 09be 5b78 5bbd bf43 cdbd 94b7 79bd
00000150: c9b6 2ebd 51e6 363d c5a4 853d 5642 373d
00000160: 3178 0340 3eb1 e83d a98a c93d d4db 0fbd
00000170: 514b a03d 14c4 943c 9dc4 c9bd 2683 14bd
00000180: 0b37 10bb 81df a8bd 105a 2dbd 2321 0d3e
00000190: 0b75 cbbb 5e79 093f b155 803d 8ed6 373d
000001a0: b2fa 67bd 95b7 943d 4d54 5a3d 613a 8cbd
000001b0: f99f 1d3d ca9f 2c3d c7e2 503b e8af babc
000001c0: 8218 85bd f7d4 f53d d1e4 e13d fc71 443d
000001d0: 86d2 c6b8 235a ee3d c49c d4be 93d3 ebbc
000001e0: db04 8abc 9fd2 37bc d0f1 54bc 73a1 b13d
000001f0: 5db3 163f f17b c53d 195e 59bd 93fc a7bd
00000200: 048a c03c 7031 56bd f55f 0a3d 0014 993d
00000210: 4cf8 a43c 4b4c b43d da06 c13e 1d1f e5bc
00000220: e8b4 203c 8bf9 70bd bf5c ee3d e970 96bd
00000230: a53f 3c3d 1429 fc3b 773b a23d 042f f43c
00000240: cb49 4fbd c176 48be 2791 a53d ff45 ecbc
00000250: b94d c2ba 9669 8dbc 8979 833d abee 29bf
00000260: b4e6 c93c 43ea 9e3e 84ca f13c ec4e d1bc
00000270: d8c3 093d af1d 393d 6db3 f13d 79bc 803e
00000280: 20d2 98bb a889 43bd a2ab ff3e fbfc b73d
00000290: a6a2 3bbf ecb9 c33c 15e6 98bd e5b9 fbbc
000002a0: 5636 ce3e 81bb 683c ebb5 ba3b 401c 7d3d
000002b0: db12 9fbd 2945 773c fc7c 8e3d 70bf 53bd
000002c0: 9c09 0b3d 0349 db3b 8dda 843d eb6b fa3c
000002d0: 0103 963d b973 8abc 1bbd a53d 6378 9e3d
000002e0: c994 aa3c ff71 c93d ef78 863d f419 ccbc
000002f0: 2610 3ebf 4b63 74bd cf21 953d c8c5 afbd
00000300: b702 bcbd 00a6 f8bb b44d fe3c 8458 f73c
00000310: 0a07 ac3d bee3 e63c 128b 673d c9a8 0b3d
00000320: 2e27 793c ace6 b93d 0f9d adbd e192 cb3d
00000330: 9ba9 fbbc a200 383c 5a27 7ebc c6ce d23c
00000340: b3e4 95bd 643d d63c 6d5e b6bd 8213 133d
00000350: 474a 1cbd 62b4 a03b 833a 67bd c6c5 b3bd
00000360: bf15 12be 87c0 f4bd 41bb 19bf d5e2 a9bd
00000370: bbf4 ecbc 8a6a 84bd e2f3 353d 36e9 a9bd
00000380: ef50 843f 4096 bdbc a79b a23c 60a1 833c
00000390: f806 6cbc 62da a0bd 4d46 aebd c92f c4bd
000003a0: 3d9e 45bd 77c3 b8bd 9785 9d3e 6bb6 26bc
000003b0: c38a 993d eff7 ebbd 4b97 2bbe 4cc5 2b3c
000003c0: ad29 bb3d 0667 56bd 3da1 8ebd 50fe 443c
000003d0: 7352 9ebd 3eed b4be cf40 9cbd cbde 33bc
000003e0: 0beb b93d 54f4 d63c 1b0a dcbd ff46 d83f
000003f0: c072 ebba c86d e53e feea 5b3d 52dc 643d

fc2.bias f4 [100]
-0.12200755 0.0020467362 -0.15411957 -0.09333951 -0.028501019 -0.030566262 -0.010802444 -0.049756423
0.03865387 0.05803193 0.002963525 0.092295766 0.07655826 0.04010602 -0.08454863 0.0064186756
0.071184315 -0.051475123 -0.08858663 -0.078972 -0.015655985 0.051936653 -0.030612368 0.07991967
-0.09041943 -0.024463085 -0.027410131 0.08393979 0.020010846 -0.023258071 0.108090445 -0.061379205
-0.07809096 0.0149353575 0.021346955 0.10601811 0.043831095 0.09877771 0.08945225 -0.050607808
-0.026684823 0.11489339 -0.036488567 -0.08853056 -0.0029081253 -0.04287279 0.01620835 -0.097910404
0.019952962 0.07395424 0.10904844 0.085311815 -0.16093287 -0.038951892 -0.03212109 0.014003408
-0.0884737 0.0071491506 -0.005463477 0.11621858 -0.10134099 0.12638645 -0.022500984 0.13451003
0.08212571 -0.068037845 -0.0037004787 -0.11309355 -0.0769606 -0.042706016 -0.11889549 0.022313813
0.03823605 -0.030585142 -0.060097292 -0.07929368 -0.08946784 -0.059688833 0.04451009 -0.05864976
-0.025229335 0.09511668 -0.013896441 0.038892087 -0.10934076 -0.02808213 0.00032208033 0.038586736
-0.036783148 -0.030242974 -0.045824457 0.07253283 -0.0676574 -0.033025935 0.104118496 0.021229558
-0.05168117 -0.13877033 0.10883034 0.025427405
00000000: 18df f9bd 8922 063b 85d1 1dbe c928 bfbd
00000010: f87a e9bc 1966 fabc bcfc 30bc 64cd 4bbd
00000020: 8553 1e3d e4b2 6d3d b337 423b 9005 bd3d
00000030: 94ca 9c3d 3646 243d d527 adbd c153 d23b
00000040: 15c9 913d 94d7 52bd e86c b5bd 12bc a1bd
00000050: fb40 80bc 87bb 543d cac6 fabc edac a33d
00000060: d22d b9bd cf66 c8bc 368b e0bc a0e8 ab3d
00000070: c9ed a33c b687 bebc 865e dd3d c368 7bbd
00000080: 27ee 9fbd 6eb3 743c cfdf ae3c 0620 d93d
00000090: 3c88 333d f84b ca3d be32 b73d 224a 4fbd
000000a0: 219a dabc 3a4d eb3d 0975 15bd 834f b5bd
000000b0: 3f96 3ebb 619b 2fbd 60c7 843c 4085 c8bd
000000c0: 6574 a33c 5275 973d ca54 df3d f6b7 ae3d
000000d0: 96cb 24be 058c 1fbd 6791 03bd 8d6e 653c
000000e0: b331 b5bd 6c43 ea3b f806 b3bb 0204 ee3d
000000f0: dd8b cfbd 736b 013e fc53 b8bc ffbc 093e
00000100: 8631 a83d 6d57 8bbd bb83 72bb 979d e7bd
00000110: 859d 9dbd 81ec 2ebd 7b7f f3bd 75cb b63c
00000120: 689d 1c3d b18d fabc 9428 76bd ba64 a2bd
00000130: ea3a b7bd 477c 74bd 3650 363d bb3a 70bd
00000140: c0ad cebc 89cc c23d e6ad 63bc 4f4d 1f3d
00000150: 0cee dfbd 7f0c e6bc e4dc a839 200d 1e3d
00000160: eda9 16bd 1dc0 f7bc 6db2 3bbd 188c 943d
00000170: f78f 8abd 3446 07bd 143c d53d 9ce9 ad3c
00000180: a2af 53bd cf19 0ebe 71e2 de3d 224d d03c

fc3.weight f4 [3, 100]
0.12338248 0.3905565 0.5667868 -0.19281062 -0.6474514 -0.21714461 -0.730982 0.5839472
-0.4181885 0.27292755 -0.22847071 0.40051624 0.36601472 0.29399216 0.4308666 0.09335613
-0.47200105 0.31381944 -0.34235176 0.5491413 0.40837294 0.2998356 -0.5126889 0.43462533
-0.44164807 -0.37953684 0.25024801 -0.5593379 -0.14908482 0.56279343 0.26212576 0.4465542
-0.037425816 -0.5754525 -0.22742568 -0.59474957 -0.31151238 -0.64883345 0.4080214 0.2536761
-0.41452602 0.3769261 -0.307321 0.5100877 -0.14983071 0.058956135 -0.36377814 -0.5493209
-0.28161025 0.34986007 0.3169988 0.5164451 -0.116571195 0.45959365 0.46897942 -0.3232356
-0.45701566 0.08812212 0.31475863 0.41903752 -0.38133526 0.20501117 0.18392006 0.12810312
-0.53477615 -0.40103573 -0.7340215 -0.29839143 -0.47183132 -0.4901075 -0.33286005 0.26447847
-0.21478973 -0.40200427 0.35843998 -0.41329104 0.3727294 0.012963717 -0.10757549 0.3317404
0.14171271 -0.4451031 -0.30906472 -0.6540101 0.4194881 -0.27942857 0.5820196 -0.5900589
-0.37696496 0.38668847 -0.2870219 0.14225113 -0.46121663 -0.19991979 -0.56534576 0.32372427
0.32629937 0.3708535 0.37685406 0.29685134 0.36189985 -0.41510886 0.09333201 0.40837938
0.18525374 -0.4440017 -0.12577188 0.26786634 0.3724087 -0.44918764 0.38296616 -0.42860928
-0.48463473 -0.3521289 0.32052034 0.41970286 0.21104948 0.3975382 0.24527863 0.053816203
-0.35611966 -0.36368555 0.21836118 -0.4196847 0.3380015 0.2947656 -0.55709225 -0.21008758
0.5391378 0.27365047 -0.45885718 0.089009896 0.3450781 0.26136717 0.40379634 0.35050398
-0.18971366 0.08554066 -0.3774646 0.3074534 0.3323438 0.35934314 0.37052444 -0.40287966
0.2666921 -0.22145693 0.39671633 0.21615271 0.3887443 -0.4554931 -0.35229883 -0.43266395
0.2053794 0.27918607 -0.47077227 0.29263097 0.22923256 -0.19910255 -0.49170062 -0.47525588
0.41766873 -0.47882882 -0.52683157 -0.48791495 0.0052561066 0.32194036 -0.4014442 0.36366242
0.45215163 -0.4093551 0.31121165 -0.42241073 0.30582523 0.2569319 -0.40928483 0.43122625
-0.40159458 0.3330399 -0.3653682 0.26218355 0.36442465 0.20823509 0.40052986 -0.23384549
0.27178025 0.36852545 0.03266482 -0.08346053 -0.34637254 -0.42376545 -0.36779845 -0.39815858
0.19459839 0.3366442 -0.07831017 -0.4607457 -0.51259124 0.1372748 -0.454432 -0.3664079
-0.34316382 0.09909536 -0.40324754 -0.2575114 0.3482944 0.4634908 0.71701175 -0.5170361
0.18139087 0.25683296 -0.036977172 -0.1306989 0.0460003 0.03450385 -0.61969614 -0.51494473
0.25318187 -0.50788486 0.17578848 -0.45852447 -0.093021765 -0.0322169 0.2982726 0.008566509
0.037734658 0.17049961 0.3619156 0.6549411 -0.19851905 -0.56685746 0.0934951 -0.49443573
-0.14215425 0.30015936 -0.019074209 0.36083788 0.28336066 0.5339227 0.04712902 -0.3795023
0.17295328 -0.43486926 -0.17541772 -0.17664254 -0.0726841 0.08118297 -0.053925548 0.0207216
-0.1085252 -0.048404943 0.03941128 -0.15006259 -0.38049266 -0.5180003 0.029542698 0.043534826
00000000: f4af fc3d 06f7 c73e f118 113f 2670 45be
00000010: 60bf 25bf 285b 5ebe a321 3bbf 907d 153f
00000020: ce1c d6be 29bd 8b3e 3af4 69be 7710 cd3e
00000030: 4866 bb3e 2486 963e 8c9a dc3e 8031 bf3d
00000040: 1faa f1be f1ac a03e bb48 afbe 8694 0c3f
00000050: 4216 d13e 0d84 993e 943f 03bf 3687 de3e
00000060: b21f e2be a752 c2be 8220 803e c530 0fbf
00000070: b1a9 18be 3b13 103f 5935 863e c1a2 e43e
00000080: d04b 19bd db50 13bf 47e2 68be 8241 18bf
00000090: 8d7e 9fbe f319 26bf 2ee8 d03e d5e1 813e
000000a0: c13c d4be 75fc c03e 2e59 9dbe 1c95 023f
000000b0: 396d 19be fd7b 713d 2141 babe 4ba0 0cbf
000000c0: 382f 90be dc20 b33e ab4d a23e bf35 043f
000000d0: e1bc eebd dc4f eb3e 121e f03e 237f a5be
000000e0: f5fd e9be 5f79 b43d 0b28 a13e 168c d63e
000000f0: 603e c3be 73ee 513e 8a55 3c3e 772d 033e
00000100: 17e7 08bf 8e54 cdbe d5e8 3bbf c3c6 98be
00000110: e093 f1be 5fef fabe a26c aabe b969 873e
00000120: d7f1 5bbe 81d3 cdbe 7285 b73e e29a d3be
00000130: 63d6 be3e c565 543c 8a50 dcbd e1d9 a93e
00000140: 231d 113e 8ee4 e3be bb3d 9ebe 356d 27bf
00000150: 25c7 d63e 4311 8fbe 3dff 143f 1a0e 17bf
00000160: 8d01 c1be 08fc c53e 89f4 92be 48aa 113e
00000170: 9624 ecbe c6b7 4cbe 80ba 10bf 30bf a53e
00000180: b610 a73e 83e0 bd3e 04f3 c03e e6fc 973e
00000190: f04a b93e 2689 d4be da24 bf3d 1a17 d13e
000001a0: 28b3 3d3e 3154 e3be 58ca 00be c725 893e
000001b0: 5aac be3e ecfb e5be 2414 c43e ad72 dbbe
000001c0: 0b22 f8be 3d4a b4be 3e1b a43e 4be3 d63e
000001d0: 5b1d 583e 208a cb3e 522a 7b3e 616e 5c3d
000001e0: 5155 b6be fe34 babe 139a 5f3e eae0 d6be
000001f0: 880e ad3e 84eb 963e 999d 0ebf 3321 57be
00000200: ef04 0a3f ea1b 8c3e 54ef eabe d24a b63d
00000210: 14ae b03e ebd1 853e 65be ce3e 4275 b33e
00000220: 4c44 42be f12f af3d 0a43 c1be 886a 9d3e
00000230: f728 aa3e d3fb b73e 61b5 bd3e 3e46 cebe
00000240: de8b 883e 9bc5 62be 671e cb3e 2357 5d3e
00000250: 7e09 c73e 6436 e9be 8360 b4be 2186 ddbe
00000260: fa4e 523e 7af1 8e3e 1009 f1be bad3 953e
00000270: f1bb 6a3e 8ae1 4bbe 2fc0 fbbe bd54 f3be
00000280: add8 d53e 0d29 f5be 6fde 06bf fdcf f9be
00000290: 6b3b ac3b 5ed5 a43e 188a cdbe f631 ba3e
000002a0: 6b80 e73e fe96 d1be 2257 9f3e 3846 d8be
000002b0: 2095 9c3e 948c 833e c88d d1be b0c9 dc3e
000002c0: ce9d cdbe 3584 aa3e 8a11 bbbe ec3c 863e
000002d0: de95 ba3e 943b 553e 4012 cd3e 3175 6fbe
000002e0: c826 8b3e 5eaf bc3e 8ccb 053d 5bed aabd
000002f0: be57 b1be c9f7 d8be 1450 bcbe 71db cbbe
00000300: cd44 473e a15c ac3e 1561 a0bd dce6 ebbe
00000310: 2e39 03bf c491 0c3e 50ab e8be d199 bbbe
00000320: 2bb3 afbe 82f2 ca3d 7676 cebe 89d8 83be
00000330: a553 b23e ab4e ed3e 158e 373f 7a5c 04bf
00000340: 87be 393e 9c7f 833e 6075 17bd efd5 05be
00000350: d06a 3c3d e953 0d3d 68a4 1ebf 6bd3 03bf
00000360: 0ea1 813e be04 02bf e501 343e b8c3 eabe
00000370: 3282 bebd def5 03bd 30b7 983e 8b5a 0c3c
00000380: a88f 1a3d 7397 2e3e 004d b93e 38aa 273f
00000390: 9448 4bbe 921d 11bf 5c7a bf3d ae26 fdbe
000003a0: e290 11be 7dae 993e 8441 9cbc bebf b83e
000003b0: a614 913e 28af 083f 5c0a 413d 204e c2be
000003c0: aa1a 313e 2fa7 debe b4a0 33be c8e1 34be
000003d0: 67db 94bd 4243 a63d 09e1 5cbd 58c0 a93c
000003e0: 7642 debd 4344 46bd b96d 213d 02aa 19be
000003f0: efcf c2be ab9b 04bf 8703 f23c 9351 323d

fc3.bias f4 [3]
-0.030116323 -0.12454419 0.021607552
00000000: 82b6 f6bc 0611 ffbd 5202 b13c
