models/home_state_dict.pt (torch, 49439 bytes, 6 tensors)

fc1.weight f4 [100, 13]
00000000: 7e05 cdbd 29b8 653e 630a 813e 60ba 23be
00000010: 5ee5 013d 99c0 48be 4a2b 26be b031 233e
00000020: 71e1 763e d248 423c 7c35 4ebd 2f36 853e
00000030: 15f1 ab3d d850 513e 56ee 703d 5b8a 1c3e
00000040: a65c ec3e 5f4c 013f 3d03 a5bd 1686 8fbf
00000050: 6c04 143f 2e6d 6b3e 3fcd fbbd 7592 df3e
00000060: ebd3 d1bd 4428 5c3c 9443 5a3e 1c17 913d
00000070: c343 87be f0a6 f23d 0007 1d3d f506 79be
00000080: b0b2 963c 2a80 1e3e a386 84be 2026 4ebc
00000090: 45cf 08be 1c4c 5ebd fa50 173e c013 4abe
000000a0: b090 b2bd 6ae4 3ebe 90ec 373e 80e4 543b
000000b0: 4cf4 6bbe d5ef 5fbe 0d1e 06be 8088 2cbc
000000c0: 54fa 88bd c4f3 46be 6067 8e3d f03e ef3d
000000d0: 6e1b 3c3e d842 dc3d d0c8 c43d a2b8 08bd
000000e0: d918 063e bf63 2e3e b16d 55be 197c 973c
000000f0: 45bf a63d 3e78 38be 9498 413d 8b04 c33c
00000100: 006f 05be ab54 8cbe e5ae 813e 5089 613d
00000110: 0a21 073e 77e1 8d3e 7201 0a3e 2127 19be
00000120: fc1f 9dbd d445 07be 9e72 2dbe b6af 723e
00000130: 28f3 0e3e 543f da3d b82a 08bd c8b2 c53d
00000140: 4785 8cbe 1248 d9bd a5c6 8bbe a267 84be
00000150: 70b9 a4bc e6d5 31be 18dd 213e baab 443e
00000160: 6a76 163e 720d f4bd 14d6 7abe 0207 d63d
00000170: d22b 9cbd ade1 2a3e 0e68 ce3e d1de 573e
00000180: f533 193e df4f 8f3b cbad f13d 394c cbbd
00000190: 4996 51be c70f 833e 3047 2a3e 30a3 353c
000001a0: bc89 493e c28e 87be 3088 b5bc 68e9 eb3d
000001b0: cebd 6e3e 2017 b8bc 04c0 f73d b0a7 233d
000001c0: 3ea2 a1bd c016 843c e60c 773e 8276 163e
000001d0: 20ea f93c 3622 bd3e 07fe f23d 6d1a eebd
000001e0: 080a 223e 5a0e b43e 1bb9 443e 8ffe d0bd
000001f0: b209 753e 4020 0c3e 621c 2ebe 0d9a 843c
00000200: 7342 b5bc 9af1 92bc 70af 11bd 463f 283e
00000210: 0076 dfbb f4b6 8b3d 37e3 3ebe e9c3 8c3e
00000220: 662c 63be bb40 823e fe43 5a3e ecc7 dc3d
00000230: d490 4c3e 9d84 16be ab01 813e d4c9 7abe
00000240: aa90 dcbd 9f9f 8dbe 47ac 43be 0c48 2dbe
00000250: 77ed 853e 5421 73be 2106 04bc 8efd 423d
00000260: aaef 21be f735 8aba 0239 06be ed79 06bc
00000270: 0ad2 42be 03ec 81be 8ebc 673e dab6 363e
00000280: 40fd 74bd 80d3 64bb 92e7 303e 46ec 84be
00000290: e821 003d 7e90 71be e085 a5bd 5058 bfbd
000002a0: 7a36 2fbe dc74 0d3e d049 bd3d 74f8 0abd
000002b0: e66c 553e 5215 85bd 54b4 cc3d be18 8bbe
000002c0: b4f3 5b3e 9c6c fb3d c0f3 143c 54c6 863d
000002d0: 3ce0 50bd dc44 67be 6bba 0d3e 15bb 04be
000002e0: fb56 7bbe 2a62 4a3e b11a 10be 8009 9d3c
000002f0: faa6 e2bd b250 5e3d f2b7 613e 7c16 b0bc
00000300: 6f30 efbd 4a9f e83d 4614 113e a062 89bc
00000310: 64e7 323e 841f 86be fc49 3abe 0087 0e3d
00000320: 58c7 a43d 60b3 e7bd 4057 ee3b 4fe0 06be
00000330: b636 483e 2083 a4bc 088c d53d 412f 61be
00000340: 4a2b 4b3e 74f4 34be 80f6 47bd 000f 93bb
00000350: a443 e7bd 4088 2cbc 2099 be3d aebf 1b3e
00000360: caca 7ebe 6914 8a3e 1b76 4bbe c63a 673e
00000370: ef03 0ebe 12c8 023f f67a 443e 5738 f03e
00000380: d312 f93e 46b1 c83e 8193 243e 8fff 073f
00000390: d225 833d e4b8 c83e 0f73 ac3e 7dad 693d
000003a0: 36cf aa3e 4ae8 693e bc17 e53d 621f 6abe
000003b0: e0ee 61bc d0fc 0f3e e017 d33d 2aee 5ebe
000003c0: 343d afbd e653 edbd 1afb 4bbe e0ee 1c3d
000003d0: 706d 483e 0d61 893e 0eff 743e 0659 acbd
000003e0: db8b 833e 7a78 503e 7e19 bfbd a47f 0f3e
000003f0: 6c65 ff3d 629d 2b3e 120b 0cbe 5a93 733e
-0.10010813 0.22433533 0.25203237 -0.15989065 0.031712882 -0.1960472 -0.16227451 0.15936923
0.24109437 0.011858182 -0.050343975 0.260179 0.08395592 0.20440996 0.058821045 0.15287153
0.46164435 0.5050716 -0.08057258 -1.1212795 0.5781925 0.22990867 -0.12295007 0.43666425
-0.10245498 0.013437334 0.21314842 0.07084486 -0.26418886 0.11848247 0.038336754 -0.2431906
0.018395752 0.15478578 -0.2588397 -0.012582332 -0.13360317 -0.054271802 0.14776984 -0.19734097
-0.08719003 -0.1864182 0.17961335 0.003248483 -0.2304241 -0.21868832 -0.13097401 -0.010530591
-0.06688371 -0.19428927 0.06953311 0.11681926 0.18369839 0.10754937 0.096086144 -0.033379205
0.13095416 0.17030238 -0.20842625 0.018491792 0.081419505 -0.18014619 0.04726465 0.023805877
-0.13030624 -0.27408347 0.25328746 0.055062592 0.13196197 0.2771108 0.13477114 -0.14956333
-0.07672116 -0.13210231 -0.16938254 0.23699841 0.13959944 0.1065661 -0.033243865 0.096532404
-0.27445433 -0.106094494 -0.2729999 -0.25860316 -0.020107955 -0.17366752 0.15806997 0.19206133
0.14693609 -0.11916627 -0.24495727 0.104505554 -0.076255456 0.16687651 0.40313762 0.21081091
0.14961226 0.004373535 0.118007265 -0.09926648 -0.20467485 0.25597975 0.16628718 0.01108627
0.19681448 -0.26476103 -0.022159666 0.11519128 0.23314592 -0.022471964 0.12097171 0.03995484
-0.07892273 0.01612413 0.24126014 0.14693645 0.030507147 0.36940163 0.11864858 -0.11626134
0.15824139 0.351672 0.19211237 -0.10204803 0.2392948 0.13684177 -0.17003015 0.016186738
-0.022126412 -0.01793747 -0.0355677 0.16430387 -0.0068194866 0.06822005 -0.18641363 0.27493218
-0.22184905 0.2544001 0.21315 0.107803196 0.19977123 -0.14699025 0.25196585 -0.24491054
-0.1076978 -0.27660844 -0.19108687 -0.16922015 0.26157734 -0.23743182 -0.008058102 0.04760509
-0.15814081 -0.0010544647 -0.13107684 -0.00820778 -0.19025436 -0.25375375 0.22630522 0.1784319
-0.05981183 -0.0034916103 0.17275837 -0.25961512 0.031282336 -0.23590276 -0.08082175 -0.09343016
-0.17110625 0.1381411 0.09242594 -0.03392835 0.20842323 -0.06498207 0.09995332 -0.27167314
0.21479684 0.12276575 0.009091318 0.06580797 -0.050995097 -0.22584862 0.13840644 -0.12961991
-0.24544899 0.19764009 -0.14072682 0.019169569 -0.110670045 0.054276176 0.22042826 -0.021495096
-0.1167916 0.11358507 0.1416789 -0.01677066 0.17471081 -0.2619592 -0.18192285 0.034796715
0.08045834 -0.1131351 0.0072735846 -0.13171504 0.1955212 -0.020082057 0.104270995 -0.21990682
0.19840732 -0.17671376 -0.048819065 -0.004487872 -0.11292198 -0.010530531 0.0930655 0.15209839
-0.24882045 0.26968697 -0.19869272 0.22581014 -0.13868688 0.51086533 0.19187531 0.46917984
0.48647174 0.3919775 0.16071893 0.53124326 0.06403698 0.3920356 0.33681533 0.057050217
0.33361214 0.22842517 0.111861676 -0.22863534 -0.013789862 0.14061284 0.10307288 -0.2177054
-0.085565954 -0.11588268 -0.19920006 0.038313746 0.19572997 0.26831856 0.2392542 -0.084154174
0.2569264 0.20358458 -0.09331034 0.14013535 0.124705166 0.16759256 -0.13676098 0.23786679

fc1.bias f4 [100]
00000000: de2f 1e3e 2946 1f3f 00d6 48ba 7ed2 663e
00000010: 330d 8b3e a6af a9bd 8e59 1a3e 3bf0 7e3e
00000020: a0c0 283e fba6 4c3e d4b9 ef3d 84b9 7dbe
00000030: 1731 39be 6630 7e3e bf70 6e3d b4fd 79be
00000040: 9ed2 6c3e 89b1 f93e 954a 843e c23c edbd
00000050: 3028 c43c 485b 82bd 93a4 813e 1872 8c3d
00000060: f555 01bf 40f2 333e b626 8e3e 0dd9 09be
00000070: 2afe 2cbe b062 df3d 1c13 343f efc9 893e
00000080: 9c13 193d ec00 533e 5784 3bbe 9a5f efbd
00000090: 1283 99bd a09d e53c fee8 543e 77d8 02be
000000a0: d00c b73c 63ea 333e 05f1 4b3f 02b7 053e
000000b0: 02b6 94bd 76d8 333e 70d8 febc ce9e 5f3e
000000c0: 749d 9abf 00b3 f1bc 0dd0 09bc b416 74bd
000000d0: 86f1 21be 657d 63be 2292 f23b a25f 313e
000000e0: a883 6fbf e0c3 203c 403f 25be 4fb9 8d3e
000000f0: 19fc 09be f869 a13e d38b bc3c 2ecc 533e
00000100: 5df8 89be ac02 de3d 0ff3 06c0 58cb cdbd
00000110: 1540 813e 38f7 fd3d 8237 0fbe acf4 3bbd
00000120: e80f 963d 20bc ffbd 24fb b4bd 36f9 0d3e
00000130: 9c9d 73be 10e8 3c3e 1899 1b3e a0d0 80be
00000140: 6830 113d a8ee e53d 820a 023e 8a24 13be
00000150: 173a 16be 7ab5 28be 20f4 44bc 166b 89bd
00000160: 2f04 12be 0d73 3ebe 6091 e43c be00 89bd
00000170: a89d 23be c9d7 47bf f669 8cbd 6c2f 53be
00000180: f46a 023e c44f dfbd c096 7abe 4e24 0b3e
0.15447947 0.6221643 -0.0007661283 0.22541234 0.27158508 -0.082854554 0.15073225 0.24896328
0.1647973 0.19985573 0.11705366 -0.247778 -0.18085133 0.2482315 0.05821299 -0.24413186
0.23127219 0.4876826 0.25838152 -0.11583854 0.023944944 -0.06365067 0.25320873 0.06857699
-0.50521785 0.1757288 0.2776391 -0.13461705 -0.16893831 0.10907495 0.7034166 0.26911876
0.037372217 0.2060582 -0.18312202 -0.116881564 -0.07495703 0.028029263 0.20792004 -0.12777887
0.022344977 0.1756988 0.7966464 0.13058093 -0.07261278 0.17563042 -0.031109065 0.21837923
-1.2079301 -0.0295043 -0.00841142 -0.059591964 -0.1581479 -0.22215803 0.0074026743 0.17321637
-0.93560266 0.009812325 -0.16137409 0.27680442 -0.13475074 0.3152616 0.023015892 0.20683357
-0.269473 0.10840353 -2.1085851 -0.1004855 0.25244203 0.12400669 -0.13986018 -0.045887634
0.073272526 -0.12487054 -0.08836964 0.13864598 -0.23790592 0.184479 0.1519512 -0.25159168
0.035446554 0.11227161 0.12699321 -0.14369407 -0.14670597 -0.16475478 -0.012021095 -0.06709878
-0.14259408 -0.18598576 0.027901351 -0.06689595 -0.1597811 -0.78063637 -0.06856148 -0.20623559
0.12736112 -0.10903886 -0.24471569 0.13588068

fc2.weight f4 [100, 100]
00000000: 6cf5 3ebc 8330 003f dc8f 92bd 82c9 873c
00000010: 574e 963d 3e8d c73d 93a5 9ebd 0a03 8b3e
00000020: 9914 593d f4fc a53e 5a21 b83d 19ea 83bd
00000030: f793 b23d d25d 603d fc16 4bbd 8014 2e3c
00000040: 5147 a73d 20f0 723e 551f 67bd d3c7 053d
00000050: 3b40 a03d e3d6 96bb e50f afbd 6143 803d
00000060: 1318 74bf 0b6c 143d 1e82 a2bd f64c c43d
00000070: c80c 8abc 91fd c4bb 6730 c1be 6a36 0d3f
00000080: 827c 4abf 5d7b 6a3d 89d9 5cbc 9814 87bc
00000090: 9e62 283d d3fc c7bb ea67 5fbb feb4 9d3d
000000a0: eaa3 73bd b0d6 74bd 555a 533e 9ea1 9cbd
000000b0: 0130 703d 6281 8b3d 8895 74bd 264d 00bd
000000c0: 278a 63bd 74bc d63c 34b2 c93d 3ac7 b9bd
000000d0: ebc0 ae3d b648 223e fe64 673c c9ee 8c3d
000000e0: 18a8 a8bf 922b ffba 0038 933a 6a4c 283d
000000f0: 8e01 ed3c 2d77 453e 3c60 a53d 8025 3dba
00000100: 4496 e53c bd77 913d 6851 8bbf df9d 833c
00000110: ce36 c83d 0ea9 81bc d6af c93d e058 2dbd
00000120: 0963 573d d443 903d d0a6 4fbd c490 0cbd
00000130: a791 bf3d 6076 b83d 3adf c7bd f67b c7bd
00000140: cff1 5cbd 06b6 95bd 46a2 89bd e2cf 59bc
00000150: 6252 76bd 6d35 6cbd 00b5 7bbb 1ae2 acbc
00000160: 1428 bcbd a7c4 863d 73b5 96bb 3784 68bd
00000170: bb21 b23d c9c4 35c0 4e14 1b3c 5216 123d
00000180: 30f0 93bd b8b7 95bd cc4c 8f3d d405 093d
00000190: ecae f23d 7758 093f 2db9 afbc f5fe c03d
000001a0: 0ec8 a8bc 79a4 813d b8ee 9abc d0dd 8a3e
000001b0: c771 023d 76df 8e3e 27dc d93c 2144 c9bd
000001c0: 9af7 4f3d d0fe 983b 57fe f73b 3329 66bd
000001d0: e72b 22bd 1447 3a3e a5b0 23bd 17b3 913c
000001e0: df8f b3bd 8d81 c2bb 4af3 563d 3112 bb3d
000001f0: 956d 55bf 18ec 333b 71d9 3fbd e93f 2a3e
00000200: 5a65 9dbd 330b adbd c823 86be 10dc 2c3f
00000210: f063 1abf 2a0b 213d 5e09 19bd 55af 92bd
00000220: 8a17 ec3d 0903 e93c 3840 a3ba ddfb c9bc
00000230: 5146 3dbd 4e1d 9e3a 2350 a13e 6b49 ec3c
00000240: 80e0 813b 2fd4 fe3d 1d82 c63d b458 e9bc
00000250: 8b22 20be 17fe 023c 17fd 20bd cff4 ad3d
00000260: 0746 38bd ce9a 9cbb b53f fa3b 8069 423c
00000270: 1dbd 9bbf 2956 e13d b27d a5bd 3529 033e
00000280: 4f0e a93d e452 e63e 50e5 abbd e8e8 543c
00000290: e000 ebbc 0ac1 6d3d 6613 90bf 2f8e 10bd
000002a0: 1f38 6f3b af82 0fbd c68f 77bc 4c6c e53c
000002b0: 83ba 7f3d 03b1 2f3d 3fef 2cbd f9d0 a93d
000002c0: 2abe 7fbd 65d3 d33d 4f9b 2abd f9e5 3e3b
000002d0: c145 563d 9450 923c 21c5 b5bd cff6 0e3e
000002e0: d1af e43d f7e7 09bd 4036 10bd 1088 6e3c
000002f0: e7c2 b63d b5f5 f83d 9d2f fa3c c4cc 00bb
00000300: b7ce 143d c803 22c0 d116 ac3d f467 9d3c
00000310: 2b75 963d b762 29bd 3afd cd3d 7a25 343c
00000320: f70a c3bd 93dd 1abf 1abb 43bd 4afb 2f3d
00000330: 8aed 17bd e0af 3a3d ccd8 ddbc d1ac 58be
00000340: b4a5 383d e44b 0fbe c0f2 4abb 4f0a 02bd
00000350: 7302 9e3d 4aab c2bd 587e 24bd e677 333d
00000360: cac6 23bd 99e3 55be 8fc5 293d 15ab a4bd
00000370: 30dd 5bbd f287 eebd d06a 193c 1b77 95bd
00000380: a024 1e3f 1642 80bd d9d0 c5bd 7e44 bbbd
00000390: 987a ac3c 5005 7e3c d8fd f3be ca37 173f
000003a0: 0604 923e e164 803d 15af 31bd cdc9 c6bd
000003b0: a550 8fbd 4696 3dbd a1fc a4bd 4974 bfbd
000003c0: 9399 a8bc 6214 b23d df64 5dbf 48b2 29bd
000003d0: 0a46 81bd aa48 00be fc79 1bbd ca74 b7bd
000003e0: b007 943f 4b86 bf3d e44b 373d c9f1 b53c
000003f0: ace2 de3c 20d2 c3bd 426b c63b d205 383d
-0.011655193 0.50074023 -0.07156345 0.016575579 0.07339161 0.09743737 -0.077464245 0.27150756
0.05299816 0.3241955 0.08990736 -0.06441135 0.08719628 0.054776974 -0.049582466 0.010625005
0.081678994 0.23724413 -0.056426365 0.03266127 0.07824751 -0.004603253 -0.085479535 0.062628515
-0.95349234 0.03623585 -0.07934974 0.09584992 -0.016851798 -0.006011673 -0.3773224 0.55161154
-0.79096234 0.057246555 -0.013479599 -0.016489312 0.041109674 -0.006103137 -0.0034089037 0.07700537
-0.059482493 -0.059775054 0.20639928 -0.076480135 0.05863953 0.06811787 -0.059712917 -0.031323574
-0.055551674 0.026212908 0.09848443 -0.090712026 0.0853289 0.1584805 0.0141231995 0.06881482
-1.3176298 -0.0019467941 0.0011231899 0.0410885 0.028931405 0.19283743 0.08074996 -0.0007215366
0.028025754 0.071029164 -1.0884218 0.01606649 0.09776078 -0.015827682 0.09847991 -0.042321086
0.05258468 0.07044187 -0.050696194 -0.034317747 0.09353953 0.09006953 -0.09759374 -0.097404405
-0.053941544 -0.07310109 -0.06720404 -0.013294192 -0.06013716 -0.05766814 -0.0038407445 -0.021103907
-0.09187332 0.06580477 -0.004599267 -0.056766715 0.0869784 -2.8401358 0.00946529 0.035665818
-0.072235465 -0.07310432 0.0699707 0.033452824 0.1184977 0.5365061 -0.021450603 0.09423629
-0.020603206 0.06330199 -0.018912658 0.27122355 0.031846788 0.27904862 0.026594235 -0.09827448
0.05077324 0.004669048 0.0075681615 -0.056191634 -0.03959265 0.18191177 -0.039963383 0.017785592
-0.087676756 -0.005935854 0.052478112 0.09134329 -0.83370334 0.0027453955 -0.046838228 0.16625942
-0.07685347 -0.08449402 -0.26199174 0.6752329 -0.6030874 0.039317288 -0.03736245 -0.07162348
0.11527927 0.02844383 -0.0012455052 -0.02465623 -0.046209637 0.0012063177 0.31506452 0.028843602
0.00396353 0.124428146 0.09692786 -0.02848468 -0.15638177 0.00799515 -0.039303865 0.08493959
-0.04498866 -0.0047791963 0.007636989 0.0118659735 -1.2167088 0.11002762 -0.08080615 0.12808688
0.08254682 0.44985116 -0.08393347 0.012994982 -0.02868694 0.058045425 -1.125592 -0.035291847
0.0036501957 -0.03503674 -0.015109962 0.028005742 0.06243373 0.04289342 -0.04222035 0.082918115
-0.062437214 0.10343055 -0.04165202 0.0029128774 0.052312616 0.017860688 -0.0887549 0.13961338
0.11166347 -0.033668485 -0.035207987 0.014558807 0.089238934 0.1215624 0.030540282 -0.00196533
0.03632995 -2.5314808 0.084027894 0.019214608 0.07346567 -0.041353907 0.10058065 0.010995263
-0.09523576 -0.60494345 -0.047785856 0.042964257 -0.03709177 0.045577884 -0.027080916 -0.21159674
0.0450799 -0.13993794 -0.0030967444 -0.031748112 0.07715311 -0.09505327 -0.040159553 0.043815516
-0.039984502 -0.20887603 0.041448172 -0.08040444 -0.053677738 -0.11647023 0.009363845 -0.07298108
0.61774635 -0.06262605 -0.09658975 -0.09143923 0.021054551 0.015504196 -0.47654605 0.590695
0.28518695 0.06269241 -0.04337986 -0.09706459 -0.069978036 -0.04628589 -0.08055998 -0.093483515
-0.020581042 0.08695294 -0.8648204 -0.041429788 -0.06312187 -0.12527719 -0.03795813 -0.089578226
1.1564846 0.09351786 0.04475011 0.022210019 0.027207695 -0.095615625 0.0060552666 0.044927426

fc2.bias f4 [100]
00000000: 0d67 aa3d bce5 d8ba 6561 f7bc 1e90 e9bd
00000010: cd6a 4dbe d9f2 45be 4327 0bbc 2a7c cebd
00000020: fa3e eb3d b8d0 cbbd bef4 c63c 9390 fbbd
00000030: e8f2 c9bc 10ee dfbc 034e 1ebe 4aeb 77bd
00000040: 19a6 58bd 4c50 d1bd bae6 9bbc 0fa9 0d3c
00000050: 07a3 cc3c c809 2dbe 338f 25bd 3864 36bb
00000060: 35cf aebd 2e15 f03c 185f 723d 4b56 e8bd
00000070: 0eea d7bd 9eee b1bd eae3 7bbb 47d4 d43d
00000080: 8e35 cc3d 225e 31bd 7781 023c b6cf 68be
00000090: baf3 f4bd ec6c 6cbe f343 6b3b a91f c63d
000000a0: 8908 843d 2799 16bd 324b 8a3d 2796 8fbd
000000b0: 7306 86bd 4949 2abd 41da e6bc 2f1a acbd
000000c0: 444f 5cbc c17a 4d3b cb0c 5dbc a6be 1c3d
000000d0: 2619 8fbd 02b6 8ebd 1419 2dbd 2473 163d
000000e0: ff21 a83d 4c70 3ebe 6866 0cbe 3382 0abe
000000f0: c2c9 1fbe a78d c23e 4276 b33d f1e2 253e
00000100: df45 1abe b454 81be 5595 7d3b 48c6 24be
00000110: a50d 32bd b819 80bd 3f3f d9bd e075 bf3b
00000120: 09a4 82be b65a bebc 3bb9 b5bd 4352 b53d
00000130: 3aff 67bc 221e a8bd 8e68 853d b6ef fcbd
00000140: 9fbe 18bd d455 c5bd 2000 22be b4db b3bc
00000150: d05b 0cbe 794a c63d b3c0 023d ef4f 90bd
00000160: 36e5 48be 4532 013e 0610 333d e466 bc3d
00000170: 417f 88bc 2948 8cbd b412 69bd af4e 6f3d
00000180: 0b7f 8cbe a532 3b3e 655f 353d 04ef 363d
0.083204366 -0.0016547958 -0.030197809 -0.11404441 -0.20060273 -0.1933092 -0.008493247 -0.10082276
0.11486621 -0.09951919 0.024286624 -0.12283435 -0.02465196 -0.027335197 -0.15459447 -0.060527124
-0.052892778 -0.102203935 -0.019030917 0.008646264 0.024980081 -0.16898263 -0.04041977 -0.002783073
-0.08535615 0.029306974 0.05917272 -0.11344584 -0.10542689 -0.08688091 -0.0038435408 0.10392051
0.09971152 -0.043302663 0.007965437 -0.22735485 -0.1196055 -0.23088425 0.0035898655 0.096740074
0.064469405 -0.03676715 0.067526236 -0.07011061 -0.06544199 -0.041573796 -0.028180243 -0.084034316
-0.013446633 0.0031353685 -0.01349182 0.038267754 -0.069872186 -0.06968309 -0.042260244 0.0367309
0.08209609 -0.18597525 -0.1371094 -0.1352623 -0.15604308 0.37998697 0.0876279 0.16199853
-0.15065716 -0.25259936 0.0038693745 -0.16091263 -0.043470044 -0.062549055 -0.10607766 0.005842909
-0.25515774 -0.023236614 -0.088732205 0.08853581 -0.014159972 -0.082088724 0.06514083 -0.12350409
-0.037291165 -0.09635511 -0.1582036 -0.021955349 -0.13706899 0.09682173 0.031922054 -0.07046496
-0.19618687 0.12616833 0.043716453 0.09199312 -0.016662242 -0.06849701 -0.056902602 0.058424648
-0.27440676 0.18281038 0.04428043 0.044661537

fc3.weight f4 [3, 100]
00000000: adb5 11bf 5bbb 0abf 9c95 ec3d 151e 993b
00000010: 2db2 3fbd b402 b3bc a069 be3d 4ab2 c8be
00000020: 81b3 0cbf 04fe 973d ce0b 46bf f88a 1abe
00000030: c931 e5be c89c d83d 6218 b9bd da9b f33e
00000040: 99d6 943e e5db 1ebf f8b9 f9bd c7c0 53be
00000050: 595b aebd 1434 f1bd 0838 e03e ee8b 9dbd
00000060: d9af 09be 184f 103e 6294 2abf 868e febe
00000070: 6242 553c 7361 ee3e 7281 e03d f5bd 03bf
00000080: 4838 ea3e ba6b 623b 4f09 ca3c 0a9a 4e3c
00000090: c0b5 0abe 2cb8 113d 09a6 2ebf d29a 8cbf
000000a0: cba2 c9be f870 383e 3225 eb3d 38d5 5f3e
000000b0: cac6 3fbf 1192 e9be 603f aabe 6e28 043f
000000c0: 0bc0 09bf c29c ef3e e05d 9e3d e3a1 b0be
000000d0: 95d1 063f 4270 7d3d 70b6 ecbd 5a7d 2f3e
000000e0: 63a2 103f 3ecc a2bd 255a 323f 0184 e4be
000000f0: 2809 073f 903c 0cc0 60d1 2abf 0410 95be
00000100: 3cb5 cebb 9575 c93e 557b 08bf 0e30 183f
00000110: 2c70 153f 29eb 11bc e49c 153d dc01 163e
00000120: d884 bc3e 5056 89bd 362c f83d a7b7 1bbf
00000130: 96d2 363e 30fe 6a3e b011 0d3f d6ea 71be
00000140: 5527 22be c792 0d3f 42f4 10bf 5756 fcbe
00000150: cdb5 fa3d 0748 843e 8540 b8be 04fb 903d
00000160: 71da 3cbe 06f5 b9be 3af3 e73e 5cbb 52be
00000170: 1bda 113e ab31 e73e 2d21 4fbe 054a efbe
00000180: 2320 903e 5820 57be 4e9d a7bd f668 063f
00000190: 1f10 5e3e f31a 8c3e 34c5 a2be 8ff9 a03b
000001a0: 3bb2 4e3e 89b9 103e b886 a9be 4e90 6c3e
000001b0: 30af 453e 42c5 f2be d7d1 693e 7c7d 013e
000001c0: 26d1 b43e 3062 bebe 7dd0 4d3e baa2 d73b
000001d0: 0c62 f2be 3a71 533e fdc7 413e 3d2b 713e
000001e0: 612f a3be 6220 7e3e 774c b3be efb8 d6be
000001f0: 040d 973e 2223 e1be 2350 423e 967a 7bbd
00000200: 35ff 9ebe c703 2d3e 8f6a d2be 7e88 763e
00000210: c908 60bd 8ae2 20bd 06c9 fdbe 06f6 423e
00000220: 8532 d43d eed9 a73d 225a 8c3e 0960 8dbf
00000230: f1ad 633d 0465 f5be 32f0 cebe 99cd ebbe
00000240: 0ac4 8bbe 7896 d23e b182 69bb e9e8 b5be
00000250: 0e5e 613e e396 98bd ce5e e9be d38c eb3e
00000260: fb0e 83be 98a1 f1be ab8e a93e c5e3 babe
00000270: c237 55bd 262b 063e 199a c9be fe92 073e
00000280: f820 8cbe 0999 363f 765d 533e 7286 28be
00000290: e799 923e fb77 873e 7ef6 f0bd 4c32 bcbe
000002a0: 2300 d3be 184f dfbe 8e55 fbbe dbcc a53e
000002b0: e614 353e deb5 1f3d 3abb 96be 54ab 48be
000002c0: 7742 9abe ce11 c0be b917 d1bc 4613 873e
000002d0: 1921 353e 1b9f 373e 57c4 28be f12c 723e
000002e0: 3a7e c7be d14f 293e b501 c33e b39c e6be
000002f0: b8fb 553e 4299 2ebe 1fa5 9c3d 74ad 6bbe
00000300: 7220 14bf 0d95 e3be c9d1 7d3e ed4e 8a3e
00000310: c807 8c3e 1f72 79be 87de d1be 3ef2 f83d
00000320: f5ac 2a3e 20f5 103e 6482 8d3e 895b 3d3c
00000330: cdc2 85be 34b8 93be 02e4 dd3e 5348 893d
00000340: 0e09 fd3d c1de 083f bbe0 a13e 65ee 65bd
00000350: 1edf 90bc cda5 c93e 1a8c aabd 2283 ebbe
00000360: d1e1 973e 6f8b b53e 7aa9 80be 3d0f 53be
00000370: 9275 d83e 7130 3abe fac4 aa3d c793 e03e
00000380: 55fa 8cbe 31e5 df3e e5d9 a33d ad5c b13e
00000390: 92c4 ae3e 5e7c 08bf dd07 053f b853 2f3e
000003a0: a776 bdbe 5e12 f4bb 9942 1e3f d901 febe
000003b0: a03e 2abe e9c3 aebd 6f23 ab3e 064e d83f
000003c0: 4831 003e 47b6 c73e 552a b33e 057a ae3e
000003d0: 3cac 3d3f ea14 6dbb a673 bf3e 908d 92be
000003e0: b952 403e 0b51 80be 790d db3e 12c4 a4be
000003f0: a02a 56be d90d c93e ec82 cfbe f32f 8e3e
-0.5691784 -0.5419213 0.11551973 0.0046727755 -0.04680078 -0.021851875 0.0929749 -0.39198524
-0.549614 0.074214965 -0.7736176 -0.15092075 -0.44764546 0.10576779 -0.09037854 0.47579843
0.29069975 -0.6205428 -0.12193674 -0.20679007 -0.08513517 -0.11777511 0.43792748 -0.07692705
-0.13445987 0.14092672 -0.66632664 -0.49718112 0.013016315 0.46558723 0.1096219 -0.51461726
0.45746064 0.0034549073 0.024662642 0.012609968 -0.13545895 0.03557603 -0.682221 -1.0984747
-0.39382014 0.18011844 0.11481704 0.2185868 -0.74912703 -0.45619252 -0.33251476 0.5162419
-0.5380866 0.46799284 0.07732749 -0.3449851 0.52663547 0.061874636 -0.11558235 0.17137662
0.5649778 -0.07949112 0.696688 -0.4463196 0.52748346 -2.1911964 -0.6672573 -0.2911378
-0.006308226 0.3934752 -0.5331319 0.59448326 0.58374286 -0.008906164 0.036526576 0.14649147
0.36820102 -0.06705916 0.121178076 -0.60827106 0.1785377 0.22948527 0.55105114 -0.23624739
-0.15835316 0.5530209 -0.5662271 -0.49284622 0.12241707 0.25836203 -0.35986724 0.070791274
-0.18442704 -0.3631975 0.45302755 -0.20579284 0.14243357 0.4515508 -0.202275 -0.4673616
0.28149518 -0.21008432 -0.081843 0.5250391 0.21685837 0.2736431 -0.3179108 0.004912562
0.20185177 0.14133276 -0.33110595 0.23101923 0.1930511 -0.4741612 0.22833954 0.12645525
0.35315818 -0.37184286 0.20099063 0.006580678 -0.4734043 0.20648661 0.18923946 0.2355165
-0.31872085 0.2481704 -0.35019276 -0.41937968 0.29502118 -0.43972117 0.18975882 -0.061396204
-0.31054083 0.16895972 -0.41096923 0.24075505 -0.05469588 -0.039278544 -0.4956743 0.19039163
0.10361198 0.08195864 0.27412516 -1.1044933 0.055585805 -0.4792863 -0.4041763 -0.46055296
-0.27298003 0.41130424 -0.0035630877 -0.3552926 0.22008535 -0.07450654 -0.45580143 0.46005878
-0.25597367 -0.471936 0.3311666 -0.365019 -0.052055128 0.13102397 -0.3937538 0.13239667
-0.27368903 0.71327263 0.20641121 -0.16457537 0.28633043 0.26458725 -0.11765765 -0.36757123
-0.41211042 -0.4361503 -0.4908871 0.32382855 0.17683753 0.0389918 -0.29439718 -0.19596606
-0.30128834 -0.37513584 -0.025524007 0.26381892 0.17688407 0.17931788 -0.16481148 0.23649956
-0.3896349 0.16534354 0.3808724 -0.45041427 0.20896804 -0.1705065 0.07648682 -0.23015386
-0.5786201 -0.44449654 0.24787058 0.2701334 0.27349687 -0.2435994 -0.40990087 0.12155579
0.1666754 0.14156008 0.27638543 0.011557468 -0.26125184 -0.28851473 0.4333802 0.06703248
0.12355243 0.53464895 0.31616768 -0.056135554 -0.017684516 0.39384308 -0.083275035 -0.45998484
0.29664472 0.35457942 -0.251293 -0.20611282 0.422772 -0.18182541 0.083383515 0.43862745
-0.27534738 0.43729547 0.080005445 0.34641019 0.34134346 -0.5331477 0.51965123 0.1712178
-0.37004587 -0.0074484786 0.6182037 -0.49610785 -0.16625452 -0.08533461 0.3342547 1.6898811
0.125188 0.39006254 0.34993234 0.3407747 0.74090934 -0.0036175796 0.3739292 -0.2862363
0.18781556 -0.2506183 0.42783716 -0.3218084 -0.20914698 0.39268377 -0.40529573 0.27770957

fc3.bias f4 [3]
00000000: 1e62 60bd 16b0 86bd 544a 4f3d
-0.05478107 -0.065765545 0.050607994
