models/home_state_dict.pt (torch, 49439 bytes, 6 tensors)

fc1.weight f4 [100, 13]
00000000: 60ab 2e3d 5cd1 623e 8254 0c3e ba98 3dbe
00000010: b278 38be ec99 1c3e 400b 623c c6fc 7f3e
00000020: 10c7 d0bd 34d1 ed3d 9d0e 4cbe 92a9 67be
00000030: 5b1b 1ebe a034 6abc f68d 2abe 624a 05be
00000040: e834 db3d 6832 f13d 8836 d3bd 2ead 7e3e
00000050: 12ea 41be 6a82 a4bd e6d2 6a3e a0c6 1d3d
00000060: cc9b cdbd 74a6 f93d 9a22 52be 5662 e1bd
00000070: f6f9 453e c0da 37bc ec1f 52be 583b cb3d
00000080: 2611 4e3e 5cbb 37bd b079 bc3c dea3 3d3e
00000090: b453 10be 40a5 af3d da61 28bd 1241 313e
000000a0: 2a45 a3bd 63e6 00be 1616 dbbd a027 fb3c
000000b0: 2fc6 8b3e 0079 4c3c 38b1 ef3d 7268 d7bd
000000c0: 4888 bbbd 0284 1dbe 50c0 7dbd 028e 19be
000000d0: eac5 49bd 1df3 d4bd d2da 513d 7727 363e
000000e0: 3e3b 1d3e 7064 19bd 717d 26bc cd8c d9bc
000000f0: 63a7 893c 7436 003e c7ee ad3c 17eb 28be
00000100: 0461 0ebe 83b2 21be f625 6e3e 9345 8bbe
00000110: 7ce1 fcbd 1075 c83c 0f4f 803e b65f 343e
00000120: 60c6 783c f474 2a3e cf9a 863e 2eea 0bbe
00000130: a02a dd3c ceec 0b3e 0e03 5fbe 9bb2 863e
00000140: 2b03 5abe 149a 833d 56c9 043e 10b9 74be
00000150: a141 21be 30a8 d93c 3aff 7a3e 426f 673e
00000160: 7e66 7e3e 0054 aebc 828e 6b3e 4b09 b53d
00000170: 45f5 afbe cd1c 92be cfc2 323f 3da2 723e
00000180: 6298 2fbe bcc9 4ebf cacc bfbe f326 0d3e
00000190: 3ae4 cbbe 0843 a0be 62b4 1cbd 1f06 1cbd
000001a0: cbe1 88be 6644 b5bd 2034 ed3c 46db 7ebe
000001b0: 8c0e 5b3e 7803 d63d 3210 733e 4059 48bd
000001c0: e9a3 09be da67 71be 5f6e 803e c6d5 7f3e
000001d0: 38d1 0e3e 48a4 1fbe 0027 a2bb f081 70be
000001e0: 3815 413d c8f0 0b3d f02c 283e 199a 41be
000001f0: 1468 f5bd 1e5f 63be 2b29 1dbe 48b9 583d
00000200: b21c 45be 68b1 bc3d eaa9 b1bd 34ae 20bd
00000210: 0536 803e 52b2 0e3e bc69 f7bd 551c 81be
00000220: f21c cabd fcaf e13d 002c 453a 99f0 82be
00000230: 4bea 893e ce53 273e ec01 323e 907c 803d
00000240: 60f1 2b3e 76eb f1bd 1c7a ad3d 621a 8cbe
00000250: d45c 2a3e 7c3b 15bd f735 3abe 6682 7b3e
00000260: 1829 463d eeff 4b3e 006c 933d 3ae9 18be
00000270: 72c9 28be 17f0 df3d 6bcd 42be dcbe f1be
00000280: 0ed2 4cbe 8095 41be aace 293f 0255 bc3e
00000290: dfbd dd3d 0363 b53e 6ef7 823e a373 2a3c
000002a0: 116b 053d 1223 83be 2741 863e 9336 2a3f
000002b0: c07a e3be 2910 d33d 3e0e 01ba 5a4b 993f
000002c0: d995 6d3e 2249 a23e 1c27 5c3d eb52 41bf
000002d0: 49f9 59bd 552b 50bb 24b9 423e 5c06 b93d
000002e0: 00cb bebb cc45 c2bd 24e8 36be 3354 853e
000002f0: 1416 28be 2cb8 ad3d 6b93 8cbe 10b4 353d
00000300: 8024 9c3b 1035 7cbd b29f 6c3e c001 7b3c
00000310: 88f9 b73d 1250 563e 0a79 71be c032 b23c
00000320: 94a9 35be 50fa 14bd 3c83 4a3e b4c4 7bbd
00000330: d80f 493d 523d c2bd 48f7 8e3d d2f5 81be
00000340: af67 14be 980a e9bd 5da5 43be d81d 7d3d
00000350: 12ad 503e 202e cc3d bf50 833e d0a8 7d3d
00000360: 38f7 063e 9a7f 183e f6b1 3c3e ac5f 15bd
00000370: a2b0 723e c6e9 debd a503 95ba 8a07 afbd
00000380: f230 473e e041 8d3e 5201 55be a4f6 8c3d
00000390: d41e e33d 865e debd 85d1 7bbd 509f 993d
000003a0: 7674 1abe 7124 38be e065 0bbe 1e26 043e
000003b0: d71f 35be 0414 3bbe 1cd7 d53d 584b 233e
000003c0: 9e8a 0fbe e822 5fbe 1092 053d d362 15be
000003d0: b8b6 1fbe c252 1fbe 7e35 80be 2a18 a9bd
000003e0: a085 9c3c 04f4 c43d a88e 043d 825c 2ebe
000003f0: 0a9f 663e 2af8 8abd aa16 bfbd 7cc4 0b3e
0.042643905 0.22150177 0.13704112 -0.18515292 -0.18014792 0.15293092 0.0137966275 0.24998769
-0.10194218 0.11612168 -0.1992745 -0.2262328 -0.15440123 -0.014294773 -0.16655716 -0.13016656
0.107034504 0.11777192 -0.103131354 0.2487075 -0.18936947 -0.08032687 0.22932014 0.0385195
-0.100394815 0.121899515 -0.20521012 -0.11005084 0.19333634 -0.011221588 -0.2051999 0.09923428
0.20123729 -0.044856414 0.023007244 0.18519542 -0.1409443 0.08576441 -0.041108944 0.17309979
-0.079721764 -0.12587886 -0.10697572 0.030658543 0.2729964 0.0124800205 0.11703724 -0.10517968
-0.09156853 -0.15382388 -0.06195098 -0.14995578 -0.04926101 -0.10397933 0.051234074 0.17788492
0.1535463 -0.0374493 -0.0101617435 -0.026556397 0.016803449 0.12520772 0.021232022 -0.1649593
-0.13904196 -0.15790753 0.23256668 -0.27201518 -0.12347695 0.024469882 0.25060317 0.17614636
0.015184015 0.16646177 0.26289985 -0.13663551 0.026997864 0.13664553 -0.21778509 0.2630814
-0.21290271 0.064258724 0.12967429 -0.2389872 -0.15747692 0.026569456 0.24511424 0.22601035
0.24843785 -0.021280289 0.23003581 0.08839663 -0.34366813 -0.28537598 0.69828504 0.23694701
-0.17147973 -0.8077657 -0.3746093 0.13784389 -0.3982256 -0.3130114 -0.038257964 -0.038091775
-0.26734766 -0.088509366 0.02895552 -0.24888334 0.21392268 0.1044988 0.23736647 -0.04891324
-0.13441433 -0.23574772 0.25084206 0.24983892 0.13946998 -0.15590012 -0.004948497 -0.23487067
0.047139376 0.034165174 0.16423392 -0.1890644 -0.11982742 -0.22204253 -0.15347736 0.052911073
-0.19249228 0.09213525 -0.08674987 -0.039228633 0.25041214 0.13935211 -0.12080714 -0.25216928
-0.09868802 0.110198945 0.000752151 -0.25574186 0.26936564 0.16340563 0.17383546 0.062737584
0.16791296 -0.11812489 0.08470556 -0.27363878 0.16636974 -0.03643368 -0.18184648 0.24561462
0.048379034 0.19921848 0.07198334 -0.14932719 -0.16483095 0.109344654 -0.19023673 -0.47215927
-0.20002005 -0.18904686 0.6633097 0.36783606 0.10827231 0.35427102 0.255794 0.0104035465
0.03257281 -0.25612694 0.26221582 0.66489524 -0.44429588 0.10305817 -0.0004923082 1.197612
0.23201694 0.3169642 0.053748235 -0.7551715 -0.053216252 -0.003176411 0.19015938 0.09034416
-0.0058225393 -0.09485969 -0.17861992 0.260408 -0.16414672 0.084823936 -0.2745622 0.044361174
0.0047650933 -0.06157404 0.23107794 0.015320241 0.08983141 0.20928982 -0.23581329 0.021752715
-0.1774047 -0.03637153 0.19776624 -0.061466888 0.049087375 -0.09484352 0.06980759 -0.2538286
-0.14492677 -0.11378974 -0.1910605 0.06179604 0.20378521 0.09969735 0.25647542 0.06192857
0.13180244 0.14892426 0.18427262 -0.036468193 0.23700193 -0.108844325 -0.0011368884 -0.0854636
0.19452265 0.2758932 -0.20801285 0.068829805 0.110898644 -0.10857873 -0.06147911 0.075010896
-0.15083489 -0.17982651 -0.13613081 0.12905166 -0.17687927 -0.18269354 0.104414195 0.1594671
-0.14017722 -0.2179066 0.03261 -0.1458848 -0.15597045 -0.15558913 -0.2504081 -0.08256562
0.019106686 0.09616855 0.03236261 -0.17027476 0.22521606 -0.06785615 -0.09330495 0.13649172

fc1.bias f4 [100]
00000000: cc14 f33d 6445 7ebe e6a9 78be 2e1f 5a3e
00000010: 2dce ba3c f461 b63d 4ccc d23d 27e2 013f
00000020: 00d0 da38 3ca9 983d 0a81 1d3e 6267 303e
00000030: 39e8 b1be c709 dfbe 008d d7bb 0074 ce3c
00000040: b408 ddbd 78eb 383d 60a3 96bc d65c 0cbe
00000050: be22 83be 416e e4be 0cc7 3cbd f0fe bc3d
00000060: d0b4 f2bc e0d6 d23d 8fe7 60be 83a8 12be
00000070: 306f b0bc 7132 24be 5841 28bd b8b5 523e
00000080: 1260 6ebe 55cb f03d 3efe 6dbe 933b 1c3f
00000090: 2a62 7e3e 24fa 8a3e 5016 f0bc e032 3d3e
000000a0: 969f bfbd 4bc3 0ebf 78c1 383e 003a e13b
000000b0: 233b 803e 00bf cebb 961f 2c3e ecb4 a1be
000000c0: fc13 f7be 381d c13d 623f 633e 0642 0a3f
000000d0: 28ea c6bd 9eaa 89be 88c6 8f3d 4250 173e
000000e0: 702a 583e f2ac 243e 6bf5 053c 918f 893e
000000f0: 3e54 3cbe 50eb 553e 9303 09be f44c 303e
00000100: eb02 663e e406 b43d 3c5f 20be 52a4 84be
00000110: dc35 dc3e 68a2 623d 5b29 093d ff9c 9c3e
00000120: e66d 523e b5df 8a3e 300e 23be 1473 af3d
00000130: b8bd 58be 106a c6bc dad9 2cbd cae7 8cbe
00000140: ff42 0ebe 009c 24be 6ad0 4b3e bc8d cbbd
00000150: a4e9 f83d 14c9 833d 1063 c1bd b819 0a3e
00000160: 449f 643e b3f0 56be 20f9 113c a2d8 693e
00000170: 48a3 ea3d 5ec8 c6be dde4 a8bd 0264 42be
00000180: b88b e23d dea7 84be 78fc 353e e00e e83c
0.11869201 -0.24831158 -0.24283561 0.21300957 0.02280339 0.08905402 0.10292873 0.50735706
0.00010433793 0.07454154 0.15381256 0.17226937 -0.34747484 -0.43562147 -0.006578088 0.025201797
-0.107926756 0.045146435 -0.01838845 -0.13707289 -0.25612444 -0.44615367 -0.046088263 0.09228313
-0.029627234 0.102948904 -0.21963333 -0.14322095 -0.021537393 -0.16034867 -0.04107794 0.20577133
-0.23278835 0.117575325 -0.23241517 0.61028403 0.24842134 0.27143967 -0.029307514 0.18476439
-0.093566105 -0.55766743 0.18042552 0.006873369 0.25045118 -0.00630939 0.16808924 -0.31583345
-0.48257434 0.09429401 0.22192147 0.54006994 -0.097126305 -0.26887983 0.07020289 0.1477671
0.21109939 0.16081598 0.008176188 0.26867345 -0.18391511 0.20890546 -0.1338027 0.17216855
0.2246205 0.08790377 -0.15661329 -0.25906616 0.4300984 0.055330664 0.033486705 0.3058853
0.20549735 0.271238 -0.15923381 0.08566871 -0.21166122 -0.024220496 -0.042199947 -0.2752059
-0.13892744 -0.16075134 0.19903722 -0.09939143 0.121539384 0.06434837 -0.09442723 0.13486373
0.2232638 -0.20990257 0.008909494 0.22836545 0.11456925 -0.38824743 -0.08246777 -0.18983462
0.110618055 -0.25909323 0.1777209 0.028327405

fc2.weight f4 [100, 100]
00000000: 10b8 1fbc 573d 91bd a88c b13c bab5 6d3d
00000010: efa0 433d 837b ef3d fac5 70bb becd 273f
00000020: 7d4c 28bd 8d1b dc3d ebdd 39bc 0001 48ba
00000030: a054 a9be 4559 25bf 8030 1abb f8ee bcbd
00000040: 272b 92bd 23bc 90bd f7eb 5fbd 7d4e cd3c
00000050: 0a12 f5bc eecd 94bd d369 483d fe0c 673d
00000060: e23e 313d 28d8 85bd 64c5 833d e1a5 6e3d
00000070: 251c 94bd 105f d03d 8e19 643d 35d5 103c
00000080: 4f1b eb3c 5347 173e 6387 1dbd 2102 a33e
00000090: 9630 1a3d a797 933d dec8 8a3d 1f00 7f3d
000000a0: c3f0 43bd 31e9 bdbe cbf1 11bd 6d03 32bd
000000b0: b9e8 90bd 256d 8bbd 6898 1fbc 63c4 91be
000000c0: 8ec6 603e 80cf bcbb bbbc de3c 6e4a 5b3f
000000d0: 5965 9f3d 6338 37bd 37fb bebd 99b3 0cbd
000000e0: 58ff 60bf 05df 96bd f65f 0e3e 2fa1 bf3d
000000f0: c227 8e3c f810 debc 2ccf 953c c934 a3bd
00000100: 5a32 52bd 302f 703c 1ec2 dc3c 0066 9fbe
00000110: 8c39 513f 87c1 6bbd 05d2 833d 397a a03d
00000120: 270f 70bd b830 363b d4bb b73c b129 d43d
00000130: 6844 80bd 62a3 0d3d 8b87 cc3d 2b5a 82bd
00000140: f911 bb3d cf61 4e3d e4cc ab3c f9a5 9fbd
00000150: c906 9d3d 8fdf 72bd 8378 2fbc a7c9 91bc
00000160: 57ae 8f3d bf1b afbc 6e62 153d a743 933d
00000170: 8b6e c6bd 1c75 3abf 8f12 b7bc fda2 c63d
00000180: 58f0 e73d c03a 6f3c 8d2b 143f a73a b1bb
00000190: 9ebe 113d ffc8 38bd 805c b8bc 2d3a 2bbd
000001a0: f766 c33d 3a29 12bd edb3 8b3d a725 b4be
000001b0: f94a c13c 5bd1 843d 80d8 393d a72e cabd
000001c0: a45d a23e aa99 333f f9fa 25bc ecf0 d13c
000001d0: bf98 6bbd a2ea 113d 28f2 163c 8d7b bcbd
000001e0: 5180 86bd 700b f33d 2c57 c53c 66a1 a2bd
000001f0: 792e c73d cda8 af3d 1766 293d 71b8 19bd
00000200: 99eb 933d eb8d 3abc 5444 b93c a979 b33c
00000210: e143 753b 8018 163e 090e 6ebd f0c2 ddbd
00000220: 2a95 153c dcef a13b 1c78 3b3d 6293 1bbd
00000230: d98d f8bb 8707 d43e 8fde 35bc 009d d339
00000240: e593 543c b978 ecbc f239 2e3d 1858 363e
00000250: 35f0 72bf fb2b 9dbd d57c 663b 2607 bcbe
00000260: 0080 52bb 00ef 5c3b e8d6 c5bd 479c 1e3d
00000270: 0358 c13f 7737 90bd 2232 04bd b2a1 a1bd
00000280: ebdd 8a3c b575 813d 964a 603d 071a d5bd
00000290: e9e9 53bd f5c3 cb3d 023b c1bd a212 b03d
000002a0: 5053 e93e 11a1 953d a50d 183d 39bd 713d
000002b0: 3bcc a83d f793 11bd ad89 be3d b093 0abd
000002c0: 802f 953c 6d84 c63d be13 d73d ed2c b8bd
000002d0: 8fcf f23c 97d1 593d ed9c c3bd 19e8 b0bd
000002e0: 7fa1 9d3d 2d8a a13d fe93 30bb 9538 a9bd
000002f0: 6e5a d33c 4954 c8bd 2daa 75bd a852 97bc
00000300: d790 73bd 6006 3d3f 3875 05bd d2ae 043d
00000310: 4126 623d a59b c13c 64d8 613e 9a53 183d
00000320: defa 9dbd 833c 0e3c d097 24bd d4a6 f2bc
00000330: e5c6 a73d 9360 07be 4e02 0abe d090 ca3e
00000340: bfeb a7bd 94b9 5ebd 94a9 4bbb 94d6 febc
00000350: 0851 a9be 3c19 9ebe f403 12bd 6033 5bbd
00000360: 0cc9 023b c260 6e3d b0c4 d23b 08a3 143d
00000370: 4fde c0bd 7151 27be bf9b c7bd 1a02 733d
00000380: 0978 a43d 68c2 453c 9e4e 273d 4896 2b3d
00000390: d5cf 193c 5734 103c e74b bd3d 4c4d b4b6
000003a0: 601e 1c3d db90 0d3e 16fc 09be 748c c63e
000003b0: c34b cdbd d08b f8bd fc39 d13c 7199 97bd
000003c0: 4c2a e33c dedb 91be ff94 b5bd 4df1 9c3d
000003d0: bbe3 ba3c 605e bcbc ea4c 7bbd 834f 45be
000003e0: ff25 8dbf a064 7fbd d73e 98bc 047f 253f
000003f0: c213 453d a469 10bd e8c6 53bc 0492 563b
-0.009748474 -0.07091778 0.021673515 0.058034636 0.0477609 0.1169348 -0.0036739097 0.6554831
-0.04108857 0.107474424 -0.011344413 -0.00076295435 -0.33072376 -0.6458934 -0.0023527443 -0.09225267
-0.07137137 -0.07067134 -0.054668393 0.02506184 -0.029915828 -0.072658405 0.048929047 0.056408875
0.04327286 -0.06535369 0.06434134 0.058263663 -0.07231931 0.10174382 0.055688433 0.008839895
0.028699545 0.14773302 -0.038459193 0.31837562 0.03764399 0.0720666 0.067765936 0.062255975
-0.04783703 -0.37091973 -0.035630982 -0.0434603 -0.07075638 -0.06807927 -0.009740926 -0.28470144
0.21950743 -0.0057620406 0.027189603 0.85660446 0.077830024 -0.04473151 -0.09325259 -0.034350965
-0.87889624 -0.07366756 0.13903794 0.09356915 0.017352942 -0.0271077 0.018287264 -0.07969052
-0.05131755 0.014659688 0.026948031 -0.31132507 0.81728435 -0.05755761 0.064365424 0.07835812
-0.0586082 0.0027800035 0.02242843 0.103595145 -0.062630475 0.034579642 0.0998679 -0.063648544
0.091342874 0.050386246 0.020971723 -0.07795329 0.0766731 -0.059295233 -0.010709885 -0.01779635
0.070156746 -0.021375535 0.036470823 0.07190638 -0.09689053 -0.72834945 -0.022347717 0.09699056
0.11325139 0.014601409 0.57878953 -0.005408603 0.035582177 -0.04511356 -0.022505045 -0.041803528
0.09541123 -0.035683848 0.068214275 -0.35184976 0.02359532 0.06485244 0.045372486 -0.098721795
0.31712067 0.7015635 -0.010130637 0.025627576 -0.057518717 0.035624154 0.009213008 -0.09203253
-0.06567443 0.11867416 0.024089418 -0.079409406 0.09725661 0.08577118 0.041357126 -0.037529413
0.07222671 -0.011386375 0.02261559 0.021908598 0.0037424492 0.14657784 -0.058118854 -0.10828197
0.009129802 0.0049419235 0.045768842 -0.037982352 -0.007585269 0.41411993 -0.011100425 0.0004036203
0.012974714 -0.028866159 0.04253573 0.17807043 -0.94897777 -0.07674404 0.003516962 -0.36724204
-0.003211975 0.003371179 -0.09660131 0.038723256 1.5104984 -0.07041829 -0.032274373 -0.07892169
0.016951522 0.06321279 0.05475863 -0.10405355 -0.051736746 0.09949485 -0.09435083 0.08597304
0.45571375 0.073061116 0.037122387 0.059018347 0.08242079 -0.0355415 0.09303603 -0.033832252
0.018211126 0.09693227 0.105018124 -0.08992944 0.029639987 0.053178396 -0.095514156 -0.08638019
0.076968186 0.07887683 -0.002694368 -0.08262745 0.025799956 -0.09781701 -0.059976745 -0.01847203
-0.059464302 0.7383785 -0.03258249 0.032393284 0.055212263 0.023633787 0.22055203 0.037189104
-0.07713865 0.008681419 -0.040183842 -0.029620565 0.08192233 -0.13220434 -0.13477442 0.39563608
-0.08199262 -0.0543762 -0.0031076418 -0.031108178 -0.33069634 -0.30878627 -0.0356483 -0.053515792
0.001995626 0.058197744 0.0064321384 0.03628829 -0.09417402 -0.16339661 -0.09746503 0.059328176
0.080307074 0.012070276 0.04084646 0.041891366 0.00938793 0.008801541 0.09242993 -5.3734166e-06
0.038114905 0.13824789 -0.1347507 0.38779032 -0.10024216 -0.12136042 0.025540344 -0.074023135
0.02773013 -0.28488058 -0.088663094 0.07663212 0.022813668 -0.02299422 -0.061352648 -0.19268613
-1.102722 -0.062351823 -0.018584652 0.64646935 0.048114546 -0.035256997 -0.012925841 0.003274084

fc2.bias f4 [100]
00000000: e718 e03d 1a42 d23c 54ac 5a3d 2cd5 7bbd
00000010: f21a e7bd c80f 653d 9dc5 62bd 8802 2d3d
00000020: d804 b5bd 2b23 bcbc a939 a7ba 1313 b13d
00000030: da5c 81bd fea5 0b3d dc5b 0dbd 6391 683d
00000040: 8e35 c8bd 1702 353d 7972 c2bc e459 2dbd
00000050: 6ca3 dfbd 2cf1 f73d e9a9 2bbd 64ce c73c
00000060: f001 753d d0ca bb3d 375e a03c d9a9 a5bc
00000070: ab72 c8bc 9fa7 f4bc 23c4 033d b76a 88ba
00000080: a324 29bd 0b7a 17ba 29e1 95bd ed42 6abd
00000090: 3cfd 4a3d b31a 5e3d de75 a13c 2690 0b3d
000000a0: 6f43 9d3d c7e0 8a3d e812 b53d aa6c cebd
000000b0: 11b4 30bc 945d 9d3d 340f 58be e838 663d
000000c0: 0fec d13d 8424 d6bc bec9 d4bd 6b84 2ebc
000000d0: b556 d4bc 88d2 85bd d478 b6bc cb4e 213d
000000e0: 86e4 bb3d ed9e 5e3d 13de 513d a41c bf3c
000000f0: 6e14 603d ec2e 373d 6abd aebd 4f95 8c3d
00000100: f6c1 0c3c 15f0 9cbc f868 883d 4fb1 2bbc
00000110: 2fbb 313c 796a 6d3d 3ded 8bbd 25b5 1b3d
00000120: 1bbe e7b9 2ccb 7b3d aa27 683d 9c70 57bd
00000130: e3d0 953c 8763 173d 406f 2f3d d327 953c
00000140: 4ff2 613c 0ab6 d6bd 377f db3c 20bc 90bd
00000150: e85d 643d d392 19bd edd8 103d 1920 ed3d
00000160: 71bd 46bd 153d 163c 3e9c 32bd b0a0 54bc
00000170: 7fc0 a4bd a994 1d3d 35a0 24bd 302d 8c3d
00000180: 5dbf 18bd 6d9a ba3d 1983 aebb bfc0 8f3d
0.1094225 0.025666285 0.053387 -0.061482593 -0.11284436 0.055923253 -0.05536424 0.042238742
-0.088388145 -0.022965988 -0.0012758273 0.08646216 -0.06316538 0.03409385 -0.034511432 0.056779277
-0.0977584 0.044191446 -0.023736225 -0.042322055 -0.10919842 0.12106547 -0.041910086 0.024390407
0.0598163 0.09169543 0.019576175 -0.020222591 -0.02446874 -0.029865084 0.032169472 -0.001040778
-0.041294705 -0.00057783787 -0.073183365 -0.05719273 0.04955791 0.05422468 0.019709524 0.034073018
0.076788776 0.06781154 0.08841497 -0.1007932 -0.010785119 0.07683864 -0.2109955 0.056206614
0.10250103 -0.026140459 -0.10390042 -0.010651688 -0.025920251 -0.06534296 -0.022274412 0.039381783
0.09174447 0.054350782 0.051237177 0.023329087 0.054706983 0.044722483 -0.085322216 0.06864416
0.008591166 -0.019157449 0.06660646 -0.010479285 0.010847851 0.05796287 -0.06832359 0.03801455
-0.00044201393 0.061473057 0.05667845 -0.052597627 0.018288082 0.03696015 0.042830706 0.018207466
0.013790681 -0.1048394 0.02679406 -0.07067132 0.05575362 -0.037493538 0.035363127 0.11578388
-0.04852051 0.0091698365 -0.043606035 -0.012977764 -0.08044528 0.03847185 -0.040191848 0.06844556
-0.037291873 0.09111486 -0.0053256867 0.07019185

fc3.weight f4 [3, 100]
00000000: bc95 b4be 158f 8b3e 704e 33be 951d d3be
00000010: 8967 19be b4bb f73e b41c 963d f685 a2bd
00000020: 2de5 70be 0776 bf3e 5b5a 7abe e534 d8be
00000030: cb21 ba3e 334b 9f3e d808 8cbe 8d61 87be
00000040: 9785 c5be 0343 043f 2c53 80be ff7d a2be
00000050: 8cba 79be f134 af3c 8335 cb3e 2ba6 ef3e
00000060: a930 bfbe d480 883e e589 da3e 32e5 943e
00000070: 254f c93e d819 d3be f871 9c3e 6c66 143e
00000080: 09d5 a3be 9780 943e 9718 bf3e fa01 a2bc
00000090: 8e6c 833e 5ae4 df3e f334 cdbe 7a4c 953e
000000a0: 362b 90be 12db d3be b85e e5be 46aa ac3e
000000b0: 63e2 95be 2116 a2be 0174 81bd 1692 62be
000000c0: 9c5b 6c3e 6fa8 ee3e a7f5 ca3e 41d1 9d3e
000000d0: 3d57 bbbe 2019 a8be c5f8 34be 3db5 203e
000000e0: 6491 c1be c33a 9dbe 02ee 24be 1f2f afbe
000000f0: fcb5 a4be 5869 953e 7cb1 e13e 4056 c63e
00000100: cc6b 8fbc 784f b6be 99e9 ddbe 434d b93e
00000110: cf4f 923e 9908 8e3e 2a2f 9c3e adc4 e3be
00000120: 6b85 863e 5c5e e33e 8906 81be 4ef3 8b3e
00000130: f04d 87ba 3015 9d3e 805c c4be e8b5 2fbd
00000140: 2202 ac3e 7980 6cbe 143e 4f3b 98c2 19be
00000150: bf1a 96be 4ab0 ac3d 1d12 f33e cb4f 8b3e
00000160: db6b cabe bac4 cdbe 2d83 873e ee2f 873e
00000170: 9d10 aebe b2b9 34be 5020 cf3d c20d c5be
00000180: ee73 acbe 7f39 ad3e b525 8abe 6773 e0be
00000190: e476 343e a036 153e 5859 ac3e 53d7 d33e
000001a0: 67ab b13e f671 ddbe d103 03bf 11fd f93e
000001b0: 73fa ed3e 260c 38be c928 8e3e fe48 87be
000001c0: 88f6 f5be a0d3 8cbe 4d29 c33e c02a 673e
000001d0: 8281 953e 7054 babe 88e0 c1be 2beb 7c3e
000001e0: 863e af3e 0e10 b1be af08 cdbe f9e9 08bf
000001f0: 1c99 19be 9d9c f5be 00f6 f1be 72d7 b63e
00000200: 7596 88be 005b c23e e73e 19bf fc1d ed3e
00000210: f662 b93e c544 b43e afd6 c53e 3530 a03e
00000220: b4bc cb3e 3bbd 0b3e e775 82bc 40cd a53e
00000230: ee78 fe3e 4f8a a93e 34fd 823e 844c d43e
00000240: 71ba a93e 404b 923e 2846 103f bde8 8a3e
00000250: 560e efbe dd4c b0be 3895 4ebe 13e6 e2be
00000260: b52b 8ebe bd9e b5be 3f46 dbbe ad31 e7be
00000270: 83d7 923e 3eea 4f3e f8a0 a73e c628 09bf
00000280: 13e9 c63e 72db 10bf 6119 fbbe ed84 8cbe
00000290: 2a3b c1be 062f be3e d560 fd3d ba2f 10bf
000002a0: f195 1f3e 1ce6 b0be c305 00bf 911b d93d
000002b0: d5bb c1be 4b4d eebe 8eb0 ce3e a3d7 cebe
000002c0: c1ab e6be e76e a3be 4524 0f3f fb35 f93e
000002d0: c77e f3be e2b7 6abe f05a d63e e5b4 f3be
000002e0: 4875 06bf efae ef3e 92ed c4be ca1e e1be
000002f0: 8e7a b23e eecf 663e 7855 c4be 3a45 cb3e
00000300: 6401 cc3e 2a13 e23e 153d c5be 501b 643e
00000310: ab84 833e 0eab 03bf 765e d93e 6131 043f
00000320: aa71 a33e f035 c6be ddad 7abe 0b56 5bbd
00000330: 2558 64be 933f b0bd 331e ab3e 4280 c8be
00000340: ee73 f9bd 7979 16be 22c4 dcbd 4c4c 103f
00000350: 0244 8b3d cbec 233e df6c 56be 5c21 313c
00000360: 149a 3b3e 1302 51be cadc 4a3f baba 963d
00000370: faa6 71bd db7d 9b3d a7d2 4fbe 4313 a7bd
00000380: 9c81 033f fe77 b73e dfa2 003e b3f4 0ebf
00000390: 50ea 23be ece2 3d3d 3e78 503e 5b2d e7be
000003a0: 8cfb c5bd c3ca 1bbf 0809 3bbf 6c9d b8be
000003b0: fff5 3abf 4a40 0bbf e8f5 f63e 8f73 f5be
000003c0: 349d a6bd c96b 8e3d 86f9 593e d421 41bf
000003d0: d26e 5d3d 6857 f23d 21cd 16be 332f 703e
000003e0: 13c3 753e 71a8 8dbe e11e 93be d12a cabc
000003f0: 201e 123f d7b0 283f 4a98 0d3f ea09 ac3e
-0.35270488 0.272576 -0.1751039 -0.41233507 -0.14980902 0.48385394 0.073296934 -0.07935707
-0.23524924 0.37394735 -0.2444853 -0.42227855 0.36353907 0.3111206 -0.27350497 -0.26441613
-0.38578483 0.5166475 -0.25063455 -0.31736752 -0.24387568 0.02138755 0.39689264 0.46806464
-0.37341812 0.26660788 0.4268333 0.29081112 0.39318195 -0.41230655 0.305557 0.14492196
-0.3199847 0.29004356 0.37323448 -0.019776333 0.25668758 0.43728906 -0.4007946 0.2915991
-0.28157967 -0.41378075 -0.44798827 0.33723658 -0.29274282 -0.31657508 -0.06320954 -0.2212604
0.23081821 0.4661288 0.39640543 0.3082371 -0.36589995 -0.3283167 -0.17673023 0.15694137
-0.37806237 -0.30708894 -0.16106418 -0.34215638 -0.32170093 0.29181933 0.44080722 0.3873768
-0.017507456 -0.35607505 -0.43342283 0.3619176 0.28576514 0.27740934 0.30504733 -0.4448599
0.26273665 0.44407928 -0.25200298 0.27334064 -0.001032291 0.30680227 -0.38351822 -0.04289809
0.33595377 -0.23095883 0.0031622695 -0.15015638 -0.2931728 0.08432062 0.47474757 0.27209315
-0.39535412 -0.40189153 0.26467267 0.26403755 -0.3399705 -0.17648962 0.10113585 -0.3848706
-0.33682197 0.3383293 -0.26981893 -0.43838045 0.17623478 0.14571619 0.33661914 0.41375217
0.34701082 -0.43251008 -0.511777 0.48825887 0.4648014 -0.17973384 0.27765492 -0.26422876
-0.4803965 -0.27505207 0.38117447 0.22574902 0.2920037 -0.36392546 -0.37866616 0.24699084
0.3422739 -0.3458256 -0.40045688 -0.53482014 -0.14999813 -0.4797105 -0.47257996 0.35711247
-0.2667729 0.37960052 -0.59861606 0.4631194 0.36208314 0.35208717 0.38640353 0.3128678
0.39792407 0.13646404 -0.01592536 0.32383156 0.49701637 0.33113334 0.25583804 0.41464627
0.33150056 0.28573036 0.5635705 0.2713069 -0.46690625 -0.34433642 -0.2017411 -0.44316158
-0.2776772 -0.3547267 -0.4282703 -0.45155087 0.28680047 0.203042 0.32739997 -0.5357784
0.38849697 -0.56584847 -0.490428 -0.27445164 -0.3774045 0.3714525 0.12371985 -0.56322825
0.15584542 -0.3455056 -0.5000879 0.10600961 -0.37838617 -0.46543345 0.40369076 -0.40398893
-0.45052913 -0.3192055 0.5591472 0.48673996 -0.4755766 -0.22921708 0.41866255 -0.4759895
-0.52522707 0.4681315 -0.38462502 -0.43968803 0.34859127 0.22540256 -0.38346457 0.39701253
0.3984481 0.44155246 -0.38523164 0.22276044 0.25687155 -0.51432884 0.4245488 0.51637846
0.31922656 -0.38713026 -0.24480386 -0.053548854 -0.2229925 -0.08605876 0.33421478 -0.39160353
-0.12180315 -0.14694776 -0.10779597 0.5636642 0.06800081 0.16008298 -0.20939969 0.010811176
0.18320495 -0.20410948 0.7924315 0.07359834 -0.058997132 0.075923644 -0.20295201 -0.08157971
0.51369643 0.35833734 0.1256213 -0.5584213 -0.16007352 0.046358988 0.20358369 -0.4515179
-0.096671194 -0.60856265 -0.73060656 -0.36057603 -0.7303161 -0.5439497 0.48234487 -0.47939727
-0.08135453 0.06954152 0.21286592 -0.7544224 0.054060765 0.11833078 -0.14726688 0.23455505
0.24000196 -0.27667573 -0.28734496 -0.02467862 0.5707722 0.65894836 0.553105 0.33601314

fc3.bias f4 [3]
00000000: 9804 9b3c cc65 e6bd 41b1 d43d
0.018923089 -0.11249885 0.10385371
