models/home_state_test.onnx (onnx, 47829 bytes, 6 tensors)

fc1.weight f4 [100, 13]
0	0xbe509c6f	-0.20372175
1	0xbc4ae5d7	-0.0123839
2	0xbe2df329	-0.1698729
3	0xbe84819c	-0.25880134
4	0xbe519546	-0.204671
5	0x3dcb06fe	0.09913443
6	0xbe8d37ab	-0.27581534
7	0x3e855b5f	0.26046273
8	0x3e3d5f6b	0.1849343
9	0xbe6833b6	-0.22675976
10	0x3d1e01da	0.038575985
11	0xbda2dd39	-0.07952351
12	0xbdd2ad11	-0.10286916
13	0x39aab000	0.00032556057
14	0x3d821fd4	0.06353727
15	0xbe21d454	-0.15803653
16	0xbe4e3dea	-0.20140806
17	0xbe085bd2	-0.13316277
18	0xbe88b315	-0.2669913
19	0xbc1f4440	-0.009720862
20	0xbe71bb22	-0.23606542
21	0x3d20c650	0.039251626
22	0x3e6403da	0.22267094
23	0x3dcd38ac	0.10020575
24	0x3d7803c0	0.06055045
25	0xbe3c2e56	-0.18377051
26	0x3d3118f0	0.043236673
27	0x3d2decc0	0.04246211
28	0xbe8044ce	-0.25052494
29	0x3e16f5a8	0.14742148
30	0x3e4651d8	0.19367158
31	0x3cbc2660	0.022967517
32	0xbe71c065	-0.23608549
33	0x3d88ba8c	0.06676206
34	0x3da40f20	0.08010697
35	0xbce8b070	-0.028404444
36	0x3e00f244	0.12592417
37	0x3d6931c0	0.05693221
38	0x3dea8dac	0.11452803
39	0xbc50f77f	-0.01275432
40	0x3f11057f	0.5664901
41	0x3edec2d0	0.43508005
42	0xbfa4e148	-1.288125
43	0xbdaf5769	-0.08561594
44	0x3e949100	0.29016876
45	0x4030a838	2.7602673
46	0x3f2ca711	0.67442423
47	0x3eb0b643	0.34514055
48	0x3ec65ff1	0.38745072
49	0x3e8a86dc	0.27056015
50	0x3f6d7a0f	0.9276437
51	0x3cbf6677	0.023364289
52	0xbd90617a	-0.07049842
53	0x3d935308	0.07193571
54	0x3e38ecfe	0.18059155
55	0x3dc16c3c	0.09444472
56	0xbe20dc9f	-0.1570916
57	0xbe0f0f06	-0.13970575
58	0xbe54d7c0	-0.20785427
59	0x3bf83ac0	0.007575363
60	0x3e809d3b	0.25119957
61	0x3e71c562	0.23610452
62	0xbe8d0865	-0.27545467
63	0xbe09216a	-0.13391653
64	0x3e552e1c	0.2081837
65	0xbd7b3788	-0.061332256
66	0x3e707fc6	0.23486242
67	0x3e3a1c52	0.18174866
68	0xbe31b8f2	-0.17355707
69	0xbe0b3d43	-0.13597588
70	0xbc7ddf00	-0.015495062
71	0x3e83fa4b	0.25776896
72	0xbe45546a	-0.19270483
73	0x3d8cf840	0.068832874
74	0x3e8df90f	0.2772908
75	0xbe46deb2	-0.19420889
76	0x3e889b55	0.2668101
77	0x3df96a04	0.12178424
78	0xbdeaf92a	-0.114733055
79	0xbe8400f2	-0.2578197
80	0x3e525080	0.20538521
81	0xbe14ed7d	-0.1454372
82	0x3de16d41	0.11007167
83	0x3e304c38	0.17216575
84	0x3dd69eb0	0.10479486
85	0xbcc0ca40	-0.02353394
86	0xbdce5e46	-0.10076575
87	0x3b7b18c7	0.003831433
88	0x3d274370	0.040835798
89	0x3e7687ba	0.24075213
90	0xbdfc282b	-0.12312349
91	0x3e4e0b95	0.20121606
92	0xbe55d8ec	-0.2088353
93	0xbdd0de75	-0.1019868
94	0x3e227bf6	0.158676
95	0xbe823a32	-0.25435024
96	0xbd4f0441	-0.050541166
97	0x3e8c7acf	0.27437446
98	0x3e8bffca	0.2734359
99	0x3dbb263f	0.09138154
100	0x3e3d257e	0.18471333
101	0x3e050672	0.1299074
102	0x3b8a5f38	0.0042227767
103	0xbcd9fd38	-0.026610002
104	0x3e5a04d6	0.21290907
105	0x3ba6a780	0.0050858855
106	0x3d567348	0.052356035
107	0x3d35ef70	0.0444178
108	0x3e84f1df	0.25965783
109	0x3e5cda78	0.21567714
110	0x3c5c7f80	0.013458133
111	0x3e4d5b8a	0.2005445
112	0xbe7df9f8	-0.24802387
113	0x3d3595e0	0.044332385
114	0x3e48c536	0.1960648
115	0x3e11c408	0.14234936
116	0x3e662bce	0.22477648
117	0x3e3adb48	0.18247712
118	0x3e331bf2	0.17491129
119	0xbcf86a1a	-0.03032403
120	0x3d3ad2b9	0.045611117
121	0x3e27e125	0.1639448
122	0x3c31a554	0.01084264
123	0xbeac7d7d	-0.3368949
124	0xbe918d33	-0.2842804
125	0xbdfaba4d	-0.12242565
126	0xbe9a965f	-0.3019285
127	0x3e14e513	0.1454051
128	0x3db666af	0.08906304
129	0xbe16ac68	-0.14714205
130	0x3ca376e4	0.019954152
131	0xbe89d19c	-0.26917732
132	0xbe73932c	-0.2378661
133	0xbe43d7d0	-0.19125295
134	0x3e82fdbe	0.25584215
135	0x3db7c1c2	0.08972503
136	0x3e78a048	0.24279892
137	0xbd87e276	-0.06634991
138	0xbd723890	-0.059135973
139	0xbe97e59e	-0.29667372
140	0x3e3ec23a	0.18628779
141	0x3e81f388	0.25381112
142	0xbe045df4	-0.12926465
143	0x3d3aec23	0.045635354
144	0x3e6c4756	0.23074088
145	0x3e5ce332	0.21571043
146	0x3e3cfb8f	0.18455337
147	0x3e4f0fa2	0.20220807
148	0x3b93e757	0.004513662
149	0x3e6aaa56	0.2291654
150	0xbdb67daa	-0.08910687
151	0xbde9327c	-0.11386582
152	0x3e5c4d96	0.21513972
153	0x3e48a362	0.19593576
154	0x3bd31aa9	0.006442387
155	0xbe2fc0c7	-0.17163382
156	0xbd78ba50	-0.060724556
157	0xbd383e44	-0.044981256
158	0x3d15f628	0.036611706
159	0x3d79afb8	0.060958594
160	0xbe88d311	-0.2672353
161	0xbe3a8224	-0.18213707
162	0xbe1b1db7	-0.15148054
163	0x3e52e384	0.20594603
164	0xbe652c1c	-0.22380108
165	0xbd94ff0e	-0.0727521
166	0xbdad4dc0	-0.08462095
167	0x3d570f50	0.052504838
168	0xbd111ae4	-0.035426036
169	0xbe4dc543	-0.2009478
170	0xbe482d9a	-0.19548646
171	0x3ea85537	0.32877514
172	0x3d69705b	0.056991916
173	0xbe4937a4	-0.19650131
174	0xbc9dd185	-0.019264946
175	0x3d11b4e0	0.035572886
176	0xbd6fb09f	-0.05851805
177	0xbda049f3	-0.07826605
178	0x3eaaa130	0.333261
179	0xbe4a29aa	-0.19742456
180	0xbd70948e	-0.058735423
181	0x3dedcaf0	0.11610973
182	0xbde4ca34	-0.1117138
183	0x3d887b68	0.06664163
184	0xbdda29ba	-0.1065249
185	0xbe361314	-0.17780715
186	0x3e446ff6	0.19183335
187	0x3e74b19a	0.23895875
188	0x3d83c9e4	0.06434992
189	0x3e4c0502	0.19923785
190	0x3da72d24	0.08162907
191	0x3dada41c	0.08478567
192	0xbe2bf762	-0.16793588
193	0xbe74a131	-0.23889615
194	0x3d2a77a0	0.04161799
195	0xbe844593	-0.2583433
196	0x3e282d68	0.16423571
197	0x3da64ff8	0.081207216
198	0x3e846c85	0.25864044
199	0x3e81bbab	0.25338492
200	0xbd07e338	-0.033175677
201	0x3dc46c24	0.09590939
202	0x3e676aae	0.22599289
203	0x3ba93a40	0.0051644146
204	0x3c301480	0.010747075
205	0x3e216482	0.15760997
206	0xbdd72b46	-0.10506301
207	0x3d55e9d8	0.052224964
208	0xbc73b2a0	-0.0148741305
209	0xbde6fd2c	-0.112787575
210	0x3d370460	0.044681907
211	0xbe161ae0	-0.1465869
212	0x3e488314	0.19581252
213	0x3c9c1c60	0.019056499
214	0x3e2554a8	0.16145575
215	0x3e3c7822	0.18405202
216	0xbe4c6804	-0.19961554
217	0xbdbee54c	-0.09321079
218	0x3e79dafe	0.24399945
219	0x3e403ef6	0.18774018
220	0x3e82c551	0.25541165
221	0xbdf3b409	-0.11899573
222	0xbc1e932f	-0.009678646
223	0x3debcefc	0.115140885
224	0x3d8b78db	0.06810161
225	0xbe14a871	-0.1451738
226	0xbda7fdb2	-0.082026854
227	0xbc39eefa	-0.01134848
228	0xbe3ae4e9	-0.18251385
229	0x3d8ee07e	0.06976412
230	0xbd979b92	-0.074027196
231	0xbddb99e3	-0.10722711
232	0xbdfe56b7	-0.12418883
233	0x3e152ebe	0.14568612
234	0x3e3b7c5c	0.18309158
235	0xbe562390	-0.20912004
236	0x3c758020	0.014984161
237	0xbdfa8722	-0.12232806
238	0xbde584b4	-0.11206952
239	0xbe4906fa	-0.19631568
240	0xbe8777a6	-0.26458472
241	0xbbcadb00	-0.0061906576
242	0xbe696d84	-0.22795683
243	0xbcad67e0	-0.021167696
244	0xbe4430b4	-0.19159204
245	0xbe4bdacd	-0.19907685
246	0xbdce2948	-0.100664675
247	0xbdee27f2	-0.11628713
248	0x3e8dcf7b	0.27697358
249	0xbdce7f1e	-0.100828394
250	0x3dda00e8	0.10644704
251	0x3e37702c	0.17913884
252	0xbe5ebeae	-0.21752426
253	0x3e23e79e	0.16006324
254	0x3e5b2d76	0.2140406
255	0xbd2dc83c	-0.042427287

fc1.bias f4 [100]
0	0xbe7ab7c4	-0.24484164
1	0xbe29b215	-0.16571839
2	0x3e7f15ba	0.24910632
3	0xbeae3d0a	-0.34030944
4	0xbdbf7fc8	-0.09350544
5	0x3d19fbb0	0.037593544
6	0x3e77d6a2	0.2420297
7	0xbe595fa5	-0.21227892
8	0xbe8b9201	-0.2725983
9	0xbd82c17f	-0.06384563
10	0x3e8665b6	0.26249474
11	0x3da14f44	0.07876447
12	0x3d9d5fd4	0.076842934
13	0xbdfebfd7	-0.12438934
14	0xbe8257fc	-0.25457752
15	0xbded1934	-0.11577073
16	0xbe5582b4	-0.2085064
17	0xbe39e9a7	-0.18155538
18	0x3e33e320	0.1756711
19	0xba9a7300	-0.001178354
20	0x3e1a25c4	0.15053469
21	0xbd285f40	-0.041106462
22	0x3c914e60	0.017737567
23	0xbdf72db0	-0.12069261
24	0xbe7fe4b0	-0.24989581
25	0x3d11dc28	0.035610348
26	0x3e030a0e	0.12796804
27	0xbc1625a0	-0.009164244
28	0x3d920644	0.07130101
29	0xbd604ef4	-0.054762796
30	0xbe2c7c6e	-0.16844341
31	0xbdab23ad	-0.08356414
32	0xbe49128e	-0.19635984
33	0x3d4ac908	0.049508125
34	0xbd055140	-0.03254819
35	0x3e0d77e0	0.1381526
36	0x3e0ba64c	0.13637656
37	0xbca46250	-0.02006641
38	0x3e7c8926	0.24661693
39	0xbe6fe5d5	-0.23427518
40	0x3e624bcc	0.22099227
41	0x3e04b711	0.1296046
42	0xbe6fc269	-0.23414005
43	0xbe348fb1	-0.17632939
44	0xbe79f214	-0.24408752
45	0x3f8351bb	1.0259317
46	0x3ea3a480	0.3196144
47	0x3f9413c2	1.156853
48	0xbe7b2362	-0.24525216
49	0xbe58f328	-0.21186507
50	0x3e4f3d28	0.20238173
51	0x3d4d2180	0.050080776
52	0x3dac512c	0.0841392
53	0x3e601ec2	0.21886733
54	0x3dc12afe	0.09432028
55	0xbe15e7a6	-0.14639148
56	0x3e8d2693	0.27568492
57	0x3e8dfd2b	0.27732214
58	0x3e45098c	0.19241923
59	0x3e869c45	0.262911
60	0xbc9efcb0	-0.0194076
61	0x3e2bed1d	0.1678967
62	0x3e7f1902	0.24911883
63	0xbda53ac4	-0.08067849
64	0x3d8d9870	0.06913841
65	0xbe3b59e2	-0.18296006
66	0xbdfb83da	-0.12281008
67	0xbf013237	-0.50467247
68	0xbd754d18	-0.059887975
69	0xbda551fe	-0.080722794
70	0x3e86e8af	0.26349398
71	0xbe89a3af	-0.26882693
72	0x3e2526c8	0.16128075
73	0x3d4912e0	0.049090266
74	0x3db791de	0.08963369
75	0xbe2a84ba	-0.16652194
76	0xbd739e41	-0.059477095
77	0xbe893480	-0.26797867
78	0xbe56a756	-0.20962271
79	0x3e0fbec6	0.14037618
80	0x3d8f4838	0.069961965
81	0xbe45d4e4	-0.19319493
82	0x3e2f4946	0.17117795
83	0x3e09650e	0.13417456
84	0xbe809bba	-0.2511881
85	0x3e893545	0.26798454
86	0xbe830f16	-0.25597447
87	0xbd1f891d	-0.03894912
88	0x3e870baf	0.263761
89	0xbe5e6cd8	-0.21721208
90	0x3e54550a	0.20735565
91	0xbe14c005	-0.14526375
92	0x3e55d154	0.20880634
93	0xbd00efa4	-0.03147854
94	0xbdbb541e	-0.091469035
95	0xbe8686ba	-0.26274663
96	0x3e24bbbd	0.16087241
97	0x3e55368e	0.20821592
98	0xbd891626	-0.066936776
99	0x3d818fa8	0.063262284

fc2.weight f4 [100, 100]
0	0xbd5d2a1a	-0.05399523
1	0xbdb77a9f	-0.08958935
2	0x3d8e64ed	0.06952844
3	0xbffff120	-1.999546
4	0xbe122df3	-0.1427534
5	0xbe4f4cad	-0.20244093
6	0xbd16575c	-0.036704406
7	0xbdc19c4c	-0.094536394
8	0x3bd498ff	0.006487965
9	0xbc6f3b9f	-0.014601617
10	0x3d8dcc6b	0.06923755
11	0xbbc158a8	-0.005900461
12	0xbd3c5a33	-0.04598446
13	0xbca49e40	-0.02009499
14	0xbb8811b7	-0.0041525024
15	0xbe47cfdc	-0.19512886
16	0x3d6dab50	0.058024704
17	0x3cf0823e	0.02935898
18	0x3d4f813a	0.05066035
19	0x3db05a0c	0.08610925
20	0x3d7ac1dc	0.061220035
21	0x3d8acd59	0.06777448
22	0xbd207c10	-0.039180815
23	0xbe00bbb4	-0.12571603
24	0xbd41586a	-0.04720346
25	0xbda3b3f3	-0.07993307
26	0xbd5e7440	-0.054310083
27	0xbdbbf5db	-0.091777526
28	0x3da41fa0	0.080138445
29	0x3d31e01e	0.043426625
30	0xbdd7381a	-0.105087474
31	0xbd1c614d	-0.03817873
32	0xbcc7d052	-0.024391327
33	0xbdcb47b0	-0.09925783
34	0xbe0d4ce9	-0.1379887
35	0x3d196b4a	0.037455834
36	0xbdc8062e	-0.09766804
37	0xbe1cf689	-0.1532842
38	0x3d6f3d25	0.05840792
39	0xbd70d027	-0.05879226
40	0x3d3cb93e	0.0460751
41	0xbd7a7e40	-0.061155558
42	0x3d7452ee	0.0596494
43	0x3dc645cd	0.09681282
44	0xbd2c573c	-0.04207538
45	0xbf87a307	-1.0596627
46	0x3d998349	0.07495744
47	0xc051af2c	-3.2763166
48	0x3d52f312	0.05150134
49	0x3d7e04f6	0.06201645
50	0x3dac358d	0.084086515
51	0xbdcb4519	-0.09925289
52	0x3cc22938	0.023701295
53	0xbda8f50f	-0.08249866
54	0xbc14ae76	-0.009074798
55	0xbd3de7d7	-0.046363678
56	0xbd41b475	-0.047291238
57	0xbe2e5ee9	-0.17028393
58	0xbd62c1cd	-0.055360604
59	0xbd045b51	-0.03231365
60	0x3af25d6a	0.0018490974
61	0x3f7d4596	0.98934305
62	0xbc7ff083	-0.015621307
63	0x3db7316c	0.08944973
64	0xbdd392fb	-0.10330769
65	0x3c77ef50	0.01513274
66	0xbbacdd6d	-0.0052754194
67	0xbfa46293	-1.2842582
68	0x3df0bd66	0.11754875
69	0xbdae675d	-0.08515809
70	0x3d7cbfb9	0.06170628
71	0xbc0320a8	-0.008003391
72	0x3c2a7220	0.010403186
73	0xbd5a3e70	-0.0532822
74	0xc01dc03c	-2.464858
75	0xbe3d2fd8	-0.18475282
76	0xbc5929fa	-0.013254637
77	0xbd1a5d5d	-0.037686694
78	0xbe460a22	-0.19339803
79	0xbe497c33	-0.19676284
80	0x3d9872e9	0.074437924
81	0x3dae2e6a	0.085049465
82	0x3be351dc	0.0069372486
83	0xbe45c5ae	-0.1931369
84	0x3c74bdd8	0.01493784
85	0x3cde194b	0.02711167
86	0xbcff9964	-0.031201072
87	0x3de8be91	0.11364473
88	0xbdbac503	-0.09119608
89	0xbd974230	-0.07385671
90	0xbd75d213	-0.060014796
91	0x3de4ed1f	0.1117804
92	0xbd76e063	-0.060272586
93	0x3da7c829	0.081924744
94	0x3d586736	0.052832805
95	0xbd9538d0	-0.07286227
96	0xbd80b137	-0.06283801
97	0xbe05d16d	-0.13068171
98	0xbd69a240	-0.0570395
99	0x3d5729e2	0.052530177
100	0x3c5821d0	0.013191655
101	0x3dcb532d	0.09927974
102	0xbd011829	-0.03151718
103	0xbf407fd4	-0.7519505
104	0xbd9d8071	-0.07690514
105	0xbd7b948e	-0.06142097
106	0x3dace1b5	0.08441488
107	0x3d9cba79	0.07652754
108	0xbd60aa86	-0.054850124
109	0x3db4793b	0.088121854
110	0x3cbf054a	0.023317952
111	0xbdc29fb7	-0.095031194
112	0xbda75fa6	-0.0817254
113	0xbcb345f5	-0.021883944
114	0xbe073c55	-0.13206609
115	0xbdef1b7f	-0.11675166
116	0xbdaed055	-0.0853583
117	0x3d21ded5	0.03951915
118	0x3d89118b	0.06692799
119	0x3db7a44f	0.08966886
120	0x3c354660	0.011064142
121	0x3cef27e4	0.029193826
122	0xbcdf805b	-0.027282884
123	0xbd8f03b3	-0.069831274
124	0xbd2b0c91	-0.04176003
125	0x3bc72d30	0.006078385
126	0x3d6fbbca	0.0585287
127	0x3cce5ac4	0.025189765
128	0xbdd3687b	-0.103226624
129	0x3d34c52e	0.044133358
130	0xbe2f27f0	-0.17105079
131	0xbdeb68c8	-0.11494595
132	0xbd603ff4	-0.05474849
133	0x3d9284fa	0.071542695
134	0x3da44ae5	0.080220975
135	0xbdc5c237	-0.09656184
136	0x3c474e57	0.012164674
137	0xbe642dc4	-0.22283083
138	0xbd20a6da	-0.039221622
139	0xbdb201e5	-0.086917676
140	0xbcbbd3e0	-0.022928178
141	0x3bd4f6d4	0.006499151
142	0x3cbad040	0.02280438
143	0xbbceaf44	-0.0063075144
144	0x3c60d77c	0.0137232505
145	0x40092548	2.1429005
146	0x3ceb385f	0.028713403
147	0x400fcbc6	2.2468123
148	0x3d15446a	0.036442198
149	0xbd8bbb74	-0.06822863
150	0xbd4d859d	-0.05017625
151	0xbd87a135	-0.06622545
152	0xbd8c850e	-0.06861316
153	0x3d8bda94	0.068288
154	0xbcaa3a50	-0.020779759
155	0xbd69556d	-0.056966234
156	0xbd09470e	-0.03351503
157	0xbceceb1c	-0.028920703
158	0x3d9bd37d	0.076086976
159	0x3d4e5d21	0.050381783
160	0xbbb41282	-0.0054953704
161	0x3eaa86ae	0.33305877
162	0x3e05b7e5	0.13058431
163	0xbd64deb3	-0.055876445
164	0xbe2aa17f	-0.16663168
165	0x3dc9ce93	0.09853854
166	0x3d61f2f7	0.05516335
167	0xbee994a2	-0.4562121
168	0xbe598b99	-0.21244659
169	0xbd9e32b3	-0.07724514
170	0xbd7dce99	-0.061964605
171	0x3d73803a	0.05944846
172	0xbe57f784	-0.21090513
173	0xbd9306f5	-0.07179061
174	0xbd89f0da	-0.06735392
175	0xbdc31697	-0.09525793
176	0xbe172c63	-0.14763026
177	0x3dcd2f24	0.10018757
178	0xbdc7e72b	-0.09760889
179	0xbce8cea6	-0.02841885
180	0x3da89c29	0.0823291
181	0x3d1f0dc0	0.038831472
182	0x3d3d78a5	0.046257634
183	0xbe13daab	-0.14438884
184	0x3cffa544	0.031206734
185	0xbd8ae680	-0.06782246
186	0xbe2b5d4f	-0.16734813
187	0xbdf98cb4	-0.1218504
188	0xbcfabce0	-0.03060764
189	0xbd5834fd	-0.05278491
190	0xbd78ff97	-0.060790624
191	0xbd0cace3	-0.034344565
192	0x3ce7c674	0.028292872
193	0xbc7b40d0	-0.015335277
194	0xbcb3da40	-0.021954656
195	0xbd87ea31	-0.06636465
196	0xbdc67d33	-0.096918486
197	0xbcc23d69	-0.023710923
198	0xbdafcd8f	-0.08584129
199	0xbd9fb39a	-0.07797928
200	0x3dcb5acc	0.099294275
201	0xbdc56e20	-0.09640145
202	0xbd07960a	-0.033102073
203	0x3ff17003	1.8862308
204	0xb9857dd0	-0.00025461474
205	0x3d86fdb6	0.0659136
206	0x3c482910	0.012216821
207	0x3d410d63	0.047131907
208	0x3d359e6b	0.044340532
209	0x3dd34f43	0.10317852
210	0x3e042ee5	0.12908514
211	0x3ca4caa7	0.020116163
212	0x3d8929d3	0.066974305
213	0x3c88be08	0.016692176
214	0x3cb4dcef	0.022078006
215	0x3d233539	0.03984568
216	0xbdcaa996	-0.09895627
217	0x3d660014	0.05615242
218	0xbda5516d	-0.08072171
219	0xbd94ddee	-0.07268892
220	0xbdb01b98	-0.08599013
221	0xbc8e78c0	-0.017391562
222	0x3e07777d	0.13229175
223	0x3d87f12d	0.066377975
224	0xbd305d35	-0.04305764
225	0x3d49082a	0.04908005
226	0xbce4aff4	-0.027915932
227	0x3c32b880	0.010908246
228	0xbdaa8bc3	-0.08327439
229	0xbce60f58	-0.028083488
230	0xbd882c13	-0.066490315
231	0x3bcda194	0.006275365
232	0x3dc1d646	0.094646975
233	0x3cc958fb	0.024578562
234	0x3db7ae5d	0.08968804
235	0x3dbb44bb	0.09143969
236	0x3d2f5b73	0.042811822
237	0xbe23a976	-0.15982613
238	0xbc4174ac	-0.011807602
239	0xbdc23eaa	-0.094846085
240	0x3b1e50c0	0.0024157017
241	0x3df74d5e	0.120753035
242	0x3ccfe98c	0.025379919
243	0xbd5f93e0	-0.054584384
244	0x3c9d9674	0.01923678
245	0xbfa09124	-1.2544293
246	0xbe614057	-0.219972
247	0xbf6f99a4	-0.9359381
248	0xbd1736a6	-0.03691735
249	0xbc49a450	-0.012307242
250	0x3da76a61	0.08174587
251	0x3d8e4fd8	0.06948823
252	0xbd212117	-0.039338198
253	0xbe08aeaf	-0.13347887
254	0x3d809c02	0.06279756
255	0xbd50092a	-0.05078999

fc2.bias f4 [100]
0	0x3e0ccab0	0.13749194
1	0xbe5e29c1	-0.21695615
2	0xbd4cfcef	-0.050045904
3	0xbd5bc2db	-0.053652626
4	0xbe55394f	-0.20822643
5	0xbe325e25	-0.17418726
6	0x3dc20f4e	0.094755754
7	0xbd2c69c6	-0.04209306
8	0xbdf83e0f	-0.12121212
9	0xbe1f1e00	-0.15538788
10	0x3e1ce31a	0.15321007
11	0xbdd4190f	-0.10356342
12	0x3dce939a	0.100867465
13	0x3d16b90e	0.036797576
14	0x3d5e9c2d	0.05434816
15	0xbe0a7d40	-0.13524342
16	0xbdd6cc3e	-0.10488175
17	0xbdf7b17e	-0.12094401
18	0xbeaeccbc	-0.34140575
19	0xbe06b6be	-0.13155648
20	0xbdaf56c3	-0.0856147
21	0xbb535d60	-0.00322517
22	0xbe54d1d9	-0.20783176
23	0xbe758ed8	-0.23980272
24	0xbd760c3c	-0.06007026
25	0xbd3e727c	-0.0464959
26	0xbc98c0c0	-0.018646598
27	0xbdb844ce	-0.089974985
28	0xbe761bc2	-0.24034026
29	0xbd4c4f5a	-0.049880363
30	0xbe089a93	-0.13340215
31	0xbe1349e9	-0.14383663
32	0x3e1895bf	0.14900874
33	0xbe376105	-0.17908104
34	0xbdb4c68d	-0.08826933
35	0xbd6335bd	-0.05547117
36	0xbdf5e681	-0.12006856
37	0xbe95f9dd	-0.29292193
38	0xbe895498	-0.26822352
39	0xbe039fbc	-0.12853903
40	0xbd4536d5	-0.048147995
41	0xbe818bd1	-0.25301984
42	0xbe05ae12	-0.13054684
43	0xbe31107d	-0.17291446
44	0xbd9aa182	-0.075503364
45	0xbe313cae	-0.17308304
46	0x3e39ed55	0.18156941
47	0xbe3b8b17	-0.18314777
48	0xbe69a0cf	-0.2281525
49	0xbda42ae9	-0.08015997
50	0xbe2cc948	-0.16873658
51	0xbdcd0e85	-0.10012535
52	0xbcc29787	-0.023753894
53	0x3bef2ac2	0.0072987983
54	0xbd9bf0d9	-0.076142974
55	0xbdde7a81	-0.108632095
56	0x3c5fd6e9	0.013662078
57	0xbe36ce55	-0.17852147
58	0xbe26119f	-0.1621766
59	0xbe7bf14e	-0.24603769
60	0xbe294e7f	-0.1653385
61	0xbe166134	-0.14685518
62	0xbe29ea87	-0.16593371
63	0xbe1f1abd	-0.15537544
64	0xbd89679c	-0.06709215
65	0xbdcf776b	-0.10130199
66	0xbe79b368	-0.24384844
67	0xbd45316e	-0.048142843
68	0xbd62a4b4	-0.055332854
69	0xbe8b68a4	-0.27228272
70	0xbe956208	-0.29176354
71	0xbdbd83f8	-0.09253687
72	0xbe1ab4fc	-0.15108103
73	0xbe086799	-0.1332077
74	0xbe88bbf9	-0.26705912
75	0x3c9dc9fc	0.019261353
76	0xbcbdac80	-0.023153543
77	0xbe1cb91c	-0.15304989
78	0xbdf63312	-0.1202146
79	0xbbe19b84	-0.006884994
80	0x3d37311b	0.044724565
81	0x3c9b6043	0.0189668
82	0x3e0bd428	0.1365515
83	0xbe9c23d6	-0.3049609
84	0xbe17167a	-0.14754668
85	0x3e2af9d2	0.16696861
86	0xbe154501	-0.14577104
87	0xbe1aca4e	-0.15116236
88	0xbd9d05a9	-0.07667095
89	0x3dc71773	0.097212695
90	0xbcf923a2	-0.030412499
91	0xbe166cd2	-0.14689949
92	0x3dc9dc9d	0.09856532
93	0xbe3e2e83	-0.1857243
94	0xbe0b280c	-0.13589495
95	0x3d67d87a	0.056602933
96	0xbe112cc3	-0.14177231
97	0x3da7107d	0.08157442
98	0x3e1c5ec9	0.15270533
99	0x3d5bd528	0.05367008

fc3.weight f4 [3, 100]
0	0xbe32f9da	-0.17478123
1	0xbe955746	-0.29168147
2	0x3e62bc4c	0.22142142
3	0x3e67c6de	0.22634456
4	0x3e90acc4	0.2825681
5	0x3e91b3b8	0.28457427
6	0x3d2db1cd	0.042405892
7	0x3de3d7e6	0.11125164
8	0x3ed55441	0.41665843
9	0xbe2dc279	-0.16968717
10	0x3d3eb749	0.046561513
11	0xbeb1bec8	-0.34715867
12	0xbe8772f3	-0.26454887
13	0x3c84211a	0.016129065
14	0x3dea1f3f	0.11431741
15	0x3e992559	0.29911307
16	0xbe5fdc0d	-0.21861286
17	0xbe4230d4	-0.18963939
18	0x3ef02224	0.46901047
19	0x3e6b8566	0.23000106
20	0xbe2bf60c	-0.16793078
21	0xbda69bb9	-0.081351705
22	0xbea30b77	-0.31844684
23	0xbe4ad424	-0.19807488
24	0x3ebc724f	0.3680596
25	0xbef3021b	-0.47462544
26	0x3d805ec0	0.06268072
27	0xbe89270c	-0.26787603
28	0x3e990f68	0.29894567
29	0x3e7de886	0.24795732
30	0xbe931e40	-0.28734016
31	0xbe610469	-0.21974339
32	0xbd76bb81	-0.06023741
33	0xbe8bb9ec	-0.27290285
34	0x3ec639bc	0.38715923
35	0xbe89a597	-0.26884148
36	0xbe44f93f	-0.19235705
37	0x3ed918a5	0.42401615
38	0xbe9e9f66	-0.30980986
39	0x3eaa7444	0.3329183
40	0x3eb9a1ef	0.36256358
41	0x3ebf299d	0.37336436
42	0xbe39ecd2	-0.18156746
43	0xbe194606	-0.14968118
44	0x3ea9c730	0.3315978
45	0x3e997dae	0.29978698
46	0xbe902bc1	-0.28158382
47	0x3e3c7bb2	0.18406561
48	0xbf1a5754	-0.602895
49	0xbe9f9a16	-0.31172246
50	0xbe6d9b3a	-0.23203745
51	0xbe34eb5c	-0.17667907
52	0xbe991e2a	-0.29905826
53	0xbf07dbe4	-0.530699
54	0xbeae7518	-0.3407371
55	0x3ea4df21	0.32201484
56	0x3bc3d84b	0.005976712
57	0xbe844a46	-0.25837916
58	0xbec5c298	-0.38625026
59	0x3eb3b433	0.3509842
60	0xbe7b82f7	-0.24561678
61	0xbe7efb35	-0.24900515
62	0xbd3453ea	-0.04402534
63	0x3e9b625e	0.30348486
64	0xbeb950cf	-0.36194465
65	0xbee0d7bc	-0.43914592
66	0x3e9a8880	0.30182266
67	0x3eb83566	0.3597824
68	0x3e6fee09	0.23430647
69	0xbe1cbe2b	-0.15306918
70	0x3ed5c30d	0.41750374
71	0x3ec8e664	0.39238274
72	0x3ee9edd4	0.4568926
73	0x3e65ba44	0.22434336
74	0xbe67e7cd	-0.22647019
75	0x3e802122	0.25025278
76	0x3ea74ec0	0.3267727
77	0x3e9d72c8	0.30751634
78	0x3e531387	0.20612918
79	0x3e300eda	0.17193165
80	0xbe1cdcac	-0.15318555
81	0xbeb9a8b5	-0.36261526
82	0xbe877699	-0.2645767
83	0xbdef2961	-0.11677814
84	0xbe345c5a	-0.17613354
85	0xbc62cbba	-0.0138425175
86	0x3e3a7ec6	0.18212423
87	0x3e8d901a	0.27649003
88	0xbe174d9c	-0.147757
89	0xbe880601	-0.2656708
90	0x3e418141	0.18896963
91	0xbda5fa78	-0.08104414
92	0xbeb20366	-0.34768218
93	0x3ea28c48	0.3174765
94	0x3ec4174e	0.3829903
95	0xbec4fda1	-0.38474753
96	0xbe57fc73	-0.21092395
97	0xbeb623bf	-0.35574147
98	0xbd584424	-0.05279936
99	0xbe234201	-0.15943147
100	0xbe9d56f6	-0.30730408
101	0x3e75dd04	0.24010092
102	0xbe5ce0ea	-0.21570173
103	0xbe20b7d3	-0.15695123
104	0x3e2ae783	0.16689877
105	0xbe6299d3	-0.22128992
106	0xbe91e226	-0.2849285
107	0xbd8c628b	-0.06854733
108	0xbe71f6b8	-0.23629272
109	0x3e9546fa	0.29155713
110	0xbe9f4fcc	-0.31115568
111	0x3e00ba10	0.12570977
112	0xbe06dff4	-0.13171369
113	0xbba40b7d	-0.0050062523
114	0xbe69f939	-0.22848977
115	0xbdd8e6b8	-0.10590881
116	0x3e0214ad	0.127032
117	0x3c2bcc2b	0.010485689
118	0x3ec740d3	0.38916644
119	0xbe72c74f	-0.23708843
120	0x3e81a174	0.2531849
121	0xbbc9ac45	-0.0061545693
122	0x3e3dae2b	0.18523471
123	0x3e65917f	0.22418784
124	0xbe82d98c	-0.255566
125	0x3e849c68	0.25900578
126	0xbe754895	-0.23953469
127	0x3e0340a5	0.12817629
128	0x3d3708a4	0.044685975
129	0xbe5c6842	-0.21524146
130	0x3e033c47	0.12815963
131	0x3e77c439	0.24195947
132	0xbdad6689	-0.08466823
133	0x3e3016e9	0.1719624
134	0xbe783246	-0.24237928
135	0xbe872ef9	-0.26403025
136	0x3e329c49	0.1744243
137	0x3ec0d835	0.37664953
138	0x3e9e9b1a	0.30977708
139	0xbe5d719b	-0.21625368
140	0xbe7d97bb	-0.24764912
141	0x3e771556	0.24129233
142	0x3d5df0f9	0.054184888
143	0x3eda932d	0.4269041
144	0xbe59c1e6	-0.21265373
145	0xbe4383d0	-0.19093251
146	0xbe94eaee	-0.29085487
147	0xbda1ac86	-0.07894234
148	0x3eedce3f	0.46446416
149	0x3e18f2b6	0.14936337
150	0xbcc28bb1	-0.02374825
151	0x3e8f41e3	0.27979955
152	0x3e4677b0	0.19381595
153	0x3ea554c9	0.32291248
154	0x3e24c638	0.1609124
155	0xbeb07934	-0.3446747
156	0xbe8f36ba	-0.2797144
157	0x3e5cc896	0.21560892
158	0x3e8888cc	0.26666868
159	0x3e6b0e13	0.22954588
160	0x3e2a6570	0.16640258
161	0x3d6844c0	0.05670619
162	0xbd6b93e6	-0.057514094
163	0xbe8e8237	-0.2783372
164	0x3e54c066	0.20776519
165	0x3d3d8d17	0.046277132
166	0x3e9cb79f	0.30608842
167	0xbe53c5e0	-0.20680952
168	0xbe90330f	-0.28163955
169	0x3e45f219	0.19330634
170	0x3eb23fd4	0.34814322
171	0xbecca487	-0.39969274
172	0xbe0a12c9	-0.13483728
173	0xbe33650f	-0.1751902
174	0x3e5b0f54	0.21392566
175	0xbea44554	-0.32084143
176	0xbe7b0bf2	-0.24516276
177	0x3d65b73c	0.05608295
178	0xbe8a606d	-0.27026692
179	0xbe42de92	-0.19030216
180	0xbeaf0d83	-0.34189996
181	0x3da7116e	0.08157621
182	0xbdd683d0	-0.1047436
183	0x3e6bcad1	0.23026587
184	0x3e28302b	0.16424625
185	0xbed52721	-0.41631415
186	0x3e50e9bc	0.20401663
187	0xbe5a83f5	-0.213394
188	0x3e69f73d	0.2284822
189	0xbe07c421	-0.13258411
190	0xbe50f89b	-0.20407335
191	0x3e950a3e	0.29109377
192	0xbe24b3dd	-0.16084237
193	0xbe8d9b02	-0.27657324
194	0x3e5ae439	0.21376123
195	0x3d389250	0.04506141
196	0x3e3b0573	0.18263797
197	0x3e1cc6e9	0.15310253
198	0xbe853a7d	-0.26021186
199	0xbe559159	-0.20856227
200	0x3e9d6f05	0.30748764
201	0xbdec72a3	-0.11545303
202	0x3de32244	0.1109052
203	0x3d7971e9	0.06089965
204	0xbef8cdb5	-0.48594442
205	0xbdb047ff	-0.08607482
206	0x3e9a8513	0.30179653
207	0x3d49bbb9	0.049251292
208	0x3dc7bc08	0.09752661
209	0xbe82c538	-0.2554109
210	0x3eabed96	0.335797
211	0x3d51a4fa	0.051182725
212	0x3e85698e	0.26057094
213	0x3da55de5	0.080745496
214	0x3e85e714	0.2615286
215	0xbdd45227	-0.10367232
216	0x3da067e6	0.07832317
217	0x3da40d76	0.0801038
218	0xbf5f7166	-0.8728241
219	0xbdaf4b6a	-0.08559306
220	0x3d9f6297	0.077824764
221	0xbda37c26	-0.07982664
222	0xbcd090a0	-0.025459588
223	0xbdca8da5	-0.09890298
224	0xbcf59bfc	-0.029981606
225	0xbd8ed038	-0.06973308
226	0x3e06ac80	0.13151741
227	0xbd94f06b	-0.072724186
228	0xbed63e53	-0.41844425
229	0x3b63a8dd	0.0034738102
230	0x3c141060	0.009037107
231	0xbe4df247	-0.20111953
232	0x3df8dc73	0.12151422
233	0xbd339c45	-0.043850202
234	0xbdd032e2	-0.10165955
235	0x3ec6ce50	0.3882928
236	0xbd90619c	-0.070498675
237	0xbf63117f	-0.8869857
238	0x3cd467ff	0.025928495
239	0x3dca0e1a	0.09865971
240	0xbe10d53b	-0.14143841
241	0xbf6b6631	-0.91952807
242	0x3b81d715	0.0039624074
243	0xbe4e6ae9	-0.2015797
244	0xbdd8ede3	-0.10592248
245	0xbe02d1e1	-0.12775375
246	0x3eb4fd81	0.35349658
247	0xbe4dfc2f	-0.20115732
248	0xbca49a32	-0.020093057
249	0xbcc45554	-0.023966469
250	0xbdb81753	-0.08988824
251	0xbd01daef	-0.031702932
252	0x3d6b5377	0.057452645
253	0x3cb8164b	0.022471568
254	0xbd713494	-0.058888033
255	0x3e131dcb	0.14366834

fc3.bias f4 [3]
0	0xbe5c9d88	-0.21544468
1	0xbe41ff7d	-0.18945117
2	0x3ec5267d	0.38505927
