models/home_state_test.onnx (onnx, 47829 bytes, 6 tensors)

fc1.weight f4 [100, 13]
000000 64 0f 88 3d 30 4a 9d 3c 80 3d b2 bc 1c 34 03 3e
       0.066435605 0.019200414 -0.021757841 0.12812847
000010 e7 d5 79 be 96 df 2c be c6 df 3c 3e aa d2 24 be
       -0.24398004 -0.16882166 0.18444738 -0.16095987
000020 3a 9e 74 3e 62 4c 7f 3e 86 3e 6c 3e b6 9b 21 3e
       0.23888484 0.24931481 0.23070726 0.15782055
000030 3f 19 29 be ec 97 e3 bd ed 87 10 be 3e 7c 3b be
       -0.16513537 -0.11112961 -0.14114352 -0.18309113
000040 14 9e 26 be 74 f7 10 bd c2 51 3a 3e 12 48 c7 bd
       -0.1627124 -0.03539224 0.1819525 -0.09730543
000050 d0 99 23 bd aa d1 c2 bd 26 06 2a be 32 9b 4c be
       -0.03994161 -0.095126465 -0.16603908 -0.19981077
000060 c4 80 81 bd ec d1 e1 3d 3e ab 4b 3e c0 1c 73 bc
       -0.06323388 0.110263675 0.19889542 -0.0148383975
000070 ca ae 6a be 20 f4 53 bc c0 8d d9 bc c7 c1 1c be
       -0.22918239 -0.012936622 -0.02655685 -0.15308295
000080 8a 84 a9 bd 1b 82 89 3e 8c b2 d1 3d a4 7f 05 bd
       -0.08277233 0.26857075 0.10239133 -0.03259243
000090 b2 a3 4e 3e 85 05 8d be 62 28 3c 3e da 5b 1a 3e
       0.20179632 -0.27543274 0.1837478 0.15074101
0000a0 b4 de 15 3e a2 02 7f be f0 1a 67 bd a8 1a 38 bd
       0.14635736 -0.24903348 -0.056422174 -0.044947296
0000b0 40 33 ba 3b 60 2d 12 3e d2 34 9f bd c0 88 78 3c
       0.005682379 0.14275122 -0.077737466 0.0151693225
0000c0 6c ce 16 be 80 98 fe 3b 9b 03 64 be 0e f4 6a 3e
       -0.14727181 0.0077696443 -0.22267 0.22944662
0000d0 8f d1 5f be fc 5d f8 3d 50 84 f8 bc 7a 76 31 3e
       -0.21857284 0.12127301 -0.030336529 0.17330351
0000e0 20 65 d7 bc f6 ac f6 bd 50 ef 1f 3e 22 8c a2 bd
       -0.026293337 -0.120447084 0.15618634 -0.079368845
0000f0 c0 52 5c 3e 10 17 d9 3d bc be 48 3e 16 0a 39 be
       0.21515942 0.10600102 0.1960401 -0.18070254
000100 6a 5e 1f 3e 04 e8 b8 3d 68 b4 06 3e 16 c9 0b 3e
       0.1556336 0.090286285 0.13154757 0.13650927
000110 4e c7 41 3e 80 4e 20 bc 5a 52 2c be 2e fd 08 3e
       0.18923685 -0.009784341 -0.1682829 0.1337783
000120 d8 af e4 3d f8 35 d1 bd 84 8a 50 be 18 0e 46 3d
       0.11166352 -0.10215372 -0.2036534 0.048353285
000130 ca c7 25 be d4 70 5c 3e 00 5a 03 bd 60 cd 3d 3c
       -0.16189495 0.21527416 -0.032068253 0.01158461
000140 14 1d 60 3e 80 d9 ae bb 1e ee 1f 3e cc 36 fb 3d
       0.21886092 -0.0053359866 0.15618178 0.12266311
000150 2e aa cb bd 06 3e 0b be 50 bf 16 3d d8 97 6e be
       -0.099445686 -0.13597879 0.036803544 -0.23300111
000160 53 e0 30 be 96 58 22 3e ef e2 71 be 70 0f ce bd
       -0.17273073 0.15854105 -0.23621725 -0.10061538
000170 90 7e 41 3d 0b c1 14 be 00 58 51 bb 78 75 4f 3d
       0.04723984 -0.14526765 -0.0031943321 0.050649136
000180 a0 84 9f bc 50 a7 3a be 6a 3a 00 be 9d 11 02 be
       -0.01947242 -0.18227887 -0.12522283 -0.12702031
000190 46 f6 2a 3e 58 03 70 bd d4 a1 4d be 82 7b 7f 3e
       0.16695508 -0.05859694 -0.20081264 0.24949458
0001a0 a1 16 9e 3e 82 c9 d5 3d 56 7f f6 bb 0a 4e 15 be
       0.3087664 0.10438825 -0.007522504 -0.14580551
0001b0 da c3 8d 3e 8a 35 18 3b b7 a1 14 3e ea 01 35 3e
       0.27688485 0.002322527 0.14514814 0.17676511
0001c0 67 dc 97 3e bc f3 0e 3e 19 89 89 bc 05 58 73 3d
       0.2966034 0.13960165 -0.016789006 0.059410114
0001d0 25 78 d1 3b 6a bd 69 3e 54 b2 dc 3d 28 8a 3c 3d
       0.006392496 0.22826162 0.10776201 0.046030194
0001e0 70 dc d7 3c 68 0a 4a 3d bc ab 93 bd c3 1e 88 3e
       0.02635023 0.04932633 -0.0721049 0.2658597
0001f0 18 de 29 3e 64 c3 e7 3d b0 fe d1 3c 54 a4 25 3e
       0.16588628 0.11316565 0.02563414 0.16175967
000200 9f de 47 be 80 b5 71 3d 12 3d 20 be 72 70 fc bd
       -0.19518517 0.059010983 -0.15648296 -0.12326135
000210 4d 95 8d 3e 30 38 1d 3d b8 75 e6 bc 40 d4 4a 3d
       0.2765297 0.038383663 -0.028132305 0.049518824
000220 ba b5 7a 3e 9f 68 58 be ca 38 8b be 68 de 73 be
       0.24483386 -0.2113366 -0.27191764 -0.2381531
000230 c2 5a 41 be b1 dc 20 be 16 61 34 be a7 8b 00 3f
       -0.18882278 -0.15709187 -0.1761516 0.5021309
000240 28 6e 29 bf 34 4d 85 3c d5 f9 99 3e 4b 19 fb 3e
       -0.6618371 0.016272165 0.3007342 0.49042735
000250 9c 94 93 be 2b 02 7d bf 77 7c e7 3e 27 9b 50 3e
       -0.28824317 -0.98831433 0.45212147 0.20371686
000260 3a 5e 01 bf d3 7a da 3e 3a 67 2e be 4e b1 c4 3c
       -0.50534403 0.42671832 -0.17031565 0.024010327
000270 a0 32 ce bd 98 9d 0f bd b2 0a 4a 3e 20 d8 24 3e
       -0.1006825 -0.035062402 0.19730642 0.1609807
000280 f0 d2 4d be 90 d6 26 be 7b 0b 86 3e b0 f3 9a bd
       -0.20099998 -0.16292787 0.26180634 -0.07566011
000290 b0 0f ab bc 53 1e 29 be 7d 73 73 be 10 e5 1d 3d
       -0.020881504 -0.16515474 -0.23774524 0.03854853
0002a0 c6 51 0d be 1a 8c b6 bd 55 40 8d be 0f d5 12 be
       -0.13800725 -0.08913441 -0.27588144 -0.14339088
0002b0 9e 8f 41 3e 10 5b 1d be 80 e9 de bb 7f 3e 35 be
       0.18902442 -0.15366769 -0.0068027377 -0.17699622
0002c0 8c ba df bd 5c c4 56 bd 70 f4 4a be 20 00 fe 3d
       -0.10924253 -0.052433357 -0.19819808 0.124023676
0002d0 98 bb bd 3d 26 6f 0e be 22 59 aa 3d 08 8d 0c 3e
       0.09264296 -0.13909587 0.08317782 0.13725674
0002e0 14 d5 f5 3e 23 e6 84 3e 1f 24 a3 3e 4c b8 35 3e
       0.48014128 0.2595683 0.31863496 0.17746085
0002f0 bd 8f d0 be 86 51 47 3e be 16 6d 3d 64 59 b5 3b
       -0.40734664 0.19464692 0.057883017 0.005534338
000300 38 a0 3e 3e d9 72 90 bc 94 ae 84 bb 6c af 3c 3e
       0.18615806 -0.017632889 -0.0040491316 0.18426293
000310 05 de 2d be 82 c9 23 3e 1e eb 84 be 30 43 99 bc
       -0.16979225 0.15994838 -0.2596063 -0.018708795
000320 90 40 57 3e 76 95 b4 bd c8 65 a8 3d bc c3 6f be
       0.21020722 -0.0881757 0.08222538 -0.2341451
000330 1e 56 c9 bd 0c f7 54 3e 9d 0f 0f be 54 46 82 be
       -0.09830879 0.20797366 -0.139708 -0.2544428
000340 69 7f 8d 3e 8d 21 83 3e 13 b0 1a be f6 f8 d4 bd
       0.2763627 0.25611535 -0.1510623 -0.10399048
000350 f0 6b d5 bc 23 8a 89 3e ae a0 59 3e 5c a2 56 3e
       -0.026052445 0.26863202 0.212527 0.20960373
000360 20 6f 0f 3c b0 0d e4 3d 16 28 38 3e c0 bf 8f bb
       0.008754522 0.11135423 0.17984042 -0.004386872
000370 84 e8 c8 3d ed 9e e4 3d d5 74 37 bd 11 02 e1 3d
       0.09809974 0.11163125 -0.044789154 0.10986722
000380 a2 e3 8c be ba c7 c8 3d 0d 85 45 be c0 31 8e be
       -0.2751742 0.0980372 -0.19289036 -0.2777233
000390 d2 11 5c 3e ea e7 50 3e f2 a0 4f be 7f 0a 1b 3e
       0.21491173 0.20400968 -0.2027624 0.15140723
0003a0 46 2b 8b 3b 11 eb b7 bd cb 85 1c be c0 e8 b7 3d
       0.004247102 -0.08980382 -0.15285413 0.089799404
0003b0 d9 a2 59 3b b4 6a 3b bd 9e a3 ec bd a4 96 92 3d
       0.0033208637 -0.045756057 -0.11554645 0.07157639
0003c0 9f 7a 67 bd 12 16 33 3e 20 fe 14 3e 2f e9 8b 3e
       -0.056513425 0.17488888 0.14550066 0.27326342
0003d0 bc 60 56 3e a5 57 44 3d 5f e6 40 bd e3 b1 8a 3e
       0.20935339 0.047935147 -0.0470947 0.27088842
0003e0 80 07 8d 3c df 4f 8d be a4 73 0e 3e 04 6e 71 be
       0.01721549 -0.276 0.13911301 -0.23577124
0003f0 88 ec 4c bd c0 d5 eb 3b e4 68 18 3e 30 91 73 bd
       -0.05003026 0.007197112 0.14883763 -0.059464633

fc1.bias f4 [100]
000000 00 4e 83 3c 62 00 ef bd 90 7d b1 3c ce 8e c3 bd
       0.016028404 -0.11669995 0.021666318 -0.09548722
000010 f2 a4 b6 bd 98 3f 4b 3d 40 9a 26 3d 30 f0 9c bc
       -0.089181796 0.049621195 0.040674448 -0.0191575
000020 fa 7a 37 3e 5c 86 c5 3d 54 7a 12 3e 16 9c 24 3f
       0.17918006 0.09644768 0.14304477 0.6430067
000030 c9 0a 86 3e e8 3f 48 3d 0a c7 0a 3f 3c 93 ce 3d
       0.26180103 0.04888907 0.5420996 0.100866765
000040 62 c2 60 be d5 43 a3 bd 5d 1f 67 bb d8 5e 11 be
       -0.21949151 -0.07971922 -0.0035266497 -0.14196336
000050 c0 14 86 be 98 64 ba 3d 76 a6 6f 3e 98 76 86 3d
       -0.26187706 0.09101218 0.23403344 0.06565589
000060 8e f1 db bd e9 6d 21 be 05 cc 7b bd fc c9 82 be
       -0.10739432 -0.15764584 -0.061473865 -0.25544727
000070 2e 2a 45 3e 90 a2 cd 3d 52 ff 82 3d d8 40 6c 3d
       0.19254372 0.10040772 0.06396355 0.057679027
000080 e8 0c 3d bd ca b5 1b be f0 93 c1 bc b0 d1 08 be
       -0.046154886 -0.15206066 -0.023630112 -0.1336124
000090 72 94 15 3e 48 55 3d 3e 7e 5f 84 be 84 41 d3 3d
       0.14607409 0.18489563 -0.25854105 0.103152305
0000a0 38 0b 58 bd c3 0c 8c 3e b6 19 4a 3e 0c 76 35 3e
       -0.052745074 0.27353486 0.1973637 0.17720813
0000b0 b0 b3 35 3d 5c f8 8d 3d fe b4 16 3e 74 ea cd 3d
       0.044360816 0.069321364 0.1471748 0.10054484
0000c0 f0 ac e9 3d 1a 4a c8 3e db b7 04 be 8c df 25 be
       0.11409938 0.39119035 -0.1296076 -0.16198558
0000d0 30 a9 3d 3d 8e 2b fd bd 3b bd 6a be ca 88 74 3e
       0.046303928 -0.12361823 -0.22923748 0.23880306
0000e0 7a be 28 be c2 0a f7 bd 8c de b7 3d 28 88 34 be
       -0.16478911 -0.12062599 0.08977994 -0.17630064
0000f0 bc 6d 61 3e bc 1e 4c bd 40 84 b2 bb 1f ba 2b 3f
       0.22014517 -0.049833998 -0.0054478943 0.67080873
000100 8f d2 89 3e f6 49 78 3e 29 a8 8b 3e c0 3e b5 bb
       0.26918456 0.24246964 0.27276734 -0.005531162
000110 11 c3 8a 3e b8 dc 46 bc 5f 81 8d be d8 dc 5e 3d
       0.2710195 -0.012137584 -0.27637765 0.05440983
000120 00 e8 38 be a0 9b 77 3f bc 0e f2 bd cb 5b 37 be
       -0.18057251 0.9672184 -0.118192166 -0.1790611
000130 f6 f8 1c 3f 0a 7e a9 bd f8 d2 21 3e e4 2c 10 3e
       0.61317384 -0.08275993 0.15803134 0.14079624
000140 c4 31 81 be 40 ed 0a 3d 7a 8b 83 be 79 5b dc 3e
       -0.2523328 0.033917665 -0.2569235 0.43038538
000150 60 3f 9d 3c 66 99 50 bd 60 32 07 bc ec 3b 3e 3e
       0.019195259 -0.050927542 -0.008251756 0.18577546
000160 1c e3 87 be e5 0f ca 3e 95 09 13 be a3 56 8d 3e
       -0.26540458 0.39465252 -0.14359124 0.2760516
000170 be dc c2 bd 72 9d 50 3e fa d3 85 3d 0c 69 db 3d
       -0.095147595 0.2037256 0.06534572 0.107133955
000180 d3 b6 89 3e df e8 80 3e 84 16 04 be 65 36 5e 3e
       0.26897296 0.25177667 -0.12899214 0.21700437

fc2.weight f4 [100, 100]
000000 ee 79 a6 bd 63 31 ae bd 09 b8 0a be 66 6b f1 bd
       -0.08128725 -0.085055135 -0.13546766 -0.11788063
000010 02 3d 27 bd 2b 37 9f bd 00 35 80 bb f0 f6 e0 bd
       -0.040829666 -0.07774194 -0.003912568 -0.109845996
000020 6a 3d d4 bd 8b 43 62 be 70 58 73 bc 89 fb d5 be
       -0.10363276 -0.22096078 -0.014852628 -0.4179347
000030 dd 11 2d bd ec bc f1 3c 33 f2 ce 3c 77 27 a4 3d
       -0.042253364 0.02950903 0.025261974 0.0801534
000040 d4 c0 17 bd b1 a6 51 bb ce 68 08 3d 35 a3 65 be
       -0.03704913 -0.0031990225 0.033303075 -0.2242554
000050 9d 78 60 be 68 71 ae bd 50 3a 23 be 6b 00 c8 bd
       -0.2192101 -0.08517724 -0.15940213 -0.09765705
000060 39 25 67 be 4c 78 22 bd fb 43 88 bb 80 2c 51 bd
       -0.22572793 -0.039665505 -0.0041584945 -0.05106783
000070 9d 5d 59 bd aa 7d 20 be 7f da a1 bd 4d ca 49 bd
       -0.053067792 -0.15672937 -0.07903003 -0.049265195
000080 7d fb 9d bd b3 5f 99 3d 2a 81 1b bd 28 5c 9f bd
       -0.07713983 0.07488956 -0.037964977 -0.07781249
000090 e2 78 3f be bc 8c 15 bd d5 fb 04 be 02 83 62 3d
       -0.18698457 -0.036511168 -0.12986691 0.05530072
0000a0 a8 86 18 be b4 e8 51 be 95 c9 57 be 51 66 30 be
       -0.14895117 -0.20498925 -0.21072991 -0.1722653
0000b0 e3 11 12 be 49 19 8c bd 0e b8 cf bd 39 ad 68 bd
       -0.14264636 -0.0684076 -0.101425275 -0.056805823
0000c0 53 7d bf bd cd 99 2b 3e 7d 7f 45 bd e0 a6 93 3b
       -0.093500756 0.16757889 -0.048217285 0.004505977
0000d0 1d 0d 38 bd e7 c5 46 be fa 31 19 3d a1 ea 99 be
       -0.04493438 -0.19411431 0.037401177 -0.3006182
0000e0 8a 2f cd bd 0b 65 9e bd c7 72 04 be 71 a2 5a be
       -0.10018833 -0.07734116 -0.12934409 -0.21351029
0000f0 39 b1 b4 3d a3 07 08 be fa 08 38 3d 8a 5a 85 be
       0.08822865 -0.13284163 0.044930436 -0.26045638
000100 90 64 11 be 42 03 35 3d 0b 1b 87 3d a7 b8 59 be
       -0.14198518 0.04419256 0.06596955 -0.21261846
000110 27 2a a2 bd ef 5d 5a be 6c 0f 8d bc 7c 17 19 be
       -0.07918196 -0.21324895 -0.017219268 -0.14950365
000120 30 80 43 3c 65 71 29 bf 4f 9f 8b bd 25 74 07 be
       0.011932418 -0.6618865 -0.06817495 -0.132279
000130 b3 5c 54 be 23 91 4d bd 60 05 ae bb 83 f5 83 bd
       -0.20738487 -0.05018724 -0.0053106993 -0.06443312
000140 af c7 8a bd 20 15 ef bc 78 22 82 bc c7 19 64 be
       -0.06776368 -0.029184878 -0.015885577 -0.22275458
000150 ba c0 cc bd 0e 4f 51 3c 53 1c 79 bd ca b0 56 bd
       -0.09997697 0.012775196 -0.060818028 -0.052414693
000160 6d 64 80 bd 01 6f 0c be e0 26 80 bd f1 be a8 3d
       -0.06269155 -0.1371422 -0.06257415 0.08239544
000170 30 86 06 be 27 70 32 bd 33 6a ea 3c d9 1a c3 3d
       -0.13137126 -0.043563988 0.028615093 0.09526605
000180 a9 c7 5d be 4c f9 aa 3c a3 92 f3 bc 61 1a b6 bd
       -0.21658196 0.020870827 -0.029733008 -0.0889175
000190 ca 07 86 bd 1a 50 84 3d 09 b0 f2 3d 2d d4 36 bd
       -0.065444544 0.06460591 0.11849982 -0.04463594
0001a0 a8 4a 0c 3d 5f 82 7f 3c 5a 81 2b 3d 53 72 4b bd
       0.034250885 0.015595048 0.041871406 -0.049669575
0001b0 a4 8c 1a 3e 6d 6a e9 bb a1 0d bd 3d 09 be 80 bf
       0.15092713 -0.0071232826 0.09231115 -1.0057994
0001c0 3a f9 ab bd 3a 18 1d 3d 8a 55 c5 3d e3 01 98 bd
       -0.083971456 0.038353182 0.09635456 -0.07422235
0001d0 29 2a cd 3d a5 92 be 3c a0 82 eb bc c5 42 b1 bc
       0.10017807 0.023263285 -0.02874881 -0.021638284
0001e0 af 4a 34 3d 8e 0b 32 3c 3d 38 97 3d 17 7d 4d bd
       0.044016536 0.010867013 0.073837735 -0.050168123
0001f0 da d0 16 3d b7 b8 93 3d fd c9 b1 3d fa 65 a0 bd
       0.03682027 0.07212966 0.08681104 -0.078319505
000200 6d b7 c7 3d 62 a4 0b 3d de 41 16 bd 2a e7 3a bd
       0.097517826 0.034092315 -0.03668391 -0.04563061
000210 fa e2 aa bd 36 56 a5 bd 60 dd 35 bd 44 64 84 bd
       -0.083440736 -0.08073084 -0.044400573 -0.06464437
000220 a5 77 94 3c 2d 21 c2 bc 19 e6 bc 3d aa c2 7c 3d
       0.018123457 -0.02369746 0.09223575 0.061709084
000230 60 98 23 3c 51 40 36 3d 3d 6d a8 bc f4 e3 77 bc
       0.0099850595 0.04449493 -0.020559901 -0.015130032
000240 8c c9 85 bd a4 f6 58 3d c6 3b 22 3d c3 e9 45 3d
       -0.06532583 0.05296959 0.039607786 0.048318636
000250 63 8f 87 3d 52 bc c4 3f 6b 02 b6 3d 10 e2 3b bd
       0.06619146 1.5369971 0.0888718 -0.045869887
000260 6f fb b2 bd 72 8f 8e 3d 98 c7 1a bc 87 27 55 be
       -0.087393634 0.06960954 -0.009447001 -0.2081586
000270 97 43 a1 3d 24 d3 21 3d 52 d1 94 bd 3b 29 7f bd
       0.0787422 0.039508 -0.07266487 -0.06229518
000280 51 15 b1 3d b0 86 57 bb f3 66 6a bd a2 a7 02 bf
       0.08646644 -0.0032886676 -0.057227086 -0.5103704
000290 07 a6 a2 3c b5 7e a0 bd 00 f2 e7 3a 5b 57 81 3c
       0.019854559 -0.078366674 0.0017696023 0.015788725
0002a0 d7 35 a6 bc bc 94 46 bd 3f 2b fc 3c 8f c0 bb 3d
       -0.020289345 -0.048481688 0.03078234 0.09167587
0002b0 6c ec a7 3c 28 96 99 bf 75 e5 95 3d f0 f1 2f bd
       0.020498477 -1.1998949 0.07319156 -0.04295534
0002c0 19 d1 f2 bd 3e 78 53 3d b0 67 8a 3b cd c6 d5 bc
       -0.118562885 0.051628344 0.0042237863 -0.026095772
0002d0 e7 98 9a 3d b0 88 e5 3b 3a 01 3f 3d c6 e9 21 bd
       0.07548695 0.00700482 0.04663203 -0.039529584
0002e0 39 30 e6 bc f8 ac 61 bc 06 66 2e 3d d1 2a b7 3d
       -0.028099166 -0.013774149 0.042577766 0.089437135
0002f0 ea 4b 18 3d 60 66 c9 be 47 6c 24 bd aa 75 0d 3d
       0.037181772 -0.39335918 -0.040142324 0.03453604
000300 c2 3f 16 bd c7 32 ab bd 10 b2 ce bd d2 cb 04 3d
       -0.036681898 -0.083592944 -0.100925565 0.03242094
000310 9e 6c c5 bc a3 29 c6 3d d6 b7 bc 3c 7b f2 e0 3c
       -0.024099644 0.0967591 0.023036879 0.027459374
000320 7e d8 85 bd b0 da 13 3e 3b 60 85 3d 40 21 9c 3d
       -0.06535433 0.14438891 0.06512495 0.076235294
000330 01 07 6d 3d b4 09 e8 3d fc 39 80 bd b4 43 c5 3d
       0.057868008 0.11329976 -0.0626106 0.09632054
000340 d4 cb e1 3d 14 fd 48 3d 19 60 87 3d 47 95 56 be
       0.11025205 0.04906948 0.06610126 -0.20955382
000350 8c 78 d1 bc c0 be 69 bb e6 8a 92 be 4d 89 9a bd
       -0.025570177 -0.0035666674 -0.28621596 -0.07545719
000360 e8 c0 4a 3d de d1 97 bd 57 21 2d 3d 5c 63 19 3d
       0.049500376 -0.07413076 0.042268123 0.037448272
000370 85 f3 a2 3d 85 e3 a9 bc 52 d9 03 3e 00 d9 7b 3a
       0.07956604 -0.020738373 0.1287587 0.00096072257
000380 7c 47 e6 3b c4 8b 44 3d 5f 80 bd 3c 28 4b 23 3c
       0.0070275646 0.047984853 0.023132501 0.009966649
000390 6f 57 a5 3d 3c a2 2e 3d b0 a2 0b 3c 18 fa ae bd
       0.08073317 0.042635188 0.008522674 -0.08543795
0003a0 72 e4 23 3d cc 13 f3 3c 7b 3b ba 3d 8b 44 b7 3d
       0.040012784 0.029672526 0.09093376 0.089486204
0003b0 76 ae 1b 3e 0b 20 8f 3d 4b 86 b6 bc d7 bd 93 3d
       0.1520327 0.069885336 -0.022280833 0.072139435
0003c0 9f f0 76 3d 9a 86 06 3d 97 2d 93 bc e7 a4 97 3c
       0.060288068 0.03284321 -0.017966075 0.018511249
0003d0 3c 5f 44 3d b8 e6 fc 3d 5d 46 09 3e 3e d8 06 3e
       0.047942385 0.123486936 0.13405748 0.13168427
0003e0 85 d9 ab 3d 08 4e 55 bf ed 8d d9 bc ed 30 59 bd
       0.08391098 -0.8332219 -0.026556933 -0.053025175
0003f0 48 a0 c2 bd e0 dc 9d 3d 18 13 fa bc 88 f2 be be
       -0.095032275 0.07708144 -0.030526683 -0.37294412

fc2.bias f4 [100]
000000 5c ce e0 bd ce f7 23 3c 09 e2 01 3e 39 5c 23 3e
       -0.1097686 0.010007812 0.12683882 0.15953149
000010 af 17 55 3b 12 f7 dc bd e1 a1 9d bd 81 7b fb bd
       0.0032515337 -0.107893124 -0.076968916 -0.12279416
000020 2a 48 b7 3c 7d 39 fd bd 74 38 0a 3e 3e 9c 2a 3c
       0.022373278 -0.12364481 0.13498098 0.010413228
000030 0a 3c 09 3d 13 22 29 be e1 a2 f0 3d cb 51 8c bd
       0.033504523 -0.16516905 0.11749817 -0.06851538
000040 0b ba d8 3d 05 52 ed bd 3a a7 6c 3d c1 66 a4 bd
       0.1058236 -0.115879096 0.057776667 -0.08027411
000050 73 42 0f 3e 2a 5e a8 3d d7 bf ca 3c d5 e5 e6 3c
       0.13990192 0.08221085 0.02474968 0.028185764
000060 e1 bc 20 bc 13 d8 c2 3d 04 29 18 3d 67 f1 99 bc
       -0.009810657 0.09513869 0.03714849 -0.018791867
000070 d6 ff 51 3d 9f 08 df bc 29 b8 72 bd 00 03 2c 3c
       0.051269375 -0.02722579 -0.05925766 0.010498762
000080 29 ac 16 bd ca ba ce 3a bd 2c a9 bb 32 b3 1a 3e
       -0.03678528 0.001577222 -0.005162804 0.1510742
000090 2d 6a e7 3d 34 e6 eb bc 44 c0 04 3e 2d f0 9b 3c
       0.11299548 -0.028796293 0.12963969 0.019035423
0000a0 77 a1 07 3d ca a0 25 3d 25 ab 20 bd db 04 22 3d
       0.03311297 0.040436544 -0.039225716 0.03955541
0000b0 90 59 d1 bd 53 57 11 3d d6 87 8f bd 90 70 26 3d
       -0.10222161 0.03548367 -0.070083305 0.04063469
0000c0 a5 36 e0 bd 92 2d c6 3d d3 77 08 bd b5 7c 36 bd
       -0.109479226 0.096766606 -0.0333174 -0.044552524
0000d0 17 20 bd 3c d5 65 8b 3c be 6e ff 3c e7 93 a7 3d
       0.02308659 0.01701633 0.031180736 0.08182507
0000e0 c5 0e 2b 3d ee 00 b2 3d 41 37 e9 3c b5 9b 90 3b
       0.041762132 0.086915836 0.02846873 0.004413093
0000f0 84 94 5c bc 76 34 d6 bc 14 f3 c8 bd 8d 30 02 3d
       -0.013463143 -0.026148062 -0.098119885 0.031784583
000100 ac 29 ca bc 72 d4 c3 3d 88 d0 ac 3d 93 04 00 be
       -0.024678074 0.09562005 0.08438212 -0.12501745
000110 58 29 f7 bd ce fe 39 bc dd 80 c8 3d 6b 53 13 bd
       -0.120684326 -0.011352254 0.09790204 -0.035968225
000120 59 f1 35 bd 8c 03 93 bd b5 cd 49 bc c3 81 84 3d
       -0.04441962 -0.07178411 -0.012317111 0.064700626
000130 62 69 08 bd d8 3e 03 3e 8e 88 b4 bd bc 75 2c 3d
       -0.033303626 0.12816942 -0.08815108 0.042104468
000140 c1 3c 21 3e 3d e6 33 bd 1b 62 90 3b 88 cc 60 bd
       0.15745832 -0.043920744 0.0044062263 -0.054882556
000150 f1 15 e3 bd c0 be fa 3d 93 d7 bf bd 42 45 b4 3c
       -0.11088169 0.12243414 -0.093672894 0.022005681
000160 7f d7 70 3c 9e 34 9a 3d 99 2a cb bc 14 94 5a bd
       0.014699816 0.07529567 -0.024800586 -0.053363875
000170 95 ff a3 bd b2 0a 82 bc b2 2a 48 3d 66 e0 4c 3d
       -0.08007733 -0.01587424 0.048868842 0.05001869
000180 b2 59 16 3e 58 01 58 bd 62 3b d5 3c b8 89 2c 3e
       0.14682654 -0.052735656 0.026029292 0.1684941

fc3.weight f4 [3, 100]
000000 de 34 6e 3d 53 61 95 3e 4d 39 84 3e 29 59 7b be
       0.058155887 0.29175815 0.25824967 -0.2454573
000010 16 5d a0 3e af 5a 70 be a2 21 20 bf 01 1c 95 be
       0.3132102 -0.23472093 -0.6255132 -0.29122928
000020 63 12 53 bd 08 3a d0 be 08 07 ff 3e 4c 82 ef 3e
       -0.051531207 -0.40669274 0.49810052 0.46779096
000030 86 a3 bd be 16 29 ec 3b 19 0b f0 bd 3f a5 d1 be
       -0.3703882 0.0072070463 -0.11720867 -0.40946385
000040 58 d8 c0 3e f3 f1 98 3e fa c2 9f bd 4e d4 03 bf
       0.37665057 0.29872093 -0.07800861 -0.51495826
000050 6c 0d 59 3e a2 14 03 bf 46 98 32 3e 53 78 b2 be
       0.21196526 -0.5120336 0.174409 -0.34857425
000060 c8 83 8e 3c 76 bc 8c bd 75 28 f3 3e 30 c0 8d be
       0.017396823 -0.068718836 0.47491804 -0.2768569
000070 a3 78 0e 3f 5c c2 c6 be e5 70 1c 3e ba 55 55 3e
       0.5565283 -0.3882016 0.15277441 0.20833483
000080 06 cc 6d be 23 db f4 bc 12 88 d4 3d 7c 01 f6 3d
       -0.2322236 -0.029889649 0.10377516 0.12012002
000090 70 37 9e 3d c7 0e 45 3e 20 ce f0 3e 7a 9f bc 3e
       0.077254176 0.19243918 0.4703226 0.3684042
0000a0 49 0d 5d 3e 6f 1b dc be 99 7b d0 be 5f 54 bf be
       0.21587099 -0.4298968 -0.40719298 -0.37369058
0000b0 07 e3 8c be 58 ef 83 3e 2a b8 a6 be 35 4c 02 3f
       -0.27516958 0.25768542 -0.3256238 0.5089753
0000c0 a6 08 e9 be 34 c1 2d be 76 53 5b 3e ce 9c 17 3f
       -0.4551441 -0.16968232 0.21418557 0.5922364
0000d0 6b 60 0a bf 18 e3 89 bd 85 5d 88 be fd ec dd 3e
       -0.5405337 -0.06732768 -0.2663385 0.4334487
0000e0 35 47 fe 3e c6 0a ed 3e ad 07 d9 3d 10 53 c4 3e
       0.49663702 0.46297282 0.10597167 0.38344622
0000f0 c9 47 12 3f 69 85 4b bf c5 98 ca be c1 c5 c1 3e
       0.57140785 -0.7950044 -0.3956968 0.37846187
000100 29 3d 34 3b d7 e9 14 3f bb bc 32 3e 12 dc 8f be
       0.0027502275 0.5816931 0.17454807 -0.28097588
000110 d3 c7 ed bc c9 8a b8 3c ea 91 98 3e db 26 a2 3e
       -0.029025948 0.022527115 0.29798824 0.3167027
000120 46 d0 cb 3e 53 14 68 be 17 2d ca be 6f ec b0 3e
       0.39807338 -0.22664003 -0.39487526 0.34555385
000130 9e 59 0b bf d4 dc 80 3e 40 42 b1 be 96 c2 c6 be
       -0.5443362 0.25168478 -0.34620857 -0.38820332
000140 e6 d2 34 3e 3c e1 56 be 72 0e e3 be 0c 77 e6 3e
       0.17658576 -0.20984358 -0.44346958 0.450127
000150 ba d7 00 bf 54 4e 0e 3f 48 da d3 3e 9c 58 d2 be
       -0.5032917 0.5558827 0.41377473 -0.4108323
000160 43 0e c0 3c 09 a7 ec 3e 6d 80 c9 3e 2e c0 7a 3b
       0.0234443 0.46221188 0.39355794 0.003826152
000170 49 1e 18 bf a9 3a d0 3e e6 d8 ee be c6 5a ee 3e
       -0.5942121 0.40669754 -0.46649855 0.4655363
000180 37 b4 a2 bd 22 24 0a be 17 4f 11 bf 26 9c a5 3e
       -0.079445295 -0.13490346 -0.56761307 0.32345694
000190 93 27 a3 3d f9 3c 73 3b 91 e0 d6 be 78 9c 39 bf
       0.079665326 0.00371152 -0.41968206 -0.7250438
0001a0 81 e9 1c bd 01 48 a5 3e ff 8c 24 3e 6d fd 93 3e
       -0.038308624 0.32281497 0.1606941 0.28904286
0001b0 c9 9f d5 3e 22 b8 8d 3e 1a a3 9f be ff f9 6f be
       0.4172347 0.27679545 -0.31179124 -0.2343521
0001c0 5b 03 bb be 5b 5e 86 3c d2 8f e9 be 6c 7c a1 3e
       -0.36525998 0.016402414 -0.4561754 0.3154024
0001d0 6c 55 67 bd 1e ef bb 3e 67 98 fb be d5 60 0a 3e
       -0.05647795 0.3670587 -0.4913971 0.13513501
0001e0 61 2c c5 be ae dc e5 be 62 b0 67 be 10 b4 8a 3e
       -0.3851042 -0.44894928 -0.22625878 0.27090502
0001f0 5e 06 0f 3d e6 3d 11 bf 4f 00 bf bc 21 50 8e 3e
       0.03491818 -0.56735075 -0.023315577 0.27795509
000200 1b 26 1c 3e c5 59 a2 3e 30 cf 14 3f f7 48 14 bf
       0.15248911 0.31709114 0.58128643 -0.57923836
000210 60 50 aa 3e cc 31 ea 3e ee c7 d4 be 3d f7 f7 be
       0.33264446 0.45741117 -0.41558784 -0.48430815
000220 36 ca fd be ce 79 f0 3e 5e 06 3f be e8 c2 98 3e
       -0.49568337 0.4696793 -0.18654773 0.29836202
000230 21 32 cf 3e cc 00 4d 3e d4 3f 68 3e 1e 3c 8e 3e
       0.40467933 0.20019835 0.22680598 0.2778024
000240 8c 36 8e 3e 10 db ad be b2 36 95 3e cb 27 96 be
       0.2777599 -0.33956194 0.29143292 -0.29327235
000250 a2 2e 4f 3e 52 45 e9 be 08 ba ba be 2f 75 b4 be
       0.20232633 -0.455607 -0.36470056 -0.35245654
000260 31 16 1c 3e 25 22 bf 3e 43 ba ab 3e bc a5 bb be
       0.1524284 0.37330738 0.33540544 -0.36649883
000270 bc ae 87 be 21 ba 69 be a0 f2 6e be ae 36 00 3f
       -0.265005 -0.22824909 -0.23334742 0.50083435
000280 4d c6 2c be 57 9f c5 be fd d9 85 3e 4e b7 79 be
       -0.1687252 -0.3859813 0.26142874 -0.24386331
000290 ad 80 01 bf ca ec 3b be 67 06 cc be 8f 7f a6 3e
       -0.5058697 -0.18352047 -0.39848635 0.32519194
0002a0 ca c4 c0 3e b3 9a fb 3e e4 ae bf be e3 e0 2a bd
       0.37650138 0.49141464 -0.37438118 -0.041718375
0002b0 cb 47 4e be 52 f5 d4 3e df b5 da be b4 58 d5 be
       -0.20144574 0.41593415 -0.42716882 -0.41669238
0002c0 e3 50 09 3e f7 33 0f bf 71 4e 92 3e 64 b0 9d bd
       0.13409762 -0.5593867 0.2857547 -0.076996595
0002d0 1e f8 01 bf 45 e5 28 3e d9 bb 96 3e fc f1 82 bd
       -0.5076922 0.1649371 0.2944019 -0.06393811
0002e0 19 94 7d 3e 18 e9 49 be 89 ad d4 3e 80 bd ad 3e
       0.24763526 -0.19717824 0.41538647 0.3393364
0002f0 74 e3 da 3e 35 86 95 be 01 57 8e be f1 b5 bf 3e
       0.42751658 -0.29203954 -0.27800754 0.37443498
000300 80 c1 11 3e 9c 9a a4 3a 67 13 95 3e 71 32 6c be
       0.1423397 0.0012558284 0.29116365 -0.23066117
000310 24 20 f5 be d3 d3 d2 3e af ee 05 bf 1e 7b f5 be
       -0.47876084 0.41177234 -0.5231733 -0.47945493
000320 76 de c1 3d dc 59 f8 bd f9 81 33 3e 47 83 5a 3f
       0.09466259 -0.12126514 0.1753005 0.85356563
000330 20 f8 8f be db ad fb bd 78 e2 aa 3e be c0 de bd
       -0.28118992 -0.1228902 0.33375907 -0.108766064
000340 a3 59 e1 be a6 7c de 3d 27 69 8d be 25 d5 b1 bd
       -0.440137 0.108636186 -0.27619287 -0.08683232
000350 54 d9 e1 3e 15 bf d0 3c f8 97 0c 3f 14 7d 39 3e
       0.4411112 0.02548174 0.54919386 0.1811412
000360 aa 34 d7 bd 59 a6 1a bf 0c 8b 19 3f cc 29 d2 3d
       -0.10508092 -0.60410076 0.59977794 0.10261878
000370 08 f1 6c 3c c6 d3 34 3f 1a 53 8c bd 83 c7 2d 3e
       0.014461763 0.7063564 -0.06851788 0.16970639
000380 57 53 3e 3e 53 9f f1 3e ae 46 85 be 85 c5 1d be
       0.18586479 0.47191867 -0.26030487 -0.15407379
000390 83 d5 0d bf ac 74 fa 3d ba 1a 38 bf 6b dc b7 3e
       -0.5540392 0.12229285 -0.7191578 0.35910353
0003a0 a2 5e 43 be 2c 56 7e be c6 ef aa 3e 73 f7 d2 3e
       -0.19079068 -0.2483756 0.33386058 0.41204414
0003b0 eb 24 e1 3e 58 9f 27 bf 4b e4 94 be a6 bd 12 bf
       0.4397348 -0.65477514 -0.29080424 -0.5732063
0003c0 70 71 25 bf 76 1b ad 3d 64 2d 08 3b f8 d4 47 3e
       -0.64626217 0.084525034 0.0020779008 0.19514835
0003d0 70 a3 b1 3b 54 f0 dc bd ef c4 5a bd cd 5f 64 be
       0.0054210946 -0.107880265 -0.053410467 -0.2230217
0003e0 6b 97 a5 3e c7 65 f9 3e b6 f1 45 3e c1 32 67 be
       0.32342085 0.48710462 0.19330487 -0.22577955
0003f0 8f 9a 88 3e 2c f6 db be 0f da bd 3d 16 06 d4 bd
       0.2668042 -0.42961252 0.09270107 -0.10352723

fc3.bias f4 [3]
000000 d6 8e b7 bd bf 98 4d 3d ea 16 53 bd
       -0.08962791 0.0501945 -0.051535524
