models/home.pt (torch, 50143 bytes, 6 tensors)

weight f4 [100, 13]
-0.105103076 0.1400004 -0.23486409 0.24007478 -0.06330292 0.12685406 -0.21692099 0.1276046
0.2297819 -0.14014795 -0.17454597 0.07762024 -0.15445651 0.14598075 0.13116053 -0.17852807
-0.16147667 -0.20618635 -0.11951858 0.0444144 -0.21005955 -0.16533884 -0.15981121 0.009671569
-0.17807832 -0.03723578 -0.18573478 -0.13609129 0.1671181 -0.026290208 -0.117290094 -0.105496824
-0.13537063 0.047986656 -0.14013311 -0.098484814 0.1883955 -0.018185526 -0.23295376 0.13882342
0.19376972 0.22185132 0.10153091 -0.2648077 -0.042355537 -0.0835157 -0.10868539 0.1302231
-0.1381118 0.13949561 0.003483981 0.27628997 0.15722395 0.2528891 0.28070906 -0.15365274
0.031460997 -0.07588968 0.13977738 0.06051172 -0.11534501 0.07760089 -0.12376897 0.33234093
0.07496491 -0.20975083 -0.23669495 0.16975059 0.20006742 0.21346122 0.029986735 -0.18289761
0.11551279 0.19563596 -0.017681904 0.22640094 -0.2675499 -0.14656273 0.20059967 0.23474714
-0.028434724 -0.1659888 0.20206943 -0.14415562 -0.1606422 0.03615004 0.06341973 0.18562177
-0.05444473 0.058543622 0.043175608 0.13653769 -0.05428381 -0.3522133 -0.6249887 -0.22209772
0.26995113 0.47375706 -0.36021104 0.017465472 0.18190555 0.05748256 -0.18582185 0.00095676637
-0.14674897 0.85403246 0.19045377 -0.052449644 -0.15262266 -0.56379837 -0.5631409 -0.44853717
-0.71044207 0.7068576 -0.99223226 -0.8217687 0.097921714 -0.18008758 -0.0042339563 -0.04864259
-0.0043917894 -0.21732002 -0.05663219 -0.17343235 -0.13230912 0.14871085 -0.099550724 -0.10965836
-0.27648452 -0.21272957 -0.22691128 0.11927837 0.018884659 -0.22653073 0.20218283 0.025814295
-0.063036904 0.10858008 0.2631183 0.23498788 0.017071873 -0.046215355 0.090684384 -0.01343698
-0.26712295 0.017720537 0.0034258682 0.034944665 -0.0051182928 0.01513521 0.19277945 0.12172322
0.16033778 0.2554879 -0.28206336 -0.12676205 -0.12854785 0.13635144 0.052597284 -0.18384728
-0.02672869 0.068594664 -0.07538317 -0.1551409 -0.18305264 0.07513127 0.08522391 0.039246917
0.12824786 -0.16441976 0.21293429 -0.19668612 0.17810398 -0.17870024 0.120265126 0.19845927
0.100780755 0.27719966 -0.2181004 0.24858668 0.10899544 -0.11760537 -0.024891227 -0.2041753
0.17056039 0.021256298 0.2562025 0.057560563 -0.24258173 0.17775467 -0.002942592 0.11769292
-0.0495601 -0.16532908 0.022638083 0.14758626 0.2262213 0.099974275 0.10559562 -0.17504728
0.11922592 -0.02873689 -0.10074875 -0.22459392 0.06858158 -0.018143743 0.07028794 -0.11462097
0.21330336 0.17307553 0.23271875 0.07462925 0.03259706 -0.09413158 -0.17074648 -0.20677318
0.18786284 0.09165626 -0.24575499 -0.045315262 0.052019477 0.26469687 0.19248018 0.024445534
0.17883453 0.080504745 -0.24088597 -0.046950832 0.12570792 0.030240864 0.25303784 -0.075466484
0.23261479 -0.26229513 0.062173367 0.07008052 0.007490754 0.124955356 0.16131169 -0.16257584
-0.14791961 0.22326204 0.1044606 0.1590968 0.04701549 0.0725019 0.0023388267 -0.11449547
-0.26089624 0.14397234 -0.053846195 0.14685857 -0.015298039 -0.12886296 -0.040201113 -0.24080004
00000000: 4840 d7bd 445c 0f3e 3680 70be 2ad6 753e
00000010: f6a4 81bd 08e6 013e 8920 5ebe c8aa 023e
00000020: f24b 6b3e f282 0fbe 2ebc 32be 5cf7 9e3d
00000030: d929 1ebe fa7b 153e f24e 063e 10d0 36be
00000040: 245a 25be 8422 53be 28c6 f4bd e0eb 353d
00000050: da19 57be 964e 29be 8da5 23be 8075 1e3c
00000060: 2a5a 36be 8c84 18bd 4231 3ebe 845b 0bbe
00000070: 0221 2b3e 905e d7bc ca35 f0bd b80e d8bd
00000080: 999e 0abe a88d 443d 0e7f 0fbe 68b2 c9bd
00000090: c0ea 403e d0f9 94bc 6e8b 6ebe ba27 0e3e
000000a0: 926b 463e fe2c 633e 70ef cf3d e094 87be
000000b0: 007d 2dbd 480a abbd 7296 debd 3459 053e
000000c0: 2e6d 0dbe f0d7 0e3e 8053 643b e175 8d3e
000000d0: 51ff 203e ae7a 813e 19b9 8f3e 2557 1dbe
000000e0: 3fdd 003d 0c6c 9bbd cd21 0f3e 23db 773d
000000f0: 013a ecbd 37ed 9e3d 967a fdbd 9728 aa3e
00000100: 3487 993d ecc8 56be 2960 72be 19d3 2d3e
00000110: 79de 4c3e 9495 5a3e bea6 f53c 8349 3bbe
00000120: f891 ec3d cb54 483e a4d9 90bc a6d5 673e
00000130: 4dfc 88be 8a14 16be 006a 4d3e 8e61 703e
00000140: f0ef e8bc f8f8 29be 4aeb 4e3e 889d 13be
00000150: 647f 24be 1012 143d 34e2 813d a213 3e3e
00000160: 7001 5fbd 70cb 6f3d e8d8 303d 89d0 0b3e
00000170: b358 5ebd 4d55 b4be 42ff 1fbf 966d 63be
00000180: 0937 8a3e 4990 f23e 956d b8be c013 8f3c
00000190: 7345 3a3e d572 6b3d 1548 3ebe 81cf 7a3a
000001a0: 5d45 16be dfa1 5a3f 5006 433e 70d5 56bd
000001b0: 1d49 1cbe 1755 10bf 012a 10bf aaa6 e5be
000001c0: 88df 35bf 9ff4 343f ef02 7ebf 6f5f 52bf
000001d0: 2e8b c83d e168 38be 00bd 8abb 743d 47bd
000001e0: 00e9 8fbb 2489 5ebe 28f7 67bd 4098 31be
000001f0: 0b7c 07be a847 183e 40e1 cbbd 9094 e0bd
00000200: 618f 8dbe c8d5 59be 6e5b 68be 3848 f43d
00000210: 00b4 9a3c acf7 67be 0409 4f3e 8078 d33c
00000220: 7e19 81bd 3c5f de3d 71b7 863e aaa0 703e
00000230: 50da 8b3c 504c 3dbd bcb8 b93d c726 5cbc
00000240: 57c4 88be a92a 913c 8884 603b 2322 0f3d
00000250: 5ab7 a7bb acf9 773c fa67 453e 064a f93d
00000260: 962f 243e 4fcf 823e 9c6a 90be e9cd 01be
00000270: 0ca2 03be b69f 0b3e 4070 573d 7642 3cbe
00000280: 20f6 dabc 5c7b 8c3d 7e62 9abd 42dd 1ebe
00000290: 2772 3bbe 6cde 993d e089 ae3d 60c1 203d
000002a0: 6853 033e a75d 28be 720b 5a3e 1668 49be
000002b0: e460 363e 32fd 36be 904d f63d e838 4b3e
000002c0: 2466 ce3d 1ded 8d3e b655 5fbe 828d 7e3e
000002d0: 0039 df3d 16db f0bd b0e8 cbbc 5413 51be
000002e0: 62a7 2e3e b021 ae3c f92c 833e a0c4 6b3d
000002f0: 5867 78be 5205 363e 80d8 40bb fc08 f13d
00000300: 88ff 4abd 074c 29be 8073 b93c da20 173e
00000310: 8ea6 673e 50bf cc3d 8442 d83d 983f 33be
00000320: b82c f43d a069 ebbc 5c55 cebd f3fb 65be
00000330: 8074 8c3d 30a2 94bc 20f3 8f3d 66be eabd
00000340: 326c 5a3e b63a 313e d34d 6e3e 38d7 983d
00000350: 7f84 053d 0fc8 c0bd 2ad8 2ebe 59bc 53be
00000360: 1e5f 403e 47b6 bb3d 32a7 7bbe 7f9c 39bd
00000370: 6012 553d 5986 873e 8619 453e 0042 c83c
00000380: 6620 373e acdf a43d d0aa 76be 844f 40bd
00000390: 94b9 003e b0bb f73c 2d8e 813e 2c8e 9abd
000003a0: 9232 6e3e 8c4b 86be 80a9 7e3d 6086 8f3d
000003b0: 0075 f53b 98e8 ff3d e42e 253e 487a 26be
000003c0: 3d78 17be ce9e 643e 70ef d53d 46ea 223e
000003d0: 5093 403d e07b 943d 0047 193b 9a7c eabd
000003e0: 3194 85be 7c6d 133e d48d 5cbd 1862 163e
000003f0: a0a4 7abc a7f4 03be eca9 24bd 4994 76be

bias f4 [100]
0.16480672 -0.1422228 0.21894237 -0.19711477 0.110668205 -0.13384461 0.13188255 -0.12621866
0.04223094 0.2681664 -0.12120296 -0.23268819 0.023887336 -0.058017045 0.011291355 -0.18579265
-0.14382865 0.14879149 0.17655516 -0.20308822 0.10636139 0.12587777 -0.35112616 0.23880062
-0.10235606 -0.060167447 -0.059059918 -0.22354805 0.01253438 -0.18826601 -0.21969195 0.09012741
-0.2309426 -0.2714035 0.025092214 -0.013631195 0.0727304 -0.26113927 -0.20818496 -0.70940655
-0.19021125 -0.2611549 0.05370313 0.124168426 0.20796269 0.1053502 -0.11329949 -0.089662135
0.071576625 0.18963602 0.0050132964 0.05569628 -0.04326269 -0.16992512 0.038450092 0.043480903
-0.14987035 0.19976732 0.13123618 -0.03838095 -0.19454244 -0.092711434 0.09526825 0.30928448
0.044624478 0.03818962 0.023181558 0.12798393 -0.1781826 0.25833777 -0.13073197 -0.3178803
-0.106003076 -0.21223453 -0.1469028 -0.050860986 -0.08781204 0.03809905 -0.2563383 0.1448189
0.18425 -0.124652594 0.22475335 1.4045014 -0.23979649 0.15242109 0.2392526 0.14599851
0.18991345 0.0209876 -0.2695535 -0.06885812 0.08300421 -0.08495258 -0.48551685 -0.59761155
0.272007 0.5825249 -0.2769249 0.11327076
00000000: 18c3 283e dba2 11be 6e32 603e 74d8 49be
00000010: 03a6 e23d 900e 09be 380c 073e 773f 01be
00000020: 5afa 2c3d 1b4d 893e 4239 f8bd d045 6ebe
00000030: 60af c33c 48a3 6dbd 60ff 383c 6e40 3ebe
00000040: d147 13be cc5c 183e e0ca 343e 5cf6 4fbe
00000050: 00d4 d93d 1ae6 003e cfc6 b3be 2688 743e
00000060: 0ea0 d1bd 2472 76bd d0e8 71bd c8e9 64be
00000070: 005d 4d3c cec8 40be edf6 60be b894 b83d
00000080: 387c 6cbe 66f5 8abe 308e cd3c 6055 5fbc
00000090: adf3 943d 0cb4 85be 702e 55be ab9b 35bf
000000a0: bdc6 42be 18b6 85be d0f7 5b3d 044c fe3d
000000b0: 2cf4 543e d8c1 d73d 9009 e8bd c8a0 b7bd
000000c0: c496 923d f22f 423e 9446 a43b c821 643d
000000d0: 3834 31bd da00 2ebe d87d 1d3d 0819 323d
000000e0: 9d77 19be ce8f 4c3e c762 063e 5835 1dbd
000000f0: 2236 47be 7edf bdbd 001c c33d 895a 9e3e
00000100: 28c8 363d b86c 1c3d 40e7 bd3c 380e 033e
00000110: 8075 36be d944 843e 9ade 05be 35c1 a2be
00000120: 2418 d9bd 0254 59be b06d 16be 9c53 50bd
00000130: ccd6 b3bd c00d 1c3d c63e 83be 684b 143e
00000140: 08ac 3c3e dc49 ffbd be25 663e b4c6 b33f
00000150: 368d 75be 4614 1c3e a2fe 743e a280 153e
00000160: ac78 423e 30ee ab3c eb02 8abe 7c05 8dbd
00000170: 1cfe a93d 9efb adbd aa95 f8be 12fd 18bf
00000180: 8044 8b3e 5a20 153f 1ac9 8dbe 80fa e73d

weight f4 [100, 100]
0.024782121 -0.053420283 0.0633663 -0.03477581 -0.021092908 -0.03889562 0.099217564 0.40466118
0.30144367 0.016143784 -0.035195254 0.0032195302 0.100340635 0.058368586 0.06324832 0.027724855
0.07626042 -0.07776453 -0.048866924 0.065195195 0.09068604 -0.077930376 0.36980018 -0.053528942
0.10732873 0.067085184 0.08820028 -0.01873334 0.12103528 -0.06685293 0.08154709 0.062228628
0.054304913 0.009947494 -0.084968105 -0.03979154 0.036706835 0.061116748 0.052312087 -0.81776464
0.0056131887 -0.010751451 0.08499742 0.026726263 0.07003806 0.027689284 0.079852924 0.0065525384
0.08222057 0.085577734 0.06461892 -0.09307944 -0.0012457371 0.018080935 -0.09825506 -0.071362376
0.056575246 0.0801195 -0.04222734 0.11572091 0.09608659 -0.046354078 -0.05715692 -0.050475635
0.04104171 -0.03190504 -0.03271658 0.07086968 0.118869156 0.06152662 -0.061154008 -0.039105367
0.06362285 0.0746933 -0.043521166 0.09929243 -0.042981464 -0.05867885 -0.030924564 -0.017858958
0.08424686 -0.006524205 -0.048539605 -1.3837667 -0.012085021 0.018188288 -0.04585185 0.05483157
0.0012786835 0.023730673 0.041812737 0.023831634 -0.0049994807 -0.06827916 0.5335971 1.1557385
0.015540696 -1.349771 -0.00940643 0.062691934 -0.041709747 -0.03574182 0.09248961 0.0684361
-0.084374644 0.012758318 -0.014835708 -0.34967852 -0.05513713 0.090441965 0.021608189 0.038828965
-0.10988337 -0.06266889 -0.07514776 0.009526826 -0.0375045 0.0028972998 -0.11927954 -0.10885249
-0.0834631 -0.013308965 -0.4319181 0.042245623 0.04275724 -0.086036466 0.0808207 -0.03074751
-0.055741563 -0.109309345 0.059529014 0.03984394 -0.0810373 0.07686902 0.071971335 -0.06708799
-0.10788025 0.021165758 0.04907141 1.8717968 0.0021881508 -0.00089202746 0.097150974 -0.05811557
0.063934535 -0.112070985 -0.038937114 0.069638394 -0.044923246 -0.096614435 0.08010514 0.0880551
0.07007643 0.038075037 -0.09471476 -0.029732013 0.023685418 -0.06231545 -0.05345729 0.07691793
-0.11231967 0.05409305 0.05592621 -0.06933235 -0.03892859 -0.042373594 -0.09012321 0.07148444
0.02762303 -0.019040806 0.079908825 0.008108724 -0.025109114 -0.03635092 0.036589764 0.03429669
-0.07675795 -0.0558478 -0.03725966 0.06998841 0.0115005085 0.09033858 0.031697847 1.1837528
0.028018186 -0.010458904 0.07217103 -0.109503865 0.030824296 -0.0543373 -0.0009314003 0.01702828
-0.05492548 0.04647318 -0.6908793 -1.6063402 -0.06660639 1.2214224 -0.050785944 0.03355757
-0.09508461 0.09186212 0.027131908 -0.10391617 0.06666803 -0.07974769 -0.105083235 -0.3552225
0.009068993 -0.08245374 -0.10435764 0.052867796 0.009157929 0.004346408 0.0030988788 -0.08639959
0.06983955 0.006784156 0.045467563 -0.12408267 -0.08171445 -0.050087582 -0.2001222 0.06536115
-0.013020506 0.07786984 0.005989 -0.08748051 -0.0257577 -0.061783917 -0.015065625 -0.041071165
-0.0537762 0.025542982 0.012613796 -0.01122565 0.0054558194 0.016879901 0.032316618 2.319459
0.02691205 0.042848676 0.0459316 -0.09616593 0.06832326 -0.065668896 -0.0425976 -0.094793744
0.015310667 0.033606373 0.044822607 -0.06627965 0.032903977 0.03018353 -0.026400685 -0.0052661635
00000000: e003 cb3c 3acf 5abd 31c6 813d 1471 0ebd
00000010: 09cb acbc 0351 1fbd 9432 cb3d c02f cf3e
00000020: d356 9a3e f83f 843c e628 10bd c1fe 523b
00000030: 647f cd3d e613 6f3d 5688 813d 3c1f e33c
00000040: 6c2e 9c3d 0343 9fbd af28 48bd 0f85 853d
00000050: 9ab9 b93d f699 9fbd 7356 bd3e 2a41 5bbd
00000060: 2acf db3d f563 893d 59a2 b43d a976 99bc
00000070: 58e1 f73d 30ea 88bd 2902 a73d 72e3 7e3d
00000080: d46e 5e3d d0fa 223c c203 aebd 74fc 22bd
00000090: e859 163d 8e55 7a3d 3345 563d 0659 51bf
000000a0: d7ee b73b db26 30bc 2113 ae3d 09f1 da3c
000000b0: 1d70 8f3d a3d4 e23c ee89 a33d adb6 d63b
000000c0: 4263 a83d 6143 af3d ed56 843d 6fa0 bebd
000000d0: 0048 a3ba 781e 943c f339 c9bd 7026 92bd
000000e0: 72bb 673d b115 a43d 93f6 2cbd 16ff ec3d
000000f0: 0cc9 c43d c6dd 3dbd 601d 6abd 8abf 4ebd
00000100: 5a1b 283d dcae 02bd d201 06bd 1f24 913d
00000110: ac71 f33d 5603 7c3d a07c 7abd f32c 20bd
00000120: b24c 823d cdf8 983d 4043 32bd d459 cb3d
00000130: 550d 30bd 3c59 70bd 8355 fdbc f34c 92bc
00000140: 9e89 ac3d 00c9 d5bb 77d1 46bd 441f b1bf
00000150: 4000 46bc 9bff 943c 26cf 3bbd 1197 603d
00000160: 8099 a73a d466 c23c d543 2b3d 8f3a c33c
00000170: afd2 a3bb f2d5 8bbd d299 083f 3def 933f
00000180: 679e 7e3c 4cc5 acbf 6d1d 1abc a164 803d
00000190: d7d7 2abd 0466 12bd 316b bd3d 3a28 8c3d
000001a0: 9dcc acbd 4408 513c 7811 73bc 1009 b3be
000001b0: 79d7 61bd a339 b93d a803 b13c 1f0b 1f3d
000001c0: 880a e1bd 8c58 80bd 12e7 99bd 6816 1c3c
000001d0: 529e 19bd a0e0 3d3b d548 f4bd 0eee debd
000001e0: b4ee aabd d80d 5abc 5f24 ddbe bf09 2d3d
000001f0: 3722 2f3d e333 b0bd 5385 a53d 34e2 fbbc
00000200: 4451 64bd 94dd dfbd b2d4 733d 6633 233d
00000210: e2f6 a5bd 816d 9d3d b565 933d 6e65 89bd
00000220: 52f0 dcbd d063 ad3c 1aff 483d 0a97 ef3f
00000230: 1467 0f3b f3d6 69ba 17f7 c63d 980a 6ebd
00000240: 1cf0 823d 7985 e5bd 867c 1fbd 939e 8e3d
00000250: 7001 38bd cadd c5bd 2a0e a43d 3b56 b43d
00000260: 3b84 8f3d 92f4 1b3d d0f9 c1bd 8d90 f3bc
00000270: ec07 c23c 7c3e 7fbd 08f6 5abd 2687 9d3d
00000280: db07 e6bd ad90 5d3d e212 653d 1efe 8dbd
00000290: 9673 1fbd ef8f 2dbd 8492 b8bd 6f66 923d
000002a0: b149 e23c 77fb 9bbc 3da7 a33d 74da 043c
000002b0: a1b1 cdbc b4e4 14bd 26df 153d b07a 0c3d
000002c0: 4633 9dbd aac0 64bd 969d 18bd 1556 8f3d
000002d0: a16c 3c3c 6f03 b93d 9ad5 013d 3685 973f
000002e0: 6586 e53c d35b 2bbc 68ce 933d 9043 e0bd
000002f0: 3c83 fc3c ca90 5ebd 3729 74ba e47e 8b3c
00000300: 8af9 60bd a95a 3e3d 77dd 30bf 8e9c cdbf
00000310: ee68 88bd 9257 9c3f ec04 50bd aa73 093d
00000320: b8bb c2bd 3522 bc3d bc43 de3c 00d2 d4bd
00000330: 4089 883d c252 a3bd e135 d7bd b9df b5be
00000340: 1d96 143c 82dd a8bd 75b9 d5bd e78b 583d
00000350: 230b 163c 506c 8e3b 8f16 4b3b 45f2 b0bd
00000360: 0a08 8f3d a04d de3b 323c 3a3d 0e1f febd
00000370: e859 a7bd a328 4dbd d6ec 4cbe 11dc 853d
00000380: f653 55bc 397a 9f3d 603f c43b fb28 b3bd
00000390: d001 d3bc 2211 7dbd d0d5 76bc 3d3a 28bd
000003a0: 6f44 5cbd 843f d13c 18aa 4e3c caeb 37bc
000003b0: bbc6 b23b b847 8a3c 6e5e 043d 0472 1440
000003c0: a976 dc3c 1882 2f3d c622 3c3d a5f2 c4bd
000003d0: 11ed 8b3d 6a7d 86bd d27a 2ebd 3923 c2bd
000003e0: 98d9 7a3c d6a6 093d e997 373d a0bd 87bd
000003f0: 52c6 063d 7343 f73c 4046 d8bc c88f acbb

bias f4 [100]
0.06395162 0.07667961 -0.06699075 -0.16778684 -0.08141712 -0.0689917 0.009411847 -0.00029883665
0.017883062 0.034713797 -0.060132746 -0.090786055 0.023369795 0.09637833 0.070904545 -0.072630554
0.07486405 0.054987125 -0.053047907 -0.0006387273 0.033478465 0.109216146 0.045053653 -0.09450818
-0.10214345 0.044157546 0.043084707 -0.0802351 0.0028859705 0.0531276 -0.124598175 -0.10066752
-0.06742066 -0.06139956 -0.059500128 0.058080442 0.043789767 -0.087980874 0.048295874 -0.05031011
-0.10305294 0.024324836 0.012630176 -0.09173757 -0.04157568 -0.050505493 -0.0663948 -0.07986072
0.08075425 0.013269011 0.03908795 -0.09142584 -0.04304317 -0.039146706 0.09732898 -0.06412277
0.030229582 0.035447143 0.07286032 0.026688272 -0.059270963 0.019336505 0.022384033 -0.04085361
-0.007826828 -0.036739003 -0.04976629 -0.10397719 -0.049683228 -0.02783758 -0.00010366886 0.0083880685
-0.011376237 0.10135208 -0.09347593 0.07811177 0.027915584 -0.060744066 0.029642986 -0.038988706
-0.010046636 -0.03559725 -0.047492836 0.07205114 -0.044698432 -0.019719735 -0.034070645 -0.059678733
0.03765692 0.015501239 0.091098055 0.062053178 -0.002836226 -0.050550554 0.058093093 -0.016582968
-0.019289903 -0.0661817 0.038666945 0.009677756
00000000: 11f9 823d 330a 9d3d 7232 89bd 50d0 2bbe
00000010: 05be a6bd 854b 8dbd 2634 1a3c 2dad 9cb9
00000020: 807f 923c 0e30 0e3d c14d 76bd 0aee b9bd
00000030: 0372 bf3c 0062 c53d 6736 913d 54bf 94bd
00000040: 5352 993d 2e3a 613d c348 59bd 4370 27ba
00000050: b720 093d b7ac df3d 2e8a 383d 818d c1bd
00000060: 9630 d1bd 8bde 343d 9779 303d 4d52 a4bd
00000070: 8d22 3d3b 549c 593d 542d ffbd c62a cebd
00000080: d813 8abd 1b7e 7bbd 68b6 73bd c2e5 6d3d
00000090: e65c 333d 512f b4bd e5d1 453d f911 4ebd
000000a0: 6b0d d3bd e144 c73c ccee 4e3c e8e0 bbbd
000000b0: 434b 2abd d9de 4ebd fff9 87bd 048e a3bd
000000c0: 7c62 a53d 4466 593c b01a 203d 793d bbbd
000000d0: 094e 30bd 4c58 20bd 6b54 c73d cd52 83bd
000000e0: 07a4 f73c 0631 113d cb37 953d 5da1 da3c
000000f0: 1cc6 72bd 9767 9e3c b85e b73c 1d56 27bd
00000100: 193c 00bc a37b 16bd bdd7 4bbd fef1 d4bd
00000110: a480 4bbd a30b e4bc cc68 d9b8 1c6e 093c
00000120: 6563 3abc ae91 cf3d 4f70 bfbd 10f9 9f3d
00000130: 39af e43c c5ce 78bd d9d5 f23c 9fb2 1fbd
00000140: a59a 24bc 6cce 11bd d987 42bd 8c8f 933d
00000150: b415 37bd 488b a1bc a98d 0bbd b071 74bd
00000160: 243e 1a3d e9f8 7d3c 9e91 ba3d 792b 7e3d
00000170: fadf 39bb 190e 4fbd 06f3 6d3d 01d9 87bc
00000180: dc05 9ebc 458a 87bd 3b61 1e3d 738f 1e3c

weight f4 [3, 100]
0.5318269 -0.81218946 -0.9401326 0.029518068 -0.63630825 -0.6358123 -0.3737125 0.25323808
0.28664058 0.11863142 0.33280954 -0.03607323 -0.36427468 0.46849558 0.021082414 -0.66750413
-0.16987924 -0.1314707 0.05796906 0.3777732 0.20902465 0.31743822 -0.11538918 0.07976109
-0.47052374 -0.3285049 -0.6263264 -0.09335996 0.076215886 0.59963113 -0.55361444 -1.0215088
-0.5132308 0.5521496 0.5056091 0.48206598 -0.20468585 -0.43494964 0.4261462 -0.2983972
-0.31548217 0.5034738 -0.34042457 0.013753602 -0.2287189 0.015648074 -0.62393445 -0.20596488
-0.2056355 0.13180812 -0.29717347 0.3306959 0.24942437 0.17095277 0.43404487 -0.42660284
0.43472162 -0.5013185 0.29458234 -0.06461482 0.23696809 -0.5769957 -0.12588808 0.168416
-0.03494033 0.08176384 0.027393619 -0.19667795 -0.29719296 0.33966243 0.5026108 0.00047110964
0.04373558 0.6214204 -0.006143082 -0.26603568 0.52852887 -0.67390877 0.11375916 0.3330679
-0.5028423 0.071029015 0.0593067 0.4682475 0.039346363 0.43915161 -0.1601496 -0.1796691
-0.15388 0.010072444 0.32573867 0.013465334 0.095851064 0.16944872 0.18219014 -0.28368327
-0.14229833 0.29629952 0.49262953 0.4595019 -0.24221754 -0.074966416 -0.23213854 0.018821912
-0.41909987 0.10095424 0.30852634 -0.302095 0.21641895 -0.3934948 -0.37595734 0.19867025
0.20847872 0.10497195 0.29443377 -0.31317008 0.56979924 0.2944164 -0.3820655 -0.28998023
-0.3977477 -0.24896413 -0.44156188 -0.20823693 0.1522275 0.23594521 0.010504599 0.34870437
0.462119 -0.21811007 0.1281985 -0.05020335 -0.3799627 -0.059735347 -0.15473567 0.28243467
0.16403827 0.13077478 -0.32452017 0.3061822 0.1673409 -0.35355794 0.17347628 -0.4157684
0.3803411 0.5267092 -0.4525839 0.35809934 -0.42911154 0.36866587 0.43501288 -0.37332237
0.21297002 0.36668453 0.19166178 0.22587374 -0.2789225 0.087491386 -0.4771996 0.37529257
-0.36423343 -0.026483838 0.3029575 -0.34358263 0.40988564 -0.23676777 0.52872926 0.36186394
0.2694021 0.29899618 -0.43147916 0.3474006 -0.30788344 -0.049581937 0.44584912 0.28989166
-0.30730093 0.032599937 -0.39211306 0.25177008 0.0317769 0.4862688 -0.4425086 0.0327658
0.27507576 0.36323512 0.49737245 0.35365105 0.51813143 -0.47646686 -0.27399683 0.4665676
-0.4956694 -0.25768015 -0.43431377 0.2750486 0.25905886 -0.47485533 -0.26485106 -0.21106085
-0.4092523 0.5896604 0.66610134 0.049183123 0.74792564 0.39876056 0.18606228 0.08379737
-0.53120327 0.2417789 0.050262745 -0.20343201 0.18479134 -0.48766348 -0.31330937 0.7055888
-0.27631217 -0.20114753 0.17547485 -0.038251583 0.19822672 -0.2312983 0.46511257 0.33691967
0.2802697 0.19002648 0.49484533 -0.30022097 -0.42735484 -0.15840267 0.29316342 0.71161133
0.6741126 -0.4763961 -0.3335182 -0.56041414 -0.07979585 0.18628277 -0.2876626 0.096712284
0.26562032 -0.17481607 0.15699911 0.38404122 -0.042994495 -0.35829347 0.8597562 -0.13889219
0.5314552 -0.48283657 -0.1410887 0.12170781 -0.39599463 -0.43556044 -0.46904206 0.21714959
00000000: cf25 083f a6eb 4fbf 88ac 70bf e0cf f13c
00000010: 19e5 22bf 98c4 22bf 3f57 bfbe 6ca8 813e
00000020: 8ec2 923e 08f5 f23d 0366 aa3e 86c1 13bd
00000030: 3682 babe a7de ef3e 07b5 ac3c 8de1 2abf
00000040: d3f4 2dbe 41a0 06be f770 6d3d 7d6b c13e
00000050: 8f0a 563e 4387 a23e 2a51 ecbd c859 a33d
00000060: 7de8 f0be cb31 a8be ed56 20bf 8233 bfbd
00000070: 1317 9c3d 6d81 193f adb9 0dbf cdc0 82bf
00000080: 1863 03bf ad59 0d3f 996f 013f 5ad1 f63e
00000090: 2b99 51be b8b1 debe d62f da3e 85c7 98be
000000a0: e186 a1be a9e3 003f 214c aebe ca56 613c
000000b0: 4a35 6abe 6430 803c 2bba 1fbf 75e8 52be
000000c0: 1d92 52be b5f8 063e 1f27 98be f950 a93e
000000d0: 1a69 7f3e 3e0e 2f3e 213b de3e b06b dabe
000000e0: d593 de3e 6956 00bf 7fd3 963e c654 84bd
000000f0: c3a7 723e fdb5 13bf cee8 00be 3e75 2c3e
00000100: 971d 0fbd cd73 a73d 9568 e03c f265 49be
00000110: ad29 98be 3ce8 ad3e 1aab 003f 44ff f639
00000120: 1424 333d 6815 1f3f e84b c9bb d435 88be
00000130: ab4d 073f 4985 2cbf 90fa e83d e087 aa3e
00000140: 46ba 00bf a977 913d 95eb 723d 23be ef3e
00000150: a729 213d 7bd8 e03e 42fe 23be 2dfb 37be
00000160: b892 1dbe e406 253c 38c7 a63e b49d 5c3c
00000170: 904d c43d f783 2d3e 0d90 3a3e ef3e 91be
00000180: a7b6 11be 92b4 973e f039 fc3e d543 eb3e
00000190: e007 78be fe87 99bd bab5 6dbe 6930 9a3c
000001a0: 4294 d6be 19c1 ce3d 2af7 9d3e 32ac 9abe
000001b0: ee9c 5d3e 2778 c9be 7b7d c0be 3770 4b3e
000001c0: 727b 553e 89fb d63d 06c0 963e d457 a0be
000001d0: 5dde 113f bfbd 963e 179e c3be 4a78 94be
000001e0: 96a5 cbbe 74f0 7ebe 6614 e2be 103c 55be
000001f0: 87e1 1b3e 9f9b 713e 7b1b 2c3c 6189 b23e
00000200: dd9a ec3e 3f58 5fbe 7846 033e 07a2 4dbd
00000210: 798a c2be 0dad 74bd 0773 1ebe 479b 903e
00000220: a6f9 273e d3e9 053e 8227 a6be eac3 9c3e
00000230: 6a5b 2b3e 8c05 b5be c4a3 313e 99df d4be
00000240: 12bc c23e 6ad6 063f 14b9 e7be cc58 b73e
00000250: 82b4 dbbe c6c1 bc3e 02ba de3e 1c24 bfbe
00000260: d014 5a3e 13be bb3e fc42 443e 724b 673e
00000270: eece 8ebe af2e b33d 8253 f4be 5926 c03e
00000280: ce7c babe a2f4 d8bc 3f1d 9b3e 10ea afbe
00000290: 88dc d13e 4073 72be cd5a 073f 3b46 b93e
000002a0: 12ef 893e 0716 993e d6ea dcbe 7ede b13e
000002b0: e6a2 9dbe 6e16 4bbd 5646 e43e ae6c 943e
000002c0: 8c56 9dbe 8387 053d 0bc3 c8be 02e8 803e
000002d0: 7f28 023d 39f8 f83e 7d90 e2be 6e35 063d
000002e0: bbd6 8c3e f4f9 b93e 9aa7 fe3e c011 b53e
000002f0: 43a4 043f 77f3 f3be 5049 8cbe f3e1 ee3e
00000300: 61c8 fdbe a7ee 83be 605e debe 2cd3 8c3e
00000310: 5da3 843e 3d20 f3be 8f9a 87be 5620 58be
00000320: 8489 d1be fcf3 163f 9e85 2a3f 3e74 493d
00000330: 0e78 3f3f 582a cc3e 1c87 3e3e f59d ab3d
00000340: f0fc 07bf e394 773e 4fe0 4d3d 7b50 50be
00000350: f139 3d3e 07af f9be 166a a0be 78a1 343f
00000360: ca78 8dbe 9ef9 4dbe aeaf 333e b1ad 1cbd
00000370: f2fb 4a3e 76d9 6cbe 3c23 ee3e bc80 ac3e
00000380: 837f 8f3e 4d96 423e 5e5c fd3e 90b6 99be
00000390: 41ce dabe 4f34 22be 8419 963e 292c 363f
000003a0: a592 2c3f 31ea f3be e6c2 aabe 4d77 0fbf
000003b0: 026c a3bd e9c0 3e3e 8348 93be 1711 c63d
000003c0: 63ff 873e fc02 33be 60c4 203e 0da1 c43e
000003d0: ff1a 30bd 3e72 b7be fb18 5c3f c139 0ebe
000003e0: 730d 083f 5b36 f7be 8e79 10be f241 f93d
000003f0: cfbf cabe c701 dfbe 4826 f0be 765c 5e3e

bias f4 [3]
0.15201353 -0.107055575 0.018934147
00000000: 6fa9 1b3e f43f dbbd c91b 9b3c
