models/home_state_dict.pt (torch, 49439 bytes, 6 tensors)

fc1.weight f4 [100, 13]
000000 72 be be bd aa 9e 39 3e 7a 4d c8 bd ac 2b 0a be
       -0.09313668 0.18126932 -0.097804025 -0.13493222
000010 ef 16 83 be 20 07 3f 3d 18 7d 0c 3d 3c 1e ce 3d
       -0.25603434 0.046637654 0.034298986 0.100643605
000020 d2 8d 70 3e f5 e1 15 be 80 7b 3d bb 60 14 3c be
       0.234916 -0.14636977 -0.0028912723 -0.18367147
000030 80 fb b2 bd d1 27 8a 3e 0c d8 b0 bd 74 2c 46 be
       -0.08739376 0.26983503 -0.08634958 -0.19352895
000040 7c e4 05 bd fb 0a 82 3e c4 a2 d8 3d 76 fc 2c 3e
       -0.032688603 0.25399002 0.1057792 0.16893181
000050 84 bb 0a bd c8 33 51 be e7 39 8c 3e 5d 5f 89 3e
       -0.033870235 -0.20429909 0.27387926 0.2683057
000060 11 ec 87 be ef 07 83 3e 60 34 8b 3d 5d 35 36 be
       -0.26547292 0.2559199 0.06797099 -0.17793794
000070 b1 0e 2d be 5a e0 55 be a6 91 88 be 60 5e c4 bc
       -0.16900136 -0.20886365 -0.2667362 -0.023970783
000080 a7 eb 2d be 8c a3 1f 3e 4c c8 7d be 84 8d 1d 3e
       -0.16984425 0.15589732 -0.24783438 0.15386015
000090 80 dd b4 bb c0 dd 60 bd 66 47 75 3e b4 21 d2 3d
       -0.005519569 -0.054898977 0.23953018 0.102603346
0000a0 ba 19 34 3e 2d fa 8d 3e 43 38 65 be 94 5e 8c be
       0.17587939 0.2772993 -0.22384743 -0.27415907
0000b0 42 83 49 3e 00 24 59 bc 7c ed 1b be de bf 7e be
       0.19678977 -0.013253212 -0.15227312 -0.24877879
0000c0 10 a6 2c 3d 93 da 81 3e e0 5f 58 3d 84 ce 37 be
       0.042150557 0.2536207 0.05282581 -0.17949873
0000d0 fc 4b b2 bd 5c c9 5d 3e ef ab b2 bd 88 9e 47 be
       -0.08705899 0.21658844 -0.087242 -0.19494069
0000e0 68 cb af bc 47 d0 31 3e 09 c9 69 3e f8 bf 68 be
       -0.021459296 0.17364608 0.22830595 -0.2272948
0000f0 61 9d bc 3d d8 ff a1 3e bf da 58 be 80 d1 aa 3d
       0.09209705 0.31640506 -0.21177195 0.0834074
000100 60 dc 03 3e c8 47 65 bd f8 fa db bd 38 7f 50 3e
       0.12877035 -0.05597666 -0.10741228 0.2036103
000110 84 a8 05 3e c2 f4 34 3e 10 4e 0f 3d 03 0f 49 be
       0.13052565 0.17671493 0.034986556 -0.19634633
000120 e0 45 a8 3c 4c e9 6a bd c0 b5 60 3d c4 56 0b 3e
       0.020541131 -0.057351395 0.05486083 0.13607317
000130 09 4b 8a 3e 50 d6 40 be 6b ba b3 3d 8d 68 99 3d
       0.27010372 -0.18831754 0.08775791 0.074906446
000140 1d f0 4f be c0 cf 66 3d c7 97 28 be 1a 16 7e be
       -0.2030644 0.05635047 -0.16464148 -0.24813119
000150 11 73 40 3e ab 04 84 be 2b a6 1f be 91 d3 50 3e
       0.18793894 -0.2578481 -0.15590732 0.20393206
000160 05 46 43 3e 2d 1a cf 3c e6 eb bb bd 1d 2f 76 be
       0.19069679 0.025281036 -0.091758534 -0.2404141
000170 86 c1 27 be 2b 96 cc b9 cc b6 4b be 51 70 5f 3d
       -0.16382417 -0.00039021796 -0.1989395 0.054550473
000180 46 36 24 3e ef 81 84 3e e4 a8 ec 3d 7e 9a 32 3e
       0.16036329 0.2588038 0.11555651 0.17441747
000190 86 1d 1e be 84 8e 24 be ec 94 4c bd 9c 03 b3 bd
       -0.1544095 -0.1606999 -0.04994671 -0.08740923
0001a0 ee 90 3b 3e b0 a9 e0 3d 09 b5 6f be 28 5e 0f 3e
       0.18317005 0.10969865 -0.23408903 0.14000762
0001b0 6c d2 89 3d 96 5e 7d be de 2e 88 be d8 1a 5e 3e
       0.06729588 -0.24743113 -0.26598257 0.21689928
0001c0 86 55 44 3e 82 0a 7f be 48 ea 5b 3d a8 86 6f be
       0.1917325 -0.24906352 0.053690225 -0.23391211
0001d0 a8 29 4c 3d bc 60 65 bc 29 06 c5 bd 26 e5 5d be
       0.049844414 -0.014000114 -0.096203156 -0.21669444
0001e0 ca b3 dc bd ca 38 be 3d 7d 14 e4 bd 57 e4 8a 3c
       -0.107764795 0.092881754 -0.1113672 0.016954584
0001f0 44 22 02 be 52 1b 24 3e 36 b7 77 be ec 51 5d be
       -0.12708384 0.16026047 -0.24190983 -0.21613282
000200 0c de 35 3e a1 7e b6 bd c0 9c 3b 3c 20 a3 23 bd
       0.17760485 -0.08910871 0.011450946 -0.03995049
000210 a2 cb 41 be ec 3e b5 bd 0c 52 46 3e 9e 10 bc bd
       -0.18925336 -0.08849892 0.19367236 -0.09182857
000220 5e d8 5d 3e 40 17 e1 3d f8 ba 23 3e 76 a7 44 be
       0.21664569 0.10990763 0.15989292 -0.19204506
000230 40 39 fc bd 6c 72 b2 3d ac ee 22 be 59 1c 29 be
       -0.12315607 0.087132305 -0.15911359 -0.1651472
000240 ae 96 2e be cc 6b 03 3e 90 22 fe bc c8 c5 f7 3d
       -0.17049667 0.1283409 -0.03102234 0.12098271
000250 e8 d6 46 3e ab fa 60 be 18 de 34 3d f4 42 f4 3d
       0.19417918 -0.21970622 0.044157118 0.11926833
000260 94 6b 05 3e 04 e3 26 3e 00 92 eb 3d e5 38 69 be
       0.13029319 0.16297537 0.11502457 -0.2277561
000270 00 04 8b ba 38 df 1e 3e 0c e8 96 bd a3 55 32 be
       -0.001060605 0.15514839 -0.07368478 -0.1741548
000280 ea 21 46 3e ab 20 8b 3e 6d 5d 18 be c0 da ae bb
       0.19348875 0.2717336 -0.14879389 -0.0053361356
000290 8c 92 12 3e 3c 0a 4c 3e 32 d3 4d 3e 7b 9a 04 be
       0.14313716 0.19925779 0.20100096 -0.12949555
0002a0 60 fd e1 3d d1 76 d4 bd 6d a3 00 bd f0 55 4a bd
       0.110346556 -0.10374225 -0.031405855 -0.049398363
0002b0 2c 6e 28 3e 77 10 16 be fe 7f a6 be cd 3a 58 3e
       0.16448277 -0.14654718 -0.32519525 0.2111618
0002c0 6a 8e 61 bd 2b 40 58 3c 88 0c 0b 3e f5 32 a5 be
       -0.055067457 0.013198893 0.13578999 -0.3226544
0002d0 9e 66 ab be 2b 67 6a bd 4e 79 85 be 0f c1 8d 3e
       -0.33476728 -0.057227295 -0.2606911 0.27686355
0002e0 5a 44 3b be ba 2a 64 3e d7 b2 8d 3e c8 25 02 3d
       -0.18287793 0.22281924 0.27675506 0.031774312
0002f0 66 01 65 be aa e2 20 3e 50 64 74 be a0 f5 36 be
       -0.22363815 0.15711465 -0.23866391 -0.17867136
000300 4a c4 63 be f0 c0 54 bd 10 53 c9 3c b1 61 15 be
       -0.22242847 -0.051941812 0.02457574 -0.14588048
000310 00 20 04 38 63 2d 86 be b4 7f f8 3d f0 4d 52 3e
       3.1501055e-05 -0.26206502 0.121337324 0.20537543
000320 10 cb 29 be b0 4f 71 3d a8 91 23 3e 21 25 70 be
       -0.16581368 0.058913887 0.15973532 -0.23451664
000330 94 d1 6d be 4c c0 8a 3d cc ed 4b be 66 18 59 be
       -0.23224479 0.06774959 -0.19914931 -0.21200714
000340 1b e2 15 be 98 e9 75 be e1 88 84 be 6f 28 91 bd
       -0.14637034 -0.2401489 -0.2588568 -0.0708779
000350 6a b5 9b bd 17 91 37 3e 03 36 2f 3e 1f 62 1f 3e
       -0.07602961 0.17926441 0.17110448 0.15564774
000360 ce 78 d4 bd 4d 9e 55 be ee ca 69 be 73 e0 42 be
       -0.10374604 -0.20861168 -0.22831318 -0.19030933
000370 70 04 26 3e d6 a4 5a be 9c aa 18 bd 10 c8 56 3d
       0.1621263 -0.21351942 -0.03727208 0.05243689
000380 60 89 91 3d ec 7b d5 3d ea c7 39 be 18 b7 25 bd
       0.0710628 0.10424027 -0.18142667 -0.040457815
000390 49 94 10 be 52 3e ef bd f7 fe 5f be 38 ac d1 3d
       -0.14119066 -0.116818085 -0.21874605 0.10237926
0003a0 ae 88 d2 bd 75 88 80 3e 74 67 1a bd c0 0f a0 3d
       -0.10279976 0.25104108 -0.037696317 0.07815504
0003b0 58 a0 25 3d 28 42 ad 3d 54 23 48 be fa ab 77 3e
       0.04043612 0.08459884 -0.19544727 0.24186698
0003c0 76 0e 5e 3e 2c e8 ac 3d ce b9 7f 3e 76 82 52 3e
       0.21685204 0.08442721 0.24973223 0.2055758
0003d0 e8 c8 36 bd a2 61 9c bd d4 40 cc bd 86 c4 e6 bd
       -0.044625193 -0.076358095 -0.099733025 -0.112679526
0003e0 40 da 47 be c0 f6 1b 3c 88 5a 35 3e e8 3f ea 3d
       -0.1951685 0.009519279 0.17710316 0.114379704
0003f0 f0 c2 5d be 10 5a 88 3d e6 d0 5f be 1e 4f 52 3e
       -0.21656394 0.06657803 -0.21857032 0.20537993

fc1.bias f4 [100]
000000 be a6 3a be b8 9b 75 3d a7 d4 80 be 50 50 6d 3d
       -0.1822767 0.059962958 -0.2516224 0.05793792
000010 cc aa 5a 3e 6c 0c 98 bd 57 a2 95 3d ea c0 2c 3b
       0.21354216 -0.07424244 0.073063545 0.0026360103
000020 e2 2c 62 be 53 b5 31 be ec 9e 38 3e e2 5f 38 3e
       -0.22087434 -0.17354326 0.18029374 0.18005326
000030 54 6c ae bd aa 1f bd 3c 40 80 81 3d 90 3b 85 be
       -0.08516756 0.023086388 0.0632329 -0.26022005
000040 c9 ea 21 3e c8 58 55 bd 2b c5 45 be b8 9a 51 3d
       0.1581222 -0.05208662 -0.19313495 0.051172942
000050 69 c0 81 3e 1d c1 10 3d 4c 47 6f bd a8 19 d0 3d
       0.2534211 0.035340417 -0.058417603 0.101611435
000060 20 66 22 bc fe bd 4e 3e 07 aa 98 bb 36 47 75 3e
       -0.009912044 0.20189664 -0.0046589407 0.23952946
000070 d7 23 1c be 5c 59 94 bd 20 98 52 be 84 97 3c bd
       -0.15248047 -0.072436064 -0.20565844 -0.046042934
000080 ae 1a 0c be 00 21 5e bb 5c e6 bb 3d 4b 80 e2 3d
       -0.13682052 -0.0033894181 0.09174797 0.11059626
000090 5c 98 df bd b7 db 8c 3d 80 7c 9d 3b b1 11 86 3f
       -0.10917732 0.06877845 0.0048061013 1.0474149
0000a0 90 53 e6 3c e0 b8 13 3e 3f f3 3d be bc 2e 09 bf
       0.028116018 0.14425993 -0.18549822 -0.53586936
0000b0 c2 cf 42 3e 80 86 4a 3d 83 1a 8b 3e 3e a0 38 be
       0.19024566 0.049444675 0.27168664 -0.18029878
0000c0 fe c7 28 3e 00 d1 51 bc ce b5 0c be 74 c4 d4 bd
       0.16482541 -0.012806177 -0.13741228 -0.10389033
0000d0 09 eb 87 3e 83 84 0e be 0c 03 aa 3c e8 eb 35 3e
       0.26546505 -0.13917737 0.020753406 0.17765772
0000e0 68 13 5f be fe 16 35 be ec fd 23 3e 20 a2 1a 3f
       -0.21784747 -0.17684552 0.16014832 0.60403633
0000f0 e0 27 d6 3d 0c 4b 40 bd 0a d6 37 3e 95 48 87 be
       0.10456824 -0.04694657 0.17952743 -0.26422563
000100 28 7d e4 3d f3 37 bf 3e 80 d9 94 bc c0 ff 1f 3d
       0.11156684 0.37347373 -0.018170118 0.03906226
000110 4c 85 91 be c8 e1 bc bd 3a 1e 30 3e 55 cb 26 3d
       -0.2842201 -0.09222752 0.1719903 0.040721256
000120 70 eb 42 3d a0 ac f2 3c 34 6f c9 bd 3a 4d e1 bd
       0.047587812 0.02962333 -0.098356634 -0.11001058
000130 5a 71 4f 3e 4a 0a 64 3e c4 c3 0b be 65 11 84 3e
       0.20258084 0.2226955 -0.13648897 0.2579452
000140 c0 9b 25 bc 00 2d eb 3c 06 83 0e 3e 98 21 7a 3c
       -0.0101079345 0.028707981 0.13917169 0.015266798
000150 68 24 df 3d 04 39 2e be 18 25 6d be 71 f4 85 3d
       0.10895616 -0.17013937 -0.23158681 0.06540764
000160 7e 43 1f 3e cb fd a3 3f 38 a9 01 3e 3e 81 72 3e
       0.1555309 1.2811826 0.12662208 0.23682114
000170 84 3a b8 3d 70 dd cf bc 17 c4 53 3e 28 1e 30 3e
       0.08995536 -0.025374144 0.20680271 0.17199004
000180 d9 a4 84 3e fc 7a 44 bd b2 cc 1b 3e 78 9e db 3d
       0.2590702 -0.04796885 0.15214804 0.10723585

fc2.weight f4 [100, 100]
000000 a4 92 e5 3c 81 0f 70 bd e8 f0 85 bd 67 be 76 bd
       0.028024025 -0.058608536 -0.0654009 -0.060240176
000010 4c de 9b 3d 74 05 c5 bc b7 b7 a2 bd 3d b8 34 bd
       0.07610759 -0.024050452 -0.07945197 -0.044121016
000020 5d cb 34 bd 91 88 8f bc c0 64 09 bc 83 43 a9 3d
       -0.044139255 -0.017521175 -0.008385837 0.0826483
000030 7b 84 e3 3c bb 5f 38 bd 83 ff 85 3d 77 9e ca 3d
       0.027773133 -0.04501317 0.065428756 0.09893506
000040 e9 7f 77 bd 35 5a af bd 42 f4 47 3d 69 a2 8b 3d
       -0.06042472 -0.085621275 0.048816927 0.06818087
000050 2b f3 9e bb 7a c8 c9 bd 12 e5 66 3d d3 a7 39 bd
       -0.004850765 -0.09852691 0.056370802 -0.045326065
000060 fd 8b 56 bd a5 71 97 3d d5 2c 57 bd ea da 6f bd
       -0.052379597 0.07394723 -0.05253299 -0.058558382
000070 b4 7e fb 3d 0a da fa bc 73 1b 96 bb ba 64 85 39
       0.12280026 -0.030621547 -0.004580909 0.00025442784
000080 9d 14 9b 3c 60 8b d7 bc e0 ff 41 bd 2d 3a 37 3d
       0.018930728 -0.026311576 -0.047363162 0.044733215
000090 b0 54 92 bd 3a a0 9e 3d b0 bf ae 3b 4d bf 88 3f
       -0.07145059 0.077454045 0.0053329095 1.068338
0000a0 82 95 31 3d 29 8d bc 3d 87 1c 8e bd 51 6b fe be
       0.043355472 0.09206612 -0.06939035 -0.4969125
0000b0 3e 15 0a 3d 12 53 86 bd 21 38 9c 3a 6b c5 33 3c
       0.033711664 -0.06558813 0.0011918583 0.010972361
0000c0 b8 40 ce bc 70 a0 11 3d 07 83 ba 3d 8a c1 64 3d
       -0.025177345 0.035553396 0.09107023 0.055848636
0000d0 28 26 b5 bd 75 70 b0 bc c5 da 0a bd df ea c7 bd
       -0.08845168 -0.021537999 -0.03390004 -0.09761595
0000e0 5a 89 30 3d a9 68 b4 3d de e2 3d 3d aa f9 b8 3e
       0.04309974 0.08809025 0.046358936 0.3612798
0000f0 99 20 9e 3d 21 cc 77 3d c5 ed 85 3d 60 f4 98 bd
       0.07721061 0.060497407 0.065394916 -0.07468486
000100 e6 d8 ae 3d 94 df c9 3e b7 d5 65 3d 54 fb e0 bc
       0.08537464 0.3942839 0.056112017 -0.027463593
000110 ed ff 09 3e 61 02 ad 3c 69 0a 06 3d 51 e5 ff 3c
       0.13476534 0.021119298 0.03272477 0.031237276
000120 51 6a 17 3c 95 36 b1 bd 77 e9 fe 3c 4d 17 71 bc
       0.009241656 -0.08652989 0.031117184 -0.014715028
000130 9e e4 94 3d d2 66 0b 3d b9 35 c5 3d 62 24 5f 3d
       0.07270168 0.034033604 0.096293874 0.054478057
000140 d8 b1 9c bc b3 18 70 bd ed c1 81 bd 30 9c dc bc
       -0.019127771 -0.058617305 -0.063358165 -0.026929945
000150 f1 87 45 bd ac 52 a2 bc 89 a0 af 3d 42 f5 5d bd
       -0.048225347 -0.019814812 0.085755415 -0.054188974
000160 0c 78 d7 3c 00 a8 48 3f 4d 32 8a 3d 69 51 81 3d
       0.02630236 0.7838135 0.06747875 0.06314356
000170 89 1e 72 3c c5 19 c5 bd 80 92 f9 bf e3 b9 b9 bd
       0.014777788 -0.09624056 -1.9497833 -0.09068658
000180 1d 00 cc bc a5 8e 08 3e 5f a4 10 bd fe b4 ab 3d
       -0.024902398 0.13335665 -0.035313006 0.08384131
000190 c0 23 99 bc 5a 3a 28 3d aa 84 a1 3c d0 ed 6b bd
       -0.018693805 0.041071273 0.01971658 -0.057599843
0001a0 ea a0 df 3d 36 de 92 bd c0 4c 02 bd 12 01 93 bb
       0.10919364 -0.071712896 -0.031811476 -0.0044862116
0001b0 7b 46 66 3d cd dd 05 be 40 d0 09 3b 4a b4 c0 bd
       0.05621956 -0.13072892 0.0021028668 -0.094093874
0001c0 37 3f 5c 3d c0 0f f8 3c a4 6f 94 3c 9c 55 d8 3c
       0.053771224 0.030280948 0.01811964 0.02640801
0001d0 db 48 67 bd c2 d1 cf 3d 82 41 c2 bd 88 f4 91 3c
       -0.056465965 0.1014743 -0.09485151 0.017816797
0001e0 50 89 ff 3d 67 2b ab 3b bc a7 08 bd b7 e6 52 bd
       0.12477362 0.00522368 -0.03336309 -0.051489558
0001f0 c5 7a 1a bc 8b d5 a8 3d ad 5b ed 3b 58 8a 1b bb
       -0.009428685 0.08243855 0.0072435946 -0.0023733582
000200 98 93 a9 bd 64 a3 ed 3d ba b6 5c bd c8 78 37 3d
       -0.082801044 0.1160343 -0.0538852 0.04479292
000210 1c 8f 96 3c 70 17 78 3c 19 51 93 3d e2 6c c9 3c
       0.018378787 0.015142307 0.071932025 0.024588052
000220 45 b8 cb bd c6 f7 5b 3d 2a 50 57 bd b1 65 7b bf
       -0.09947256 0.053703092 -0.052566685 -0.98202044
000230 f0 89 36 bd aa a6 3a 3d 3c 34 59 3b 72 c6 da 3e
       -0.04456514 0.0455691 0.0033142706 0.42729527
000240 9a f1 a6 3d 84 e0 bf 3d 5e 5f 9b 3d 3a 75 b0 3d
       0.081515506 0.09368995 0.07586549 0.08616109
000250 2a d8 c7 3b 0e 65 d9 3b 08 56 b6 3c 8a 6e 16 3d
       0.006098767 0.006634361 0.02225782 0.036726512
000260 52 5f 78 3d 5a f3 e4 3d e3 71 a0 3c 58 e8 47 bb
       0.06063778 0.11179228 0.019585555 -0.0030503478
000270 88 73 9f 3c ec 59 72 bc d4 59 f6 3c ab d3 a8 be
       0.01946427 -0.014791947 0.03007213 -0.3297399
000280 62 30 12 3d 77 7b 18 bd 80 d6 ce 3b d4 ee 9c 3c
       0.035690673 -0.03722712 0.0063121915 0.01915685
000290 4a a5 55 bb 99 e3 d9 be 4e 44 e9 bc b8 2a cb bc
       -0.003259974 -0.42556456 -0.028474953 -0.024800643
0002a0 23 b8 57 3c 3a 1a cc 3d 18 ea dd 3b 98 c4 48 3d
       0.01316646 0.0996594 0.006772291 0.04901561
0002b0 a2 f2 b8 3c 02 24 df bc 02 03 c6 3b 1c 71 0f bd
       0.022576634 -0.02723885 0.006042839 -0.03501998
0002c0 a1 60 c1 bc a0 01 a1 bb 82 49 1f 3d 98 1f 3b 3c
       -0.023605647 -0.004913524 0.038888462 0.011421107
0002d0 b1 5e c3 3d 94 4a b3 3c 6a 10 cd 3c 1a 0f 2e bd
       0.09539545 0.021886148 0.02503224 -0.04249487
0002e0 a4 d3 0c 3e 1c 49 cf 3c 7d ec 6d bd 8b 61 6b bd
       0.1375261 0.025303416 -0.05808686 -0.05746607
0002f0 06 0a 00 bd 09 3b 66 bf cb 70 ef bc 30 62 ac bb
       -0.03125956 -0.8993383 -0.029228589 -0.0052607283
000300 ca ef b7 3d 03 99 3e 3c 09 01 b5 be 0c 22 8a bd
       0.08981283 0.0116331605 -0.35352352 -0.06744775
000310 f4 2a 0a 3d d8 ed e7 bd 5f a0 8d 3d 94 72 6f bc
       0.03373237 -0.11324662 0.06915354 -0.01461472
000320 65 58 9a 3d b6 d4 52 bd e4 3c 4a 3d 66 dc 56 3d
       0.07536391 -0.05147239 0.049374476 0.052456282
000330 b1 cb 44 bd 67 33 5f bd c8 09 30 bd 14 4b fd 3c
       -0.048045818 -0.05449238 -0.042978078 0.03091959
000340 e9 76 2d 3c 97 54 de 3d c2 78 87 bd 7a 1c 0b bd
       0.010587432 0.10855978 -0.066148296 -0.033962704
000350 cf c6 6e 3c c3 8c e6 bd 83 86 af bd 39 fc 83 3d
       0.014573767 -0.11257317 -0.08570578 0.06444592
000360 4c 74 8a bd 4a 65 73 bd 27 1e c0 3d 98 74 58 bc
       -0.06760463 -0.05942277 0.09380751 -0.013211392
000370 9e 2c 8e 3c 02 9c 6c bd f7 ae cb bd e7 e5 2b bd
       0.01735526 -0.05776597 -0.09945481 -0.0419673
000380 82 ca 18 bd f6 32 8f bd 36 25 50 bd d8 df 36 3d
       -0.0373025 -0.06992142 -0.050816737 0.044647068
000390 dc 64 80 3e 5d b7 c4 3c 19 dd 41 bd be ff 11 bd
       0.2507695 0.024013216 -0.047329996 -0.035644285
0003a0 bf d7 c9 bd 53 11 90 3d 0b 7e 81 3d 81 cb 99 bd
       -0.098556034 0.07034554 0.06322869 -0.075095184
0003b0 78 df c6 bd 64 39 dc bd a0 0d 65 3b 91 79 8c 3f
       -0.09710592 -0.10753134 0.0034950748 1.0974599
0003c0 5c 83 f9 3c 89 0b ac 3d aa 55 b3 3d b8 48 09 bf
       0.030458145 0.08400638 0.087565735 -0.53626585
0003d0 49 15 c8 bb b7 4e 4f 3d c8 da 8b bd 71 e4 5b bc
       -0.006106053 0.050612178 -0.068288386 -0.013421164
0003e0 ab 2f 86 bc 34 99 db bd 68 24 bd bc e6 8d 71 3d
       -0.016380152 -0.107225806 -0.023088649 0.058973216
0003f0 0a 2b 15 3d e2 a9 ac 3d 2d 30 6f 3d c8 a1 a1 bc
       0.036418 0.0843084 0.058395553 -0.019730464

fc2.bias f4 [100]
000000 6a 5e 03 3d dc 7f 9b 3d 38 48 e3 3c e0 fc 95 bd
       0.032072462 0.075927466 0.027744398 -0.07323623
000010 27 74 5b 3d 91 6c 57 bc f8 05 89 bd bd 12 e5 bc
       0.05357757 -0.013148443 -0.066905916 -0.027963037
000020 52 24 1f 3d 9c de ac bb 8a bd f6 3c 39 58 7e 3d
       0.038852997 -0.0052755605 0.030119676 0.062095854
000030 e4 70 be 37 f7 0b 59 3d e6 24 83 bd 59 a4 a5 3d
       2.2702334e-05 0.052989926 -0.06403522 0.080879875
000040 58 e6 c8 3d 1b f8 4d bd fb bf 35 bd 4b ca 1c bd
       0.098095596 -0.05028544 -0.04437254 -0.03827886
000050 22 0f ae bd 05 de 8b bd aa f3 8c bd 67 2a fd bd
       -0.0849898 -0.06829456 -0.06882413 -0.12361603
000060 06 4c 99 3d 53 53 28 3d 98 8c 4d 3d a2 46 4a 3c
       0.074852034 0.04109509 0.05018291 0.012345942
000070 53 ca 2d bb b7 b7 28 3d 80 ca 2e bd 3c f4 95 bd
       -0.00265183 0.04119083 -0.042673588 -0.07321975
000080 e0 56 61 3d 59 a3 04 be d0 91 5f 3d 66 67 96 bd
       0.05501449 -0.12952937 0.054582417 -0.073439404
000090 f3 a2 c5 3d 86 73 90 3d 9a 04 34 bd 1f 8d c4 3d
       0.09650221 0.07053284 -0.0439497 0.09597229
0000a0 32 5f 37 3d 08 48 35 bd 48 37 20 bd 64 cb 05 3d
       0.04476852 -0.044258147 -0.03911522 0.03266467
0000b0 f1 15 9a bd 7e 33 d8 bd ac 15 3f 3c 57 65 77 3d
       -0.07523716 -0.10556696 0.011662882 0.06039938
0000c0 94 d7 b2 3c 18 e9 21 bc cb ae 24 bd cb f3 94 3c
       0.021831311 -0.009882234 -0.040205758 0.018182656
0000d0 0d 17 c6 3b f5 71 d3 bc 9e 3e 4e bd 9a e3 b0 bd
       0.0060452283 -0.025811175 -0.050352685 -0.086371616
0000e0 68 aa 4c 3c 07 30 05 bd 0b 40 3d 3d 60 6c 0e 3d
       0.0124918 -0.032516506 0.046203654 0.034771323
0000f0 3e 95 b6 3c 23 65 e3 bc 5a 39 ab bd f6 56 8f bd
       0.022287961 -0.027758187 -0.08360548 -0.06999008
000100 b5 9a 92 3c 22 17 f8 3d 57 06 ed 3c 2d 17 82 bd
       0.017896036 0.12113787 0.028933687 -0.06352077
000110 98 8e 07 3e 09 68 3e 3b e9 54 47 3d 9d ef f5 bc
       0.13237989 0.002905371 0.04866496 -0.030021483
000120 bc 63 b7 bc f3 6e 4d 3c f6 db 0d 3d 71 ec 06 3e
       -0.022386424 0.012538659 0.0346336 0.13176133
000130 bc dc b2 bd f6 af ec 3b e6 64 0a bd 29 0e 58 3d
       -0.08733508 0.0072231246 -0.03378763 0.05274788
000140 52 4a df bd 8a 41 38 bd bb 1e 3d 3d 06 31 25 bc
       -0.10902847 -0.044984378 0.046171885 -0.010082489
000150 b8 3a cc bd c3 10 26 3d fd 25 91 3c ce d6 1f bd
       -0.09972137 0.04054333 0.01771831 -0.039023213
000160 e1 e0 18 bc 40 ca 95 bd 3d f6 fc 3d bd ce 81 bd
       -0.009330959 -0.07313967 0.12351654 -0.0633826
000170 43 f4 0a be 7f 28 73 bc fb a6 ca bc a8 02 e8 3d
       -0.13569741 -0.014841198 -0.024737826 0.11328632
000180 a5 de 9c 3c ad ee fd bc 36 2e e7 3d a9 1c e4 3d
       0.019149134 -0.030997599 0.11288111 0.11138279

fc3.weight f4 [3, 100]
000000 ab af 2c bf 0f 6b b6 3e 60 d6 1a bf aa b3 e5 be
       -0.6745555 0.35628554 -0.6048336 -0.44863635
000010 ec d5 77 3e 2a 21 a7 be 4d 80 94 3e f9 7e b3 3e
       0.24202698 -0.3264249 0.29004136 0.3505781
000020 bd d5 8e 3d 8a 39 e3 be 6c a4 b1 be ab 1c 59 3e
       0.06974361 -0.44379836 -0.34695756 0.21202342
000030 9d e9 cd 3e 03 b5 fc 3e 98 bf 8f be 7d 4d a5 3e
       0.40217295 0.4935685 -0.28075862 0.3228568
000040 d1 df ec 3e 73 77 b1 be cc 37 8b be ae 37 36 3e
       0.46264508 -0.34661445 -0.27191007 0.17794678
000050 75 00 0d 3f f6 e5 9e be 69 6f 00 3f 0a 2c 6b be
       0.5507882 -0.3103482 0.5017 -0.22966018
000060 39 72 db 3e c2 2a 39 bf e3 06 fc bc 45 89 bc 3e
       0.42860582 -0.7233087 -0.030765003 0.36823478
000070 1d 1d ec bd 16 df 11 3f 5d 40 93 be 3d c4 dc 3c
       -0.115289904 0.5698103 -0.28760043 0.026949042
000080 b0 19 21 3e c5 e8 f3 bd 2a 59 25 bf 5a 71 c1 3e
       0.15732455 -0.11909632 -0.6458918 0.37781793
000090 3d ea 0c bf 3a 04 09 3f f3 a3 1a bf c2 d2 c1 3e
       -0.5504492 0.53522074 -0.60406417 0.37856108
0000a0 33 38 46 3e 16 d7 a5 3e 3b fc 1f 3f 34 1e d0 be
       0.19357376 0.3239066 0.6249425 -0.40648043
0000b0 ba 5e 27 be 6d 20 f3 be 17 d2 de be 34 84 a2 be
       -0.16344729 -0.47485676 -0.4351966 -0.31741488
0000c0 28 cc 96 3e fb 87 c1 be 47 43 15 3f 2d fe ea 3e
       0.29452634 -0.37799057 0.5830578 0.45897046
0000d0 72 0c 4a bf 03 fe 18 3f 9c f5 87 be 21 00 7d be
       -0.7892524 0.5976259 -0.26554573 -0.2470708
0000e0 33 85 58 be fb de dc bd ca 2c 13 3f 1d 8b 91 be
       -0.21144561 -0.10784718 0.5749022 -0.28426448
0000f0 5b c0 19 bf 17 f3 41 bf 7c 9d 0b 3f 8f 6a 71 3e
       -0.60059136 -0.7576155 0.5453718 0.23575805
000100 28 7f 68 3e 2f 19 32 3c ff 0f 0b 3f 6d 2c a7 be
       0.22704756 0.010870262 0.54321283 -0.32651082
000110 21 18 e2 3d a0 d9 62 be 73 6c 32 bf 35 9c 1b bf
       0.110397585 -0.2215333 -0.6969673 -0.6078523
000120 1e a7 0f 3f bc 9c 51 bf d5 9b 05 bf 52 2c da 3d
       0.56114376 -0.8187978 -0.52190906 0.10652985
000130 72 ba ff be d3 d0 0c bf b6 7e a3 be 7d 88 b9 be
       -0.49946934 -0.5500614 -0.3193261 -0.36236945
000140 12 30 66 3e 03 38 08 bf 78 8b e3 3e c9 9c 0a bf
       0.22479275 -0.5321047 0.44442344 -0.54145485
000150 14 97 b8 be 15 b1 cb 3e 01 04 ce 3d b7 01 86 3e
       -0.36052763 0.3978354 0.100593574 0.26173183
000160 5a aa a0 3d cc 6c 15 3f 05 27 a2 3e f5 5c b5 be
       0.07844992 0.58369136 0.31670395 -0.35422483
000170 9a cf b2 be d5 31 6f 3e ce 33 bf be 91 3b 06 3e
       -0.34924012 0.23358853 -0.3734421 0.1310866
000180 57 60 1c 3f 50 2b 17 bf e6 b3 b2 3e 66 2a bc 3e
       0.610845 -0.59050465 0.34902877 0.36751097
000190 d6 80 a9 3d b3 ab 30 be 02 11 15 3e b4 bc e3 3d
       0.08276527 -0.17252998 0.14557269 0.11119977
0001a0 90 20 99 be 97 1b 9d 3e a1 a1 2a 3e bd a8 5a be
       -0.29907656 0.30685112 0.16663219 -0.21353431
0001b0 dc 4f 8a be 36 39 28 be 0e cf 86 3e c4 47 86 be
       -0.27014053 -0.16428074 0.26329845 -0.26226628
0001c0 0d 8b 3b be e9 cf ec 3d 14 2b 0d 3e 88 81 57 3e
       -0.18314762 0.11563093 0.13785964 0.21045506
0001d0 2a 3f 99 be 1b 99 81 3e 8f 75 79 3e 01 04 a2 be
       -0.29931003 0.25312123 0.24361251 -0.3164368
0001e0 e7 3b 84 bd 2a f2 93 be 03 b1 0c be d3 11 83 3e
       -0.06456738 -0.28895694 -0.137394 0.25599536
0001f0 54 93 0a be 1c 3d d8 3d 0b 4b 3b be 75 b1 0b 3e
       -0.13532764 0.10558531 -0.18290345 0.13641913
000200 18 64 6a 3e f1 a5 07 be 71 38 66 3e 4d d7 81 3e
       0.22889745 -0.13246895 0.22482468 0.25359574
000210 8a b3 a2 be ad 7a a1 3e 19 05 f6 3d 82 71 71 3e
       -0.31777602 0.31538907 0.12012691 0.23578456
000220 4d 0b 5f be 4c bf 41 be c1 91 1d be 3d 52 f1 3d
       -0.21781655 -0.1892063 -0.15387632 0.11783264
000230 41 8b a0 be 17 bc 93 be 97 5d a0 3c b5 4a fd bd
       -0.31356242 -0.2885444 0.019575877 -0.12367765
000240 80 00 8a 3e 11 18 b0 3e 57 d3 e2 3e 45 f7 48 3e
       0.26953506 0.3439336 0.44301865 0.19625576
000250 da 23 a8 be 3c 73 c0 3e f3 6a 2f 3d ec 03 97 3d
       -0.32839853 0.37587917 0.042826604 0.07373795
000260 f6 0a a0 3d d1 e7 49 3d 9a d2 4e be df 67 81 3e
       0.07814591 0.049293343 -0.20197526 0.2527456
000270 f2 59 94 3e 13 0f a9 3e 62 f7 aa 3d 88 79 ae 3e
       0.28974873 0.33019313 0.08347966 0.34077096
000280 e0 2b b3 bd 36 56 2f be 88 e7 4a 3d 13 d7 26 3e
       -0.08748603 -0.1712273 0.04953721 0.16292982
000290 11 f7 1e be eb 2c a1 be 2b c1 86 be e3 87 d0 3e
       -0.15523936 -0.31479582 -0.2631925 0.40728673
0002a0 e6 56 ab be 9c 10 98 3e 62 0f 23 bd f1 68 90 3c
       -0.33464736 0.29700172 -0.039809592 0.017628165
0002b0 73 0f c9 be 71 f0 51 be 4e 73 ce bd 39 97 83 be
       -0.392696 -0.20501877 -0.100805864 -0.2570131
0002c0 0a 84 48 3e 12 02 54 3d c9 1b 91 3e e6 0d 0e be
       0.19581619 0.051759787 0.2834151 -0.1387249
0002d0 12 27 8b 3e 04 13 4c be 88 70 b7 be 0c 55 8f be
       0.27178246 -0.19929129 -0.35828042 -0.27994573
0002e0 c2 bf 41 be 65 43 87 be 8f 94 1f 3e 46 a5 e0 3d
       -0.18920806 -0.26418605 0.15584014 0.109690234
0002f0 46 65 d9 be 52 d0 26 be 12 4c 6a be cc 70 55 3e
       -0.42460078 -0.16290405 -0.22880581 0.2084381
000300 0f c2 8f 3e a4 77 27 3d 3e dd 1c 3e 34 ea 8a be
       0.28077742 0.040885583 0.15318772 -0.27131808
000310 e9 e7 30 3d fd e9 85 be 95 da 9c be 74 77 64 be
       0.043189917 -0.2615508 -0.30635515 -0.22311193
000320 14 e1 06 3f 7c 82 6e 3b 98 58 b2 3e 65 95 6d bd
       0.5268719 0.0036393693 0.34833217 -0.0580038
000330 1b 01 0d 3e f1 50 85 bd cc 71 26 bf 11 98 9a bd
       0.13769953 -0.06509579 -0.6501739 -0.075485356
000340 ff 55 89 3e c2 8f d6 3e 08 33 78 be 5f e2 83 3e
       0.26823422 0.41906554 -0.24238217 0.25758645
000350 62 2f 0a be 7c 01 09 bf ff 05 0e be 05 5f 0e bf
       -0.13494638 -0.5351789 -0.13869475 -0.5561374
000360 02 2d 54 be c4 fa 40 3c 24 49 31 be 9a 4b 72 3e
       -0.20720294 0.011778537 -0.17313057 0.23661652
000370 7d a2 f9 be 3c c0 f0 3e a5 b0 0e be 65 3c 2b be
       -0.4875678 0.47021663 -0.13934572 -0.16722257
000380 86 9e fe bd a5 20 b3 3e a5 1d 8f 3e 77 41 0d bf
       -0.1243258 0.34985843 0.27952304 -0.55178016
000390 5c 05 40 be 2a 1c 1d bf d6 48 e2 bd 91 e1 a5 be
       -0.18752044 -0.613711 -0.110490486 -0.32398656
0003a0 31 a2 b8 3e 19 58 c3 be 09 3f fd 3d 42 41 1b bf
       0.36061242 -0.3815315 0.123655386 -0.6064645
0003b0 26 d7 20 3f fa 70 aa bd 59 f9 09 3f 7a 5d 05 bf
       0.6282829 -0.0832233 0.538961 -0.5209576
0003c0 91 38 81 3e 49 2f 31 3e f7 a7 1a bf a7 4f fe 3e
       0.2523847 0.17303194 -0.60412544 0.49670145
0003d0 a7 2a ef bd 5b eb 33 3e 63 3d a8 be d1 13 83 3d
       -0.11678057 0.1757025 -0.32859334 0.06400264
0003e0 71 bf 54 3e 6e 4f 0d be ed 24 2c bf 88 3a 0a bf
       0.20776154 -0.13799831 -0.67243844 -0.5399556
0003f0 b8 52 20 3f 4f 51 2a bf e5 37 f6 3e 11 ec 78 be
       0.6262622 -0.6653032 0.4808952 -0.24308802

fc3.bias f4 [3]
000000 c7 53 13 3d fc 5d 9e 3d f5 16 91 3c
       0.03596857 0.0773277 0.017711142
