models/home_state_test.onnx (onnx, 47829 bytes, 6 tensors)

fc1.weight f4 [100, 13]
00000000: d01b de3c 501e e33c 669c bfbd 8265 19be
00000010: 5ae2 203e 1ae4 edbd 8608 6d3e 2169 803e
00000020: f0db 2d3d c74b 65be 48fe d5bd 7c13 0ebe
00000030: b061 f73c ce24 7c3e f87b 68bd 41d7 0fbe
00000040: ccbf 82be 1a02 383e 445a ce3d 8167 68be
00000050: bff9 65be 8ac6 7b3e a021 3cbe a0f4 183d
00000060: f047 b9bc 6862 763d 80d4 f6bd 6abf 17be
00000070: 3e49 403e d586 07be 83b1 48be 3235 3abe
00000080: 68f9 3b3e 50d7 c23d 5a0a a8bd 58c5 dfbd
00000090: c681 6c3e b27c 40be ed8b 02be fc6e b43d
000000a0: 8b9e 81be 6719 67be 70c7 3c3d 8e39 53be
000000b0: d691 753e 17ab 813e 5a4b 693e 50de 943c
000000c0: 3c45 af3d dcdd fe3d 713a 843e 083f f63d
000000d0: fe44 87be 7c40 24be aa4b 97bd 289c 6c3d
000000e0: 52c7 773e 88ee b6bd 7299 2d3e b910 823e
000000f0: 7bf6 853e 89d7 813e 54ea f33d ef36 0bbe
00000100: 8747 60be b0fa 1f3e 5027 47be b511 61be
00000110: e4d1 cd3d c0bc b3bc 908e a93d 046a 993d
00000120: 3e37 5ebe fa7a 89be dc1f c3bd 1060 3a3d
00000130: 0613 193e adaf 8a3e b8dd f93d 4054 383e
00000140: 740d c33d ce04 6a3e 04c5 983d 3a22 0b3e
00000150: 5fb4 48be c4ed 8dbd 8440 27bd 1330 803e
00000160: 642b d43d ba4d 2a3e e0c7 803d 64e4 f23d
00000170: 2e2b c9bd a487 61be 6cb5 8abe 6627 523e
00000180: d0d1 a63d 0ae4 c8bd 98a6 3a3d 6a15 79be
00000190: 1e28 6b3e a0f8 81be e6c3 37be 3e82 1a3e
000001a0: 20e1 dbbc 8ed3 573e 5295 2bbe 6a5d 103e
000001b0: 9209 693e d0da c43c e03c 9f3d d68b 183e
000001c0: 1e9a 16be c003 793c 0b18 71be 9eac 683e
000001d0: 9c20 3ebe 0097 1bbb 575f 46be 9867 a43d
000001e0: 88b5 b03d c9bc 8d3e 64a5 973d 74f5 b33d
000001f0: fc24 943d fe7c d3bd 8c68 e23d e752 02be
00000200: 4487 263e a819 9a3d 6aa0 b4bd 0072 513e
00000210: c209 29be 74ed 4fbe 105f 87bc 8e3b 78be
00000220: 2839 3bbe eeaa 253e 6ad9 42be bc2b 91bd
00000230: bcc0 42bd 00dd 46bc 5ca6 493e d722 733d
00000240: c7d6 a2be 3b64 99bd a210 74bd 4bf5 483e
00000250: 2e4c 1d3d 7bec 2ebe 2560 5b3e 4aec e5bd
00000260: 4820 71be 5f42 91be 7f88 d1bd 64cd 1abe
00000270: 33a1 3fbe 7dd4 333d 8f56 803d 0267 3ebf
00000280: ee08 7bbe 0c84 5cbe 7685 993f 8ea9 03bd
00000290: 2670 5d3e c52f 433e 5a43 a13c 48ad 8f3c
000002a0: c227 2d3d 702d 96bc a0c2 b3bd 6a8d 753e
000002b0: 0442 d43d 08fc 173e 21a8 7bbe 3078 89be
000002c0: da92 4abe f10b 42be e408 12bd 2053 90bd
000002d0: 48b1 85bd d85b 3e3d 00cd 233e 4c5f 33bd
000002e0: 945c 323e 9ac0 83be 58d2 bd3d b7dd 1abe
000002f0: f43b 03be c025 9e3c 806d ab3b 20d6 083e
00000300: d08c b53c 92ab 80bd 17de 82be 644b 3d3e
00000310: e73b 84be 9a28 733e e453 1f3e 846e 343e
00000320: 7dd4 6fbe ecbb 82bd a058 65be f4ef 283e
00000330: cea2 74be 6cc2 35be b0c6 7dbd 4ca8 33be
00000340: ace9 fbbd 8e62 89bd 6d83 13be 363b 5bbe
00000350: 8045 2fbb 36fd e9bd e2a7 82bd 287d 133e
00000360: c6e8 6e3e 5cc2 213e d6bf 4b3e 804f ae3c
00000370: 6c84 c0bd 20d2 923d f881 e23d 7673 6a3e
00000380: 0cc0 51bd 72bf 06be dc38 7dbd 9c58 0c3e
00000390: 27a3 8c3e 2c26 1f3e 008a 0bba 6cfe a43d
000003a0: 0899 2abe ba3b 55be 0055 11bb 20c7 53bc
000003b0: 220f 093e d261 8dbd 5212 5b3e a604 503e
000003c0: 60e9 993c 18f9 5abd 58c3 b4bd e0d0 2ebc
000003d0: 64cb 90bd ec96 1a3e a098 c83c 0692 793e
000003e0: 64b2 c93d 8010 983c 8087 d9bd e65d 8cbe
000003f0: 984d d73d 8459 2d3e fc3e 353e 3ba3 27be
0.027112871 0.027724415 -0.093560025 -0.14980128 0.15711346 -0.116157725 0.23147783 0.25080207
0.042446077 -0.22392188 -0.10448891 -0.1387462 0.030197948 0.24623415 -0.05675885 -0.14046957
-0.25536954 0.17969552 0.100758106 -0.22695734 -0.22458552 0.24587455 -0.18372202 0.037342668
-0.02261731 0.06015244 -0.1205225 -0.14819112 0.1877794 -0.13235028 -0.19598965 -0.18184355
0.1835686 0.09513724 -0.082050994 -0.10926312 0.2309638 -0.18797567 -0.1274869 0.08810231
-0.2531627 -0.22568284 0.046088636 -0.20627424 0.23981413 0.25325844 0.2278265 0.018172413
0.08558127 0.1244466 0.25825837 0.12023741 -0.26419824 -0.16040224 -0.07387479 0.05776611
0.24197128 -0.08932215 0.16953066 0.25403383 0.26164612 0.25359753 0.11909929 -0.13595174
-0.21902286 0.15622973 -0.1944859 -0.21979411 0.10049799 -0.021940589 0.08279145 0.07490924
-0.2170076 -0.26851636 -0.09527561 0.04550177 0.14948663 0.27087155 0.122004926 0.18000889
0.0952405 0.22853395 0.07459453 0.13587275 -0.19600056 -0.06930116 -0.04083301 0.25036678
0.103598386 0.16631213 0.06288123 0.11859968 -0.09822689 -0.22024399 -0.2709154 0.20522842
0.08145487 -0.0980912 0.045569032 -0.24324575 0.22964522 -0.25384998 -0.17945823 0.15088746
-0.026840746 0.21076795 -0.1675618 0.14098135 0.22757557 0.02403012 0.07775283 0.14897093
-0.14707229 0.015198648 -0.23544328 0.22722098 -0.18567127 -0.0023741126 -0.19372307 0.080275714
0.08628374 0.27683094 0.07404593 0.08787051 0.07233617 -0.10326575 0.11055097 -0.12726937
0.16262537 0.07524425 -0.08819659 0.20453644 -0.16507629 -0.20305425 -0.016524822 -0.24241468
-0.18283522 0.16178486 -0.1902825 -0.0708842 -0.047547087 -0.012137651 0.19692367 0.059359398
-0.31804487 -0.074898206 -0.059586175 0.19624822 0.03840273 -0.17082398 0.21423395 -0.11226709
-0.2354747 -0.2837095 -0.10231113 -0.15117413 -0.18713836 0.043903816 0.0626651 -0.7437593
-0.24515125 -0.21534747 1.1993854 -0.03214412 0.21624812 0.19061191 0.019685436 0.017538682
0.042274244 -0.018332213 -0.08777356 0.23979726 0.10364154 0.14842236 -0.24575855 -0.26849508
-0.19782582 -0.18949868 -0.03565301 -0.07047105 -0.06527954 0.046474308 0.1599617 -0.043792054
0.17418128 -0.2573288 0.092686355 -0.1512364 -0.12815839 0.01930511 0.0052315593 0.13362932
0.022161871 -0.062827244 -0.25560066 0.1848579 -0.25826952 0.23745957 0.15559345 0.17620283
-0.23420902 -0.063834995 -0.22397089 0.16497785 -0.2389023 -0.17749947 -0.06195706 -0.17544669
-0.12300429 -0.06708251 -0.14405604 -0.21409306 -0.0026744306 -0.11425249 -0.06379677 0.14403212
0.23330984 0.15796798 0.19897398 0.021278143 -0.094002575 0.071689844 0.11059946 0.22895607
-0.05120854 -0.13158968 -0.061821803 0.13705677 0.27468225 0.15541905 -0.0005322993 0.080563396
-0.1665994 -0.20823565 -0.0022175908 -0.012925893 0.13384679 -0.06903423 0.21393707 0.20314273
0.01878804 -0.05346021 -0.08826321 -0.010669917 -0.07070044 0.15096635 0.02448684 0.2437211
0.098484784 0.018562555 -0.10621548 -0.2741539 0.10512847 0.16928679 0.17699808 -0.16370861

fc1.bias f4 [100]
00000000: 128d 473e aaca 743e 8afd 3c3e 3c41 b93d
00000010: 50e0 5e3e 063c 8bbe 5614 783e b4c7 953d
00000020: e8ef 2f3e 3889 fe3d 108f ba3c ae34 b0bd
00000030: 72b2 f4be d817 e5bd 06ab 6a3e 7c02 f5bd
00000040: 8aa0 41be 3edf 87be 2007 1b3c 3662 6b3e
00000050: 8489 553e 85d1 45be e001 913c 4e95 753e
00000060: 745e 61be dfb5 163f b076 573d 58af 8cbd
00000070: df7d 54be 58d3 533e 8cbf 36be 3935 73be
00000080: 0a05 2bbe f674 063e 9498 443e d054 af3d
00000090: b859 5cbd 10ca d73c 8007 2f3e 4a98 37be
000000a0: 4b21 03be 7321 72be 000e 3c3c 4996 82be
000000b0: c029 c43b 1ff2 8bbe 6fa7 833e b235 80be
000000c0: 73da 7cbf b49f ad3d c435 5c3e 55ec 423d
000000d0: 7603 173e 3e64 a1be 68cc b7bd 50c8 84bc
000000e0: 52e0 25be 09c8 73be 688d d0bd e0f4 523c
000000f0: 0ab6 30be 1488 49be 4265 d4bd 05bc 023e
00000100: 2056 38be 10b9 b63d 2a12 bbbd 54ec 57bd
00000110: 34f0 3fbd c036 fabb 445d 79bf 341f 483e
00000120: 46fd e9bd beb8 2a3e 90f8 043d e43d 27be
00000130: 2421 85bd 354a 88bd 000e 3ebe c4e5 9d3d
00000140: a488 3c3e 997e 903d da26 383e 4eb4 203e
00000150: 8054 8ebc c47e 103e 1c62 9f3d 5c01 583e
00000160: 8361 863e 008f 87ba fc3a acbd 4150 00be
00000170: caed 4fbe 300c d43d 8e3a 76be 80c8 413f
00000180: a6ec 49be f803 edbd 8a08 5b3e a26c 333e
0.19487408 0.23905435 0.18456092 0.090456456 0.21765256 -0.27194232 0.24226508 0.07313481
0.1718136 0.12428516 0.022773296 -0.08603798 -0.47792393 -0.111861885 0.22916803 -0.119633645
-0.18908897 -0.26537508 0.009462148 0.22986683 0.2085324 -0.19318207 0.01770109 0.23982736
-0.22008687 0.58871263 0.052603424 -0.06869382 -0.20751141 0.2068609 -0.17846507 -0.23750772
-0.16701141 0.13130555 0.19198829 0.085610986 -0.0537965 0.026341468 0.17092705 -0.17929187
-0.12805669 -0.23645572 0.011477947 -0.25505283 0.0059864223 -0.2733316 0.2571368 -0.25040966
-0.9877083 0.084777266 0.21504885 0.047588665 0.14747414 -0.3152179 -0.08974534 -0.016208798
-0.16198853 -0.23806776 -0.10183221 0.012875766 -0.17256942 -0.19680816 -0.10370876 0.12767036
-0.18001604 0.089220166 -0.09134324 -0.052715614 -0.046859935 -0.0076359212 -0.9740794 0.19543153
-0.11425261 0.16672036 0.03246361 -0.16332203 -0.06500462 -0.06654779 -0.18560028 0.0770984
0.184115 0.070553966 0.1798357 0.15693781 -0.017374277 0.14110857 0.07782385 0.21094269
0.2624627 -0.00103423 -0.08409688 -0.12530614 -0.20305553 0.10353887 -0.24045774 0.75696564
-0.1971918 -0.115730226 0.21389976 0.17521909

fc2.weight f4 [100, 100]
00000000: ccb4 1dbd 342a 9a3c 0daa a2bd b088 863c
00000010: b05e dd3b d131 d4bb 9a79 933d 3639 973d
00000020: b5cf a2bd deba 853d f4c0 5cbd 796f 953c
00000030: 526b 77bf b679 f53d 40af 10bc 41e9 913d
00000040: f22a 5f3d 60d9 c9bb 14e1 4d3d 4ae9 90bd
00000050: 7486 a63d c331 17bc afde 823d d4d0 84bc
00000060: 6813 4b3d e202 15bd ec11 b4bc dcd1 663d
00000070: a074 62bd 6671 4a3d 5767 9d39 dd48 a1bd
00000080: 3027 71bd 6eed f13d 1ec6 673d 2897 473d
00000090: f2f3 cbbc bbf7 1b3c 6c8b cb3d 6f18 04bd
000000a0: 8474 65bd 84c3 f63c 74ca e93d 586c ca3d
000000b0: 94a6 69bd c4fa c63d 3b5a b2bd e352 933d
000000c0: 864e 41bf ea36 173d fe8a 80bd 145e 673d
000000d0: 0d73 c03d eb57 d0bd 8335 32bd d529 ab3b
000000e0: de09 dbbc 2a0d b63c 75a8 243d 0467 8dbd
000000f0: 886c f73d e9ac 0a3d 5433 97bd 5453 9cbd
00000100: b08f 9cbd de0c 183d 6027 95bd 6178 443c
00000110: 509a 363c dcfe b33b ca7c 4dbf 7e30 ec3d
00000120: 6d06 a2bd 00f8 8e39 6874 ee3d 1e23 5ebd
00000130: 6459 e53c a49a a13b 8042 debb 5808 db3c
00000140: c639 f2bc b1d6 8bbd c497 4c3d d0b0 563d
00000150: 58eb 90bd 0208 963b 815c 943d 5a14 ce3c
00000160: 2a17 873d c389 66bd 5105 a33d 4c26 ca3d
00000170: e8fe 8bbd f830 90bd b813 8e3c fd2a b23f
00000180: d8c0 783c 5e8a 5dbd 1f43 833d 46ae 2bbd
00000190: ba6b a33b 64f6 cc3d 008f 7abd 1673 8e3d
000001a0: 9438 813c f654 cc3d 36af 8b3d ec33 cd3d
000001b0: af98 963d 3609 b13d ff81 2bbd a013 25bc
000001c0: 9b1b 68bf f481 7fbd 10a8 083c a826 90bc
000001d0: 52d0 493d 55eb b1bd 4ffa 1fbd 13f6 95bd
000001e0: ac63 ab3c 6282 b63c 6ec6 723d 5b22 973d
000001f0: 3e37 3abc bfed 5d3e a234 bcbd 5b0c 123e
00000200: f8a3 f23b 80be cbbc f215 c2bc b828 d5bc
00000210: d090 81bd 1580 63bd 3de7 683d 1d3a 72bd
00000220: 6e6d 9ebd 0e7c b23c eaa3 0c3d 32d3 c03d
00000230: 0207 51bc 6f90 9c3d f17b 82bd 46ea e33d
00000240: e1ce 38bd 8d86 413c 52b8 2f3d 97cb 9f3d
00000250: 5733 2cbf d0a1 463c 9bb3 a53d 7416 e9bb
00000260: b7b7 acbd ffd1 60bb 5b74 b9bd 1eb6 8fbc
00000270: e98d 4abd 767e d73b 50a9 c43d d4a5 9fbd
00000280: a2f1 9cbd c6db bf3d f810 ec3d e6d8 b9bd
00000290: d177 193d fb28 1d3d 9ed0 27bd a619 8f3d
000002a0: 404b 46bd 67e6 0abd 17aa 50bf 7851 8bbc
000002b0: b043 53bd 6c7f 88bd fe22 903d 66c5 a73d
000002c0: 5022 b4bd 4621 e63c 4c9a b13c 578b 3f3d
000002d0: 8cd1 733d 26d7 2bbd 8cef 9e3d e61a 9dbd
000002e0: 1eb2 e93d cfd3 04bd a303 51bd 4f3e 2bbd
000002f0: 68fa ca3d e26e 5f3d 4c0b 2c3c 06d0 9ebd
00000300: aefe 98bd 75f8 4f3c dfa3 c63d b6e5 a33f
00000310: 1d17 c63d 349b 0d3d 6531 8e3d a4f5 1d3d
00000320: bb90 9fbd 6095 8eba bd1b 3ebd a5f7 db3d
00000330: 28f2 c6bd 9a41 503c 54e7 983c 459c 933d
00000340: 193f 983d 8028 583d 2115 d83d 1728 f03d
00000350: 79e3 74bf 82c7 6b3d 004f 743c b93a b13d
00000360: f5f5 973d c2c9 a7bd 3212 46bd faa8 603d
00000370: 0c5a 1ebd 46e0 41bd 40f0 413b 9aba 76bd
00000380: 13b1 b13d 559e c73c e46f f03c 0488 12bc
00000390: e314 a4bc 8270 643d acd9 37bc 923f 753a
000003a0: 3644 2e3d eb20 9cbd a06f 62bd 0ffa dd3d
000003b0: 178b 983d 1c86 ec39 95e9 aabc 1639 433d
000003c0: 9652 e23c 4647 94bd a2b5 58bd 82f2 f7bc
000003d0: a277 823c 1ce4 80bd 7529 c83d f2f8 633d
000003e0: 32ce 15bf ec58 ffbc 40db 7b3d e2e9 4d3d
000003f0: 4168 e3bc 7a11 4bbd 3ab1 333d 452b c2bc
-0.0385025 0.018818952 -0.07942591 0.0164226 0.0067556724 -0.006475665 0.07200928 0.07383959
-0.07949773 0.06529783 -0.053894952 0.01824163 -0.9664813 0.11986105 -0.008830845 0.07124568
0.054484315 -0.0061599463 0.05026348 -0.07075746 0.08131114 -0.009228173 0.0639013 -0.016212858
0.049579054 -0.036379702 -0.021981202 0.05635248 -0.055287004 0.04942455 0.00030022368 -0.07875226
-0.058875263 0.11812864 0.056585424 0.04872814 -0.024896596 0.009519513 0.09938702 -0.032249864
-0.05601932 0.030122526 0.11415568 0.09883946 -0.057043627 0.097157985 -0.08708616 0.07193544
-0.7551044 0.036917605 -0.06276511 0.056486204 0.09396944 -0.10173019 -0.043508064 0.0052234926
-0.026738103 0.022223074 0.040199716 -0.06904414 0.120812476 0.033856306 -0.07382837 -0.07633081
-0.07644594 0.037121646 -0.07282901 0.011991591 0.011145189 0.005493028 -0.8026854 0.11532687
-0.07911382 0.00027269125 0.116432965 -0.05423271 0.027996726 0.0049317647 -0.0067828298 0.026737377
-0.029568564 -0.068280585 0.049949422 0.052414715 -0.07076138 0.0045785913 0.07244206 0.025156189
0.06596215 -0.056283724 0.079599984 0.09870586 -0.06835729 -0.0704059 0.017343387 1.3919369
0.015182696 -0.054087035 0.06409287 -0.041914247 0.0049872072 0.10007933 -0.06117153 0.06955545
0.015774049 0.099771425 0.06820528 0.10019669 0.07353341 0.08644335 -0.04187202 -0.01007548
-0.9066712 -0.062379792 0.0083408505 -0.017596558 0.049270935 -0.08687464 -0.039057072 -0.073223256
0.02092155 0.022278968 0.05927127 0.073796 -0.01136571 0.21672724 -0.091897264 0.14262526
0.0074048005 -0.02487111 -0.023692105 -0.026020393 -0.06326449 -0.05554207 0.05686115 -0.059137452
-0.07735716 0.02178767 0.034336008 0.09415282 -0.012758018 0.07644736 -0.06371296 0.111286685
-0.04511917 0.011811865 0.04290039 0.078025036 -0.6726584 0.01212354 0.08090898 -0.0071132723
-0.08433478 -0.0034304855 -0.09055396 -0.017542895 -0.049451742 0.0065763546 0.09602606 -0.07795301
-0.07663275 0.0936809 0.11526674 -0.09074573 0.03746778 0.03836916 -0.040970437 0.06987314
-0.048411608 -0.033911135 -0.81509537 -0.01700662 -0.051578224 -0.06664929 0.07037924 0.08191948
-0.08795607 0.028092038 0.02168002 0.046763744 0.05952601 -0.04195323 0.07760534 -0.07671146
0.11410926 -0.03242856 -0.05102886 -0.04180747 0.099110425 0.054549105 0.01050074 -0.07754521
-0.07470451 0.012693514 0.09699225 1.2804477 0.09672377 0.03457184 0.06943015 0.03856434
-0.07791277 -0.0010878257 -0.046413172 0.10740594 -0.097141564 0.012710953 0.018664993 0.072075404
0.0743391 0.052773 0.10550905 0.117263965 -0.95659596 0.057563312 0.014911413 0.086537786
0.074199595 -0.08192779 -0.048357196 0.05484865 -0.038660094 -0.047333024 0.0029592663 -0.06023655
0.08676352 0.02436749 0.029350229 -0.008943561 -0.02002949 0.05577136 -0.011221331 0.0009355481
0.04254552 -0.07623466 -0.055282235 0.108387105 0.07448404 0.00045113347 -0.020863334 0.047661863
0.02762727 -0.07240157 -0.052907594 -0.030267004 0.015926186 -0.062935084 0.09773532 0.055657335
-0.58517754 -0.031170331 0.06148839 0.050271876 -0.027759673 -0.049577214 0.04387019 -0.023702273

fc2.bias f4 [100]
00000000: fda6 0cbd c118 8dbd e79c 08bc 3b2b ce3c
00000010: b653 edbc b75f ccbd e58c 623d cf57 b2bc
00000020: 85bc 493d 32f8 93bd 62a4 173d 498e 4e3c
00000030: 933c 33bd 1bfe 85bd 98a2 c6bd 3f5d f7bc
00000040: 45d7 833d a18c 083d 0194 c63c 1b92 a8bd
00000050: b11f 6d3d d34a 9bbd 870a 9cbd 58c0 7f3d
00000060: 603e ab3c d731 cb3c 2383 813d fd24 893d
00000070: 1f97 603d 4f1f ed3c d806 1e3d c914 f63c
00000080: 3420 a0bd 4d5f 993d eba1 723d 5248 483d
00000090: 9778 be3d 0e78 8dbb 459d 143d 066e 973d
000000a0: ceed f9bc 85c6 953d 7d18 56bd 0f71 8b3d
000000b0: fa79 9b3d 31b0 71bd 3f1b a4bd 2685 8bbd
000000c0: 90fd 2a3d 6674 cbbd 1441 a2bd f7a0 a9bd
000000d0: 332e d8bb 7f74 7f3d 20a8 803c 29a8 913c
000000e0: 7f52 98bb 571c babc ad43 da3c 8879 81bb
000000f0: 6ca7 aabd 0ba9 983d 642c ecbd 32e3 0fbd
00000100: e6ad 993d d817 7bbd 94ed d9bc e0db 82bd
00000110: 75c0 81bd 56de 833b 3f1a 47bc abe0 a93d
00000120: ba33 8b3d 84c2 35bd 08d3 06bd 6086 eabc
00000130: c0f5 6bbd 52d7 45bd 8c51 5c3d 1191 8dbd
00000140: 6427 d4bc f9d0 903d ba0d b43d 1dc7 b73d
00000150: e7a8 46bd d795 983d e918 e3bd 71dd 7dbd
00000160: ec84 883d 8dcf 933d 15a8 babd a883 39bd
00000170: 1625 4e3c 7d93 603d 1128 cebc a31f 46bd
00000180: e4d4 16bc 383e bcbc 8e56 babd 3ffb 8fbd
-0.03433894 -0.06889487 -0.00833819 0.025167098 -0.02897058 -0.09979194 0.05531015 -0.021770386
0.04925205 -0.07225074 0.037022002 0.012607166 -0.04375894 -0.065426074 -0.09698981 -0.03019583
0.06437544 0.03333724 0.024240496 -0.082309924 0.05789155 -0.07582631 -0.076191954 0.062439293
0.020903766 0.024804039 0.063238405 0.06696508 0.05483162 0.028945593 0.038580745 0.030039208
-0.07818642 0.0748888 0.05923645 0.048897095 0.093003444 -0.00431729 0.036282796 0.07394032
-0.030508902 0.07313255 -0.052269448 0.068086736 0.075916246 -0.05900592 -0.08013009 -0.068125054
0.041745722 -0.099343106 -0.07922569 -0.08282655 -0.0065973043 0.06236696 0.015705168 0.01778038
-0.004648506 -0.022718592 0.026643598 -0.003951255 -0.083327144 0.074541174 -0.11531904 -0.03512878
0.075038716 -0.061302036 -0.026602544 -0.06389594 -0.063355364 0.0040243072 -0.012152254 0.08294805
0.067969754 -0.044374958 -0.0329161 -0.028628528 -0.057607412 -0.04830105 0.053788707 -0.06912435
-0.02589769 0.07071108 0.08791681 0.08973525 -0.04850092 0.07450455 -0.110887356 -0.06197876
0.06665978 0.072173215 -0.0911409 -0.045291573 0.012582084 0.054828156 -0.02516559 -0.048370015
-0.0092060305 -0.022978887 -0.0909854 -0.07030343

fc3.weight f4 [3, 100]
00000000: ffc5 03bf 3fd5 cabe 839c f1be e88d 9e3e
00000010: 58c1 a03e 5d82 67be 5bea cbbe 9c1b 1b3f
00000020: d4f2 d73e 9b58 d0be 81c9 a3be ccfe b7be
00000030: aa29 ab3e 7bb9 163f bc57 993e db12 033f
00000040: db2d a3be dfb0 e3be e7eb dcbe 8c3c 4e3d
00000050: ef90 f8be d711 c5be a349 cc3e 3bee 4c3e
00000060: c44c c4be e260 bbbe e909 a5be 4313 623e
00000070: a5cd e9be 951c 9f3d c389 f53e 2a96 ef3e
00000080: 6e34 9b3e b2b2 c8be 68e5 a13e 7702 e03e
00000090: c066 6d3d c22f a2be ae11 9b3e 27c3 f73e
000000a0: ca46 8cbe 7aeb debe 56ea b33e 1430 e9be
000000b0: 2ef0 a6be 80a1 85be 8725 bfbe 50f1 c03e
000000c0: 9191 ba3d c89a 9bbe 80dc b03e 8e10 1e3e
000000d0: cd6e 433e e33e eabe 2420 eabe 9b37 8fbc
000000e0: 9955 f7bd 82d2 b2be 5b92 abbe d5d9 a9be
000000f0: 1acf aabe 0e5f f53e 5cb1 d73e aac8 483e
00000100: 6e88 02bf afa2 993e a46a e8be bc28 34be
00000110: d37f 8c3e d237 023f a9a5 763e ca70 bf3e
00000120: cf9f 5fbc 3fe4 5a3e 006e f7be 3a91 ee3e
00000130: 9598 943e ef5a 3dbe f273 9e3e f396 aebe
00000140: d5f7 e6bd 02d7 bd3e 4395 c13e b55f d0be
00000150: 851c a33e 0ce7 18be 34de 5b3d e7f8 c73e
00000160: 0cf7 8fbe c7da acbe 5c69 983d 1582 e7be
00000170: ac8b 093f 1a62 d6be eb65 f2be c9f5 ab3e
00000180: e75c 853e 650a 67be 533f 013f 20d6 eabe
00000190: 4aa8 9c3e 66aa c43e a52d 9c3e 1a78 f0be
000001a0: 39fe 263e 3f16 ce3e 80e4 ba3e 4469 993b
000001b0: af7c 0dbe 47bd 8d3e d024 253f 3a7a 713e
000001c0: 2936 5f3e 5e9c debe 8162 21bf 72f1 fcbe
000001d0: 2384 513e b36f 833e e040 b23e 5095 833e
000001e0: 42ef 853e 3537 6c3e 2061 52be c98e 01bf
000001f0: 9404 993e 19ce 81be 760f babe c23d e0be
00000200: 4543 b73e 9511 debe d9b5 23bf f681 0abf
00000210: 410a dabe 2a65 db3e 1dbc ba3e beac 1bbf
00000220: a97b c1be 7994 a73e b258 f2be 12e0 22bf
00000230: b50a b23e 5171 e73e 485a 063e d643 253f
00000240: 08ee 003f cb1a d63e c10f d23e c4e0 10bf
00000250: 490e 06bf 44b7 c0be 9791 06bf cfc4 8d3e
00000260: 82e3 f23e 72d1 d2be 853a 323e d74f efbe
00000270: b16c 063f ab76 d63e 0c59 bd3e 2370 043f
00000280: 9774 b5be 5ab6 13bf 9b17 fcbe c320 a43e
00000290: e10b 6ebe b8e9 b03e 6541 563e 33d4 16bf
000002a0: 5fa6 c33e 1380 1fbf 739a e4be cd88 11bf
000002b0: 4ff2 f4be 4191 943e b749 363e d7f3 81be
000002c0: 1b17 a23e efb5 df3e 3640 3a3e 166b c1be
000002d0: 7e2e ebbe 3eb1 e2be df3f 0dbf 3c5d e33e
000002e0: 7ee4 953e abe4 c7be 076d 6a3e ff61 cd3e
000002f0: 70f6 6b3e a621 ab3e 3d3c 033d 8023 a5be
00000300: 889a 19bf 7477 c63e e4f8 233f 8117 613e
00000310: 48a2 15bf 2868 853e eea1 0cbf aaa7 ae3e
00000320: bdf6 4d3e 17c8 303e d853 423e 847a 433e
00000330: 60f4 3cbf 0b57 72bd 250e 193e dfdd 36bf
00000340: d9d7 fabe 079c 643e eb25 a2be 9c9d 233e
00000350: 1338 3bbf fa6b 8cbe 85c2 32bd 19c0 d3bc
00000360: 8f06 0b3e 4cd7 3d3e 19c5 8f3e 4794 85bd
00000370: 8db8 b13e 7651 073e 274d c8be e68f 9b3e
00000380: ed7f 953d 5426 193f 1347 1e3f ac99 683e
00000390: 36dd 843d 7250 a13e c666 1e3e 1256 35bd
000003a0: b213 57bd 5493 263d 92cd 26bf 41c5 213e
000003b0: fea8 8e3e b0d8 75bd 7353 383c 7978 2bbe
000003c0: e5a1 24be f50e 023d d17d 01bf 81ab 05be
000003d0: c300 a2bd be62 bbbc eaa5 c03d 23e7 cc3d
000003e0: 1c11 c83e eb5e 173f f573 02be 75fc 3dbf
000003f0: 309d 2abf 61c2 4d3f 0072 823e c30b bb3e
-0.51473993 -0.3961582 -0.4718972 0.3096764 0.3139751 -0.22608323 -0.39827237 0.60589004
0.4217745 -0.406926 -0.31989673 -0.35936582 0.33430225 0.5887677 0.2994975 0.51200646
-0.31870922 -0.4447088 -0.4314873 0.05035071 -0.48548076 -0.38490173 0.3989993 0.20012753
-0.38339818 -0.36597353 -0.32234123 0.2207766 -0.45664707 0.077691235 0.47956666 0.46794254
0.30313438 -0.39198834 0.31620336 0.4375188 0.05795932 -0.3167706 0.30286926 0.48391077
-0.27397758 -0.4353903 0.35139722 -0.45544493 -0.32605118 -0.26099777 -0.3733332 0.37684107
0.09109796 -0.30391526 0.34543228 0.15436003 0.19085236 -0.45751104 -0.45727646 -0.01748257
-0.12076873 -0.3492623 -0.33510098 -0.33174005 -0.3336113 0.47924083 0.42127502 0.19607797
-0.50989425 0.3000693 -0.4539386 -0.17593664 0.27441272 0.50866425 0.24086632 0.3739074
-0.013648941 0.21376131 -0.4832611 0.46595174 0.2902266 -0.1849172 0.30947834 -0.3409954
-0.11277739 0.370781 0.3780919 -0.4069802 0.31857696 -0.14931887 0.053678706 0.39057085
-0.2811817 -0.33760664 0.07441971 -0.45216432 0.5372875 -0.4187172 -0.47343382 0.33585957
0.2604744 -0.22562559 0.5048725 -0.4586649 0.30597144 0.38411254 0.30503574 -0.4696663
0.16307916 0.40251347 0.36502457 0.004681738 -0.13817094 0.2768347 0.64509296 0.23581782
0.21798004 -0.43478674 -0.6304093 -0.49402958 0.20460562 0.25671157 0.3481512 0.25699854
0.26159102 0.23067935 -0.20544863 -0.506085 0.29886305 -0.25352553 -0.3633992 -0.43797117
0.3579351 -0.4337279 -0.6394935 -0.54104555 -0.42585948 0.4285062 0.36471644 -0.6081046
-0.37789658 0.32730463 -0.47333294 -0.63623154 0.34773794 0.4520364 0.13120377 0.64556634
0.50363207 0.41817316 0.41027644 -0.56592965 -0.5236555 -0.3763982 -0.525659 0.27689216
0.474392 -0.4117542 0.17405136 -0.467406 0.525096 0.4188741 0.36982 0.5173361
-0.35440513 -0.5770012 -0.4923676 0.32056245 -0.23246719 0.34553313 0.20923384 -0.5891754
0.3821287 -0.623048 -0.44649085 -0.56849366 -0.47841117 0.2901707 0.17801557 -0.25381348
0.31658253 0.43693492 0.18188557 -0.37777013 -0.45933908 -0.4427585 -0.55175585 0.4440707
0.29275888 -0.39041647 0.22893153 0.40113828 0.23043227 0.3342411 0.03203987 -0.32253647
-0.6000142 0.3876301 0.6405165 0.21981622 -0.58450747 0.26056027 -0.54934585 0.34112293
0.20113654 0.17263828 0.18977296 0.19089705 -0.73810387 -0.059165042 0.14946802 -0.714323
-0.48992804 0.22325145 -0.31669554 0.15978092 -0.7313244 -0.2742613 -0.04364254 -0.025848435
0.1357672 0.1853916 0.2808006 -0.06522422 0.34711114 0.13214669 -0.39121363 0.30383223
0.072997905 0.5982411 0.618272 0.22714871 0.06487505 0.31506687 0.15468892 -0.044271536
-0.052509017 0.040667847 -0.65157425 0.15797903 0.27863306 -0.060021102 0.011250365 -0.16745175
-0.16077383 0.031752545 -0.50582606 -0.13053705 -0.079103015 -0.022874232 0.094066456 0.10005023
0.39075553 0.5912921 -0.12739547 -0.74213344 -0.666461 0.80374724 0.254776 0.3653241

fc3.bias f4 [3]
00000000: 8681 263d c8d1 13be f63a 093e
0.040650867 -0.14435494 0.13401398
