models/home_state_dict.pt (torch, 49439 bytes, 6 tensors)

fc1.weight f4 [100, 13]
0	0xbd83ae8e	-0.06429778
1	0xbd7aa215	-0.06118973
2	0xbdd430d9	-0.103608795
3	0x3ea478c6	0.32123393
4	0xbde85992	-0.11345209
5	0xbf21ca29	-0.63199097
6	0xbfa587a1	-1.2932016
7	0xbd7b5fa7	-0.061370518
8	0xbf5c4bb7	-0.8605303
9	0x3f0d7cbe	0.55268466
10	0xbcb1cf5e	-0.021705326
11	0xbf0efbf1	-0.5585318
12	0xbd8a34b5	-0.06748334
13	0xbd9103cf	-0.070808046
14	0xbe1ac6e5	-0.15114935
15	0xbe94623d	-0.289812
16	0xbe8f9d72	-0.2804981
17	0xbea2c8b4	-0.3179375
18	0xbe83f79d	-0.2577485
19	0x3e52f3c8	0.20600808
20	0xbf042910	-0.51625156
21	0x3d929967	0.071581654
22	0xbe34ae13	-0.17644529
23	0x3e01e1d9	0.1268381
24	0x3e41660d	0.18886586
25	0x3c9cc5ae	0.01913723
26	0xbdd5abc0	-0.10433149
27	0xbdfb85b8	-0.12281364
28	0x3e815825	0.2526256
29	0x3e03f918	0.1288799
30	0xbe221e2f	-0.15831827
31	0xbd52f124	-0.0514995
32	0xbe680fbe	-0.22662255
33	0xbde670a4	-0.11251953
34	0xbd8fdb30	-0.070242286
35	0x3d6f8ed8	0.058485836
36	0x3e84f53f	0.25968358
37	0xbe51c21c	-0.20484203
38	0xbe07daa3	-0.13266997
39	0xbe4eabb4	-0.20182687
40	0x3e7d3882	0.24728587
41	0xbe2bf108	-0.16791165
42	0xbe0b21d6	-0.13587126
43	0xbe758de7	-0.23979913
44	0xbd938342	-0.0720277
45	0xbe4692c6	-0.19391927
46	0xbe84cb38	-0.25936294
47	0xbe5abdf0	-0.21361518
48	0x3e24fa84	0.16111189
49	0xbc6d31a0	-0.014477164
50	0xbe076aac	-0.13224286
51	0xbe4ccfd2	-0.20001152
52	0xbe370eba	-0.17876711
53	0x3ea8bf18	0.32958293
54	0xbe823dea	-0.25437862
55	0xbe9ac338	-0.30227065
56	0xbdf22be2	-0.11824776
57	0xbe9c159c	-0.30485237
58	0x3e1a1cf6	0.1505011
59	0x3e0f6baa	0.14005914
60	0xbe5941c7	-0.21216498
61	0x3ea2a693	0.3176771
62	0xbe31e3b3	-0.17372017
63	0x3d471bfe	0.04861068
64	0xbd4432d8	-0.04790005
65	0xbdc10e4c	-0.09426555
66	0xbdd87c64	-0.10570601
67	0xbd37b7e4	-0.044853106
68	0x3cf4bbd0	0.029874712
69	0x3d919540	0.07108545
70	0x3e8a09e3	0.26960668
71	0x3dcac4e4	0.09900835
72	0xbe5cf317	-0.21577106
73	0x3a0cc600	0.00053700805
74	0xbe2cbe2c	-0.1686942
75	0xbda5cfce	-0.08096276
76	0xbdd75c42	-0.10515644
77	0x3e8ceefd	0.27526084
78	0x3db463bc	0.08808085
79	0x3d3353f0	0.04378122
80	0x3db6bb60	0.08922458
81	0xbdccd30c	-0.100011915
82	0xbd29f238	-0.041490763
83	0x3a65ec00	0.00087708235
84	0xbc7eba20	-0.015547305
85	0x3e4bbd8c	0.19896525
86	0x3dd4f1c4	0.10397676
87	0x3e44cf78	0.19219768
88	0xbe8be808	-0.27325463
89	0xbd9f8234	-0.07788506
90	0x3e2820f4	0.1641882
91	0x3ddc17e0	0.10746741
92	0xbe06aee8	-0.13152659
93	0xbd545628	-0.051839978
94	0xbe883d61	-0.26609328
95	0xb99f3400	-0.00030365586
96	0x3dbd55e0	0.09244895
97	0x3d92e7cc	0.07173118
98	0x3e071e82	0.13195232
99	0xbd8a133a	-0.067419484
100	0xbe8cdad6	-0.2751071
101	0x3c081440	0.008305609
102	0x3e82d0e3	0.25549993
103	0x3e5c004e	0.21484491
104	0xbe27e239	-0.16394891
105	0x3e511630	0.2041862
106	0x3e0734a0	0.13203669
107	0xbe0064cb	-0.1253845
108	0xbdacf8e6	-0.08445911
109	0xbe2f4634	-0.17116624
110	0x3cd25ec0	0.025679946
111	0x3e3604c2	0.17775252
112	0xbe7b91b0	-0.24567294
113	0x3e3c4288	0.18384755
114	0xbe2142a2	-0.15748075
115	0x3a6dbc00	0.00090688467
116	0x3e21cb0a	0.1580011
117	0xbdf3bdd0	-0.11901438
118	0x3ce56f00	0.02800703
119	0xbe8df578	-0.2772634
120	0x3e60e91a	0.21963921
121	0xbdd0ac5e	-0.101891264
122	0x3e7f9b22	0.24961522
123	0x3ddd2508	0.10798079
124	0x3ca49d50	0.020094544
125	0x3e852c01	0.26010135
126	0xbe8519f4	-0.25996363
127	0xbe17aaa1	-0.14811184
128	0xbc252960	-0.010080665
129	0x3e38b100	0.1803627
130	0x3be542ee	0.006996504
131	0x3e5ebe68	0.21752322
132	0xbd7ece2c	-0.06220834
133	0x3e30b161	0.17255165
134	0xbbb917e1	-0.0056485985
135	0xbe80d14a	-0.25159675
136	0x3c6f1a4f	0.014593675
137	0x3e13cef8	0.14434421
138	0x3df5a004	0.11993411
139	0x3e815a55	0.2526423
140	0xbe5ac96e	-0.21365902
141	0xbe3f8c5d	-0.18705888
142	0xbdc85812	-0.09782423
143	0x3d0a5d90	0.033780634
144	0xbc0d3b20	-0.0086200535
145	0xbd211c00	-0.039333344
146	0xbe204a42	-0.15653327
147	0x3d6eedb8	0.058332175
148	0x3e5258ae	0.20541641
149	0xbd8dd448	-0.06925255
150	0x3bbd5440	0.0057778656
151	0x3dd70d1c	0.10500547
152	0x3d94f290	0.072728276
153	0x3d019788	0.031638652
154	0xbd8587de	-0.06520055
155	0x3e824c99	0.25449064
156	0x3df46d48	0.11934906
157	0xbe8bff07	-0.27343008
158	0xbc745180	-0.014912009
159	0x3e411298	0.18854749
160	0x3e004ede	0.12530085
161	0xbc9a22d0	-0.018815428
162	0x3e0af524	0.13570076
163	0x3e38ed3e	0.1805925
164	0xbe7ae0e8	-0.24499857
165	0xbe59aa86	-0.21256456
166	0xbdad21dc	-0.08453724
167	0x3e2b5224	0.16730553
168	0x3e75ea3e	0.24015138
169	0xbe04d4be	-0.1297178
170	0xbe1f3b28	-0.1554991
171	0xbd2b01d8	-0.041749805
172	0xbe1e5a12	-0.15464047
173	0x3e822bbb	0.2542399
174	0xbe1f4812	-0.15554836
175	0x3df31510	0.11869252
176	0x3df6bebc	0.120480984
177	0xbe074119	-0.13208427
178	0x3b2e9780	0.0026640594
179	0x3e819c85	0.25314727
180	0x3e13f6be	0.14449593
181	0x3ca86400	0.020555496
182	0x3e5199db	0.20468847
183	0xbf193bd7	-0.59856933
184	0x3dfb536c	0.12271771
185	0x3bbe20d0	0.0058022514
186	0x3d17e546	0.037083887
187	0x3f486450	0.78278065
188	0x401f7dfe	2.492065
189	0x3f17e9ef	0.5934133
190	0x3f8a7878	1.0818014
191	0xbf4dfaa8	-0.80460596
192	0x3faf00c0	1.3672104
193	0x3fbd061c	1.476749
194	0x3e094a70	0.13407302
195	0x3e22f8a2	0.15915158
196	0xbe12f6f9	-0.14352025
197	0x3e5198d5	0.20468457
198	0x3e330303	0.17481618
199	0x3d254512	0.040349074
200	0x3e452e55	0.19255956
201	0xbd74260d	-0.0596066
202	0x3e9ba92c	0.30402505
203	0x3e83bb4e	0.2572884
204	0xbd880305	-0.06641201
205	0x3e386271	0.18006302
206	0x3d1954c8	0.03743437
207	0x3d80029e	0.06250499
208	0x3e32888c	0.17434901
209	0x3c8ebaf0	0.017423123
210	0xbe26248c	-0.16224879
211	0x3e235c66	0.15953216
212	0x3e449852	0.1919873
213	0x3e50d16e	0.20392391
214	0x3e1e05ae	0.15431854
215	0xbe8ceb07	-0.27523062
216	0xbe6a908d	-0.22906704
217	0xbdf9051c	-0.12159178
218	0xbe7f3ff4	-0.2492674
219	0xbe28def8	-0.16491306
220	0xbe8a3ff5	-0.2700192
221	0xbd7ac808	-0.06122592
222	0x3e81a0bf	0.25317952
223	0xbdf0d084	-0.11758521
224	0xbdb4366a	-0.08799441
225	0x3e84a497	0.25906822
226	0xbb9c9bc0	-0.004779309
227	0x3da25468	0.079262555
228	0x3e8c5c67	0.27414247
229	0xbce06f60	-0.027396858
230	0x3cd87f10	0.026427776
231	0x3e2e7df4	0.17040235
232	0x3e2c3f08	0.1682092
233	0x3dbc7604	0.09202197
234	0x3e825fc2	0.25463682
235	0x3e9ea59d	0.30985728
236	0xbc12ecaf	-0.008967563
237	0x3e407c18	0.18797338
238	0xbe539fcf	-0.20666431
239	0x3e5a9ab2	0.21348074
240	0xbe16d06d	-0.14727946
241	0x3e88ff69	0.26757362
242	0x3e009651	0.12557341
243	0xbe1ac5f7	-0.1511458
244	0xbcc29c0f	-0.023756055
245	0xbe575ec6	-0.21032247
246	0x3e1cd6ce	0.15316316
247	0xbe7bc1da	-0.24585667
248	0x3e604b1c	0.21903652
249	0xbd983128	-0.07431251
250	0xbe228eed	-0.15874834
251	0x3e1aeb1a	0.15128747
252	0xbe5952b0	-0.21222949
253	0xbd3705d4	-0.044683293
254	0x3e8a92e9	0.2706521
255	0x3c88ede0	0.01671499

fc1.bias f4 [100]
0	0xbca1a9fa	-0.019734371
1	0xbe7ba20a	-0.24573532
2	0xbe1997d6	-0.14999327
3	0x3c9b4b60	0.01895684
4	0xbd95c10e	-0.07312213
5	0xbcae5f60	-0.021285713
6	0xbe5469f8	-0.20743549
7	0x3e38be58	0.1804136
8	0xbde63916	-0.11241357
9	0x3df1df30	0.11810148
10	0x3d5084b0	0.05090779
11	0x3c963400	0.018335342
12	0x3d202040	0.039093256
13	0x3d2c7a58	0.042108864
14	0x3e46170e	0.19344732
15	0x3eb561f7	0.35426304
16	0x3e4092de	0.18806025
17	0xbe73ce3c	-0.23809141
18	0x3e114159	0.14185084
19	0x3e435a12	0.19077328
20	0xbdd7f7c4	-0.105453044
21	0xbd0ea784	-0.034827724
22	0x3e056538	0.13026893
23	0x3e468428	0.19386351
24	0xbd50e6f4	-0.051001504
25	0x3e49f510	0.1972239
26	0xbe3c4ab2	-0.18387869
27	0x3e9e1aee	0.3087992
28	0x3e10ea3e	0.14151856
29	0x3f7536f8	0.95787
30	0x3de18f20	0.11013627
31	0xbe4f3a1b	-0.20237009
32	0x3d03b2e8	0.03215304
33	0x3e7cdede	0.24694392
34	0x3b00d800	0.0019659996
35	0x3ea36953	0.31916294
36	0x3d9675b8	0.07346672
37	0x3db1372b	0.086531006
38	0xbb8e3640	-0.004339963
39	0xbd0c3224	-0.034227505
40	0x3dcc5aa0	0.09978223
41	0xbe60c106	-0.21948633
42	0xbd0227cc	-0.031776235
43	0xbe69a9a1	-0.22818615
44	0x3e4c713c	0.1996507
45	0xbdf6e3b4	-0.1205515
46	0xbe891d05	-0.26779953
47	0x3d4ff288	0.050768405
48	0xbe28410f	-0.16431068
49	0x3d5eb528	0.054371983
50	0x3cd53360	0.026025474
51	0xbd57d048	-0.052688867
52	0x3e4a170c	0.19735354
53	0x3da9107c	0.08255097
54	0x3d2feaf8	0.042948693
55	0xbd947568	-0.07248956
56	0x3c4c8500	0.012482882
57	0x3effe625	0.49980274
58	0x3e6921a6	0.22766742
59	0x3d1a81e8	0.037721545
60	0xbe236c29	-0.15959229
61	0x3e693666	0.22774658
62	0xbe0eb891	-0.13937594
63	0xbe74b5de	-0.23897502
64	0xbde1a71e	-0.11018203
65	0xbba2c0c0	-0.0049668252
66	0x3fa842b4	1.3145356
67	0xbb32d400	-0.0027287006
68	0x3daa8827	0.0832675
69	0xbe5febe4	-0.21867329
70	0xbded9380	-0.11600399
71	0x3e37dcf0	0.17955375
72	0x3c49bb00	0.012312651
73	0x3dabbaa2	0.08385207
74	0x3e2f01de	0.17090556
75	0xbe122083	-0.14270215
76	0xbe3836e8	-0.17989695
77	0x3edf4480	0.4360695
78	0x3e4eb0f4	0.2018469
79	0x3ce36a13	0.027760541
80	0x3cd9e1f0	0.026596993
81	0xbe81e708	-0.25371575
82	0xbdbf7394	-0.09348217
83	0xbe97f1a7	-0.29676554
84	0xbda465e2	-0.08027245
85	0xbe6dd2ce	-0.23224947
86	0x3d9bcf54	0.07607904
87	0x3ed22df0	0.41050673
88	0xbe00266b	-0.12514655
89	0x3e788256	0.24268469
90	0xbe7899be	-0.24277398
91	0xbddb3e24	-0.10705212
92	0xbed627ed	-0.41827336
93	0xbea4d5b6	-0.32194299
94	0xbdfe6630	-0.124218345
95	0x3a6cb753	0.0009030003
96	0xbe63bfa7	-0.22241078
97	0xbe5824de	-0.21107814
98	0x3e716c26	0.23576412
99	0xbdcb51ee	-0.09927736

fc2.weight f4 [100, 100]
0	0x3f58e015	0.8471692
1	0xbe4099cd	-0.1880867
2	0xbc648c40	-0.013949454
3	0xbdb1b58f	-0.08677208
4	0xbce47dd9	-0.02789204
5	0xbd53d885	-0.05172016
6	0xbdbe5b76	-0.092947885
7	0xbde054db	-0.10953685
8	0xbdc3a3b1	-0.09552706
9	0xbdd8ddc3	-0.10589173
10	0xbdb15edf	-0.08660673
11	0xbd185bd9	-0.037196968
12	0xbd601888	-0.054710895
13	0x3cdf431c	0.02725368
14	0xbe85fb29	-0.26168182
15	0x3d5fd083	0.05464221
16	0xbd1b704a	-0.037948884
17	0xbdc1ffef	-0.094726436
18	0xbd756fc5	-0.059921045
19	0x3b16e9fc	0.002302765
20	0x3c243378	0.010022037
21	0xbcf17436	-0.029474359
22	0xbdee9c55	-0.11650912
23	0xbddbd33d	-0.1073365
24	0xbe207b46	-0.15672025
25	0xbcb5a4bd	-0.02217328
26	0xbd892212	-0.066959515
27	0x3eadbde5	0.3393394
28	0xbc8df178	-0.017327055
29	0x3fda3407	1.7047127
30	0xbd1ec1f1	-0.038759176
31	0xbc5db8a8	-0.013532795
32	0xbd1ed50d	-0.0387774
33	0x3d818a97	0.06325262
34	0xbd0d0c64	-0.034435645
35	0xbe040e40	-0.12896061
36	0x3c5c8fc9	0.013462015
37	0x3d89eb5a	0.06734343
38	0xbe040341	-0.12891866
39	0xbdbecd27	-0.093164735
40	0xbd9b4b68	-0.07582742
41	0xbc68a7ad	-0.014200133
42	0xbcf5ed4c	-0.030020379
43	0xbe1b28c9	-0.15152277
44	0xbdb82755	-0.08991877
45	0xbcda00ae	-0.026611652
46	0x3de7057f	0.11280345
47	0x3c29af50	0.010356739
48	0xbd4cc4e7	-0.04999247
49	0xbdb84b65	-0.08998755
50	0x3d01f002	0.03172303
51	0xbdf8885d	-0.12135384
52	0xbd1d4f1d	-0.038405526
53	0xbe022221	-0.12708332
54	0xbda528d1	-0.08064426
55	0x3ca53098	0.020164773
56	0xbe27b2e7	-0.1637684
57	0x3f171070	0.59009457
58	0xbd844191	-0.06457818
59	0xbbe1e338	-0.0068935417
60	0x3ce176e8	0.02752252
61	0x3d8f7bb1	0.07006014
62	0xbd096b26	-0.03354945
63	0xbcc38d2e	-0.02387103
64	0xbd9c2c99	-0.07625694
65	0x3c97b1cc	0.018517397
66	0x3f213d70	0.6298437
67	0xbd8e841e	-0.06958793
68	0x3d38533f	0.045001265
69	0x3ca6aa0c	0.020344757
70	0xbd3f9897	-0.04677638
71	0x3d17ac46	0.037029527
72	0xbdd74551	-0.10511268
73	0x3bd0692a	0.006360193
74	0x3d76a6b4	0.060217574
75	0xbd2c59e5	-0.042077918
76	0xbea158c6	-0.3151304
77	0x3f932cf1	1.149809
78	0xbe01a723	-0.12661414
79	0x3e89f7c5	0.26946846
80	0xbe143c7b	-0.14476196
81	0xbd2bc2b5	-0.041933734
82	0xbc7385fd	-0.014863488
83	0xbc5354e9	-0.012898662
84	0x3cac9154	0.021065392
85	0xbd856701	-0.06513787
86	0x3be7dc5c	0.0070758294
87	0x3f18442b	0.59479016
88	0xbbb20050	-0.005432166
89	0xbd17ddd5	-0.03707679
90	0xbce41ee0	-0.027846754
91	0xbdd546e5	-0.10413913
92	0xbf74a67e	-0.95566547
93	0xbe225498	-0.15852582
94	0xbdce4955	-0.10072581
95	0xbe228024	-0.15869194
96	0xbdeaca95	-0.11464421
97	0xbd6c8be8	-0.057750612
98	0xbd859afb	-0.06523701
99	0xbe212290	-0.15735841
100	0xbf75f776	-0.9608072
101	0x3e0f7044	0.1400767
102	0xbd18cb74	-0.037303403
103	0x3d127d8e	0.03576427
104	0xba8df2e0	-0.0010829829
105	0xbe70c361	-0.23512031
106	0xbe3f1313	-0.1865962
107	0xbe50a531	-0.20375516
108	0xbe66bcd7	-0.22532974
109	0xbe8768af	-0.26447055
110	0x3db06c2d	0.08614383
111	0xbe3b1ec7	-0.1827346
112	0xbe77c31d	-0.24195524
113	0xbdbe8814	-0.093032986
114	0x40046b3a	2.0690446
115	0x3e29b8da	0.16574422
116	0xbc8a3908	-0.016872898
117	0xbe0a8a0a	-0.1352922
118	0xbdf80db4	-0.12111989
119	0xbe258f3d	-0.16167922
120	0xbdaec4cd	-0.085336305
121	0xbe50e485	-0.20399673
122	0xbe09c346	-0.13453397
123	0xbe8847c8	-0.26617265
124	0xbe75d2ef	-0.24006246
125	0xbd9ed804	-0.077560455
126	0x3d665dee	0.056241922
127	0xbef6dcdf	-0.48215386
128	0x3d47d332	0.048785396
129	0x3f2cb471	0.6746283
130	0xbdc544b1	-0.096322425
131	0x3bf09bb1	0.0073427786
132	0xbd9edb08	-0.07756621
133	0x3d5e4372	0.05426354
134	0xbe3832d1	-0.17988135
135	0xbe75f52f	-0.24019311
136	0xbe840dfc	-0.2579192
137	0x3d82290c	0.06355485
138	0xbe81c7b1	-0.25347665
139	0xbdc7973d	-0.09745643
140	0xbdcf2de5	-0.101161756
141	0x3be58d84	0.0070053954
142	0xbd9cd760	-0.07658267
143	0xbe514e21	-0.2043996
144	0x3d98cdb1	0.074611075
145	0xbccfee63	-0.025382226
146	0xbdf76fb3	-0.12081852
147	0xbda34695	-0.07972447
148	0x3dba3499	0.090920635
149	0x3d61ea12	0.055154867
150	0x3bb2c4b0	0.005455576
151	0xbdb185bd	-0.08668087
152	0xbe4c7db1	-0.19969822
153	0xbe14de65	-0.14537962
154	0xbd9b7df6	-0.075923845
155	0xbd7b1edd	-0.06130873
156	0xbe80c528	-0.25150418
157	0xbf0e3c18	-0.55560446
158	0xbe51b3ff	-0.2047882
159	0xbe4ab51d	-0.19795652
160	0x3d02eaa5	0.031962056
161	0xbdb67d3b	-0.089106046
162	0xbb9de420	-0.0048184544
163	0x3dc96461	0.09833599
164	0xbe5d49e1	-0.21610214
165	0xbe8781d5	-0.2646624
166	0xbeeb7a24	-0.45991623
167	0xbd318540	-0.043339968
168	0x3be66194	0.007030675
169	0xbdca525d	-0.09878991
170	0x3dca0571	0.09864319
171	0xbca4a138	-0.020096406
172	0xbdb377e7	-0.08763104
173	0xbe2ad733	-0.16683654
174	0x3dc12a5a	0.09431906
175	0xbde7ef7a	-0.113249734
176	0x3db37e37	0.08764308
177	0xbef05f27	-0.46947595
178	0xbe56c31e	-0.20972869
179	0xbeea3c12	-0.45748955
180	0xbe0b1266	-0.13581237
181	0xbe6da255	-0.23206456
182	0xbe75db1f	-0.2400937
183	0x3e19fc58	0.15037668
184	0xbe1ecc3d	-0.15507598
185	0x3d6e0495	0.05810984
186	0xbdd67b48	-0.10472733
187	0x3e94ec1f	0.29086396
188	0xbd9e2886	-0.07722573
189	0xbdd2967d	-0.102826096
190	0x3da4bd8d	0.080439664
191	0xbe560dfd	-0.20903774
192	0x3e9f2580	0.31083298
193	0x3d28025e	0.041017883
194	0xbe6e5675	-0.23275168
195	0xbd5d213c	-0.053986773
196	0xbe2959b8	-0.16538131
197	0xbd9a9e8e	-0.07549773
198	0xbde6c7bb	-0.11268564
199	0xbe353031	-0.17694165
200	0x3f982fb8	1.1889563
201	0xbe37690a	-0.17911163
202	0xbb4386a0	-0.0029834881
203	0x3dc425a9	0.095774956
204	0x3cd37373	0.025811886
205	0xbdbd2384	-0.0923529
206	0xbe01d0cb	-0.12677304
207	0xbe08a532	-0.13344267
208	0xbe2dc70f	-0.16970466
209	0xbd81727e	-0.06320666
210	0x3c1da8f8	0.009622805
211	0xbd5aaa58	-0.05338511
212	0xbcfddacc	-0.03098812
213	0xbd00272b	-0.031287353
214	0xbfc8214d	-1.5635163
215	0x3dbfa0ba	0.09356828
216	0xbd7ef40d	-0.062244464
217	0xbe172008	-0.14758313
218	0xbe25270e	-0.1612818
219	0xbcc8d493	-0.024515426
220	0xbe1e5a80	-0.1546421
221	0xbde1a72f	-0.11018216
222	0xbdfc2007	-0.12310796
223	0xbd3c2664	-0.04593505
224	0xbe2f4798	-0.17117155
225	0xbe255c1a	-0.16148415
226	0xbda9d253	-0.08292069
227	0x3e8bd820	0.27313328
228	0xbc354c18	-0.011065505
229	0x3dd7725f	0.105198614
230	0xbe35d7bf	-0.17758082
231	0x3c6e2e40	0.014537394
232	0x3d0b6b5e	0.03403794
233	0xbcc2ca48	-0.023778096
234	0xbdf82e48	-0.121182024
235	0xbe3b9f14	-0.18322402
236	0xbd144d8a	-0.03620676
237	0x3d9fb19c	0.07797548
238	0xbe280195	-0.16406853
239	0x3d965237	0.073399
240	0xbd809611	-0.06278623
241	0xbe01e5b8	-0.12685287
242	0xbd0bdb5a	-0.034144737
243	0xbdfbea79	-0.123005815
244	0xbd85c265	-0.065312184
245	0xbe083296	-0.13300547
246	0xbddcba79	-0.10777754
247	0xbd5ee3ea	-0.054416575
248	0xbda9d490	-0.08292496
249	0xbb9386b0	-0.00450214
250	0x3da7da89	0.08195979
251	0xbd08287e	-0.03324174
252	0xbdf45c4d	-0.119316675
253	0xbe46a3d7	-0.19398437
254	0xbd72179c	-0.059104547
255	0x3dbcced9	0.092191406

fc2.bias f4 [100]
0	0xbbdcf887	-0.006743494
1	0xbe1ef205	-0.1552201
2	0xbdfc0e33	-0.12307396
3	0xbdd33fb2	-0.10314883
4	0xbe2f9a87	-0.17148791
5	0xbdfd6751	-0.12373222
6	0xbe10a939	-0.14127053
7	0xbd8d2d36	-0.06893389
8	0xbe000242	-0.12500861
9	0x3c00b1c9	0.007854887
10	0x3b9f1601	0.004854918
11	0xbe109c1c	-0.14122051
12	0x3c5a1e2f	0.01331286
13	0xbd232e60	-0.03983915
14	0xbbc5a2cb	-0.0060313693
15	0xbe6ddb09	-0.23228087
16	0xbdfa9268	-0.12234956
17	0xbdf690e6	-0.12039356
18	0x3b0eabba	0.0021769837
19	0xbd70e8c4	-0.058815733
20	0xbd05df5c	-0.032683715
21	0xbea7756e	-0.3270678
22	0xbd8387e2	-0.06422402
23	0xbbcdaa79	-0.0062764254
24	0xbd7923e8	-0.06082526
25	0xbe0e4aea	-0.13895765
26	0xbdceede5	-0.101039685
27	0x3cce7ec8	0.025206938
28	0xbe33c837	-0.17556845
29	0xbe3cd410	-0.1844027
30	0xbd67751a	-0.05650816
31	0xbe260399	-0.1621231
32	0xbd044284	-0.032289997
33	0xbdde769c	-0.10862467
34	0xbd937569	-0.072001286
35	0xbd6ca93d	-0.057778586
36	0xbdbfc3a2	-0.09363486
37	0xbdf7370e	-0.12071048
38	0xbdd2afa0	-0.10287404
39	0xbe668733	-0.22512512
40	0xbdf091ee	-0.11746584
41	0x3ce7c14f	0.028290419
42	0xbd9412ba	-0.07230134
43	0xbe4fb57b	-0.20284073
44	0xbd44c89e	-0.048042886
45	0xbdf11297	-0.11771124
46	0x3b2361c2	0.0024930094
47	0xbe814109	-0.2524493
48	0xbe2b7fe3	-0.16748004
49	0xbd6692a7	-0.056292202
50	0xbe77e7cd	-0.24209519
51	0x3c70f54b	0.01470692
52	0xbd0c2944	-0.03421904
53	0xbe2dcc4c	-0.16972464
54	0xbdd3fba2	-0.103507295
55	0x3d2c6817	0.042091455
56	0xbadfe820	-0.0017082728
57	0xbdf568d3	-0.11982884
58	0xbdd77195	-0.10519711
59	0xbe09f9bf	-0.13474177
60	0xbe0fd4cf	-0.14046024
61	0xbd73619f	-0.05941927
62	0xbe292d41	-0.16521169
63	0xbd4b90b4	-0.049698547
64	0xbb598673	-0.003319171
65	0xbe272690	-0.16323304
66	0xbc4809a8	-0.0122093335
67	0xbd1ba2d7	-0.037997093
68	0xbda4618a	-0.080264166
69	0xbe000f92	-0.1250594
70	0xbdb21028	-0.08694488
71	0xbd0803b4	-0.033206657
72	0xbbef53c2	-0.007303686
73	0xbc59d922	-0.013296397
74	0x3d278de9	0.04090682
75	0x3cacb3d7	0.021081848
76	0xbe64e686	-0.22353563
77	0xbe59f7db	-0.21285956
78	0x3d992d16	0.074793026
79	0x3cf3e2d2	0.029771242
80	0xbd72f7d7	-0.05931839
81	0xbcbceb74	-0.023061492
82	0xbd06c73e	-0.032904856
83	0xbe3910f8	-0.1807288
84	0xbc483087	-0.012218601
85	0xbe21a603	-0.15785985
86	0x3c0a7e80	0.0084530115
87	0xbdae8ba9	-0.08522732
88	0xbc099526	-0.008397376
89	0xbd04866e	-0.032354765
90	0xbe3a34d6	-0.18184218
91	0xbe12ce35	-0.14336474
92	0xbe227955	-0.15866597
93	0xbe4e3347	-0.20136748
94	0xbd9ef0fd	-0.077608086
95	0xbe1ea416	-0.15492281
96	0xbe0f09c6	-0.13968572
97	0xbd63f845	-0.05565669
98	0x3db599e7	0.08867245
99	0xbd126983	-0.035745155

fc3.weight f4 [3, 100]
0	0xbe9e0059	-0.3085964
1	0x3e938179	0.28809717
2	0xbec3f35a	-0.382716
3	0xbe95a7d3	-0.29229602
4	0x3ec9c9d8	0.39411807
5	0x3eca2482	0.39480978
6	0x3e16e5e5	0.14736135
7	0xbeaced32	-0.33774716
8	0x3eb49aef	0.35274455
9	0x3e9745ff	0.2954559
10	0xbe97ad8b	-0.2962459
11	0xbe7c4272	-0.24634722
12	0x3e4383a3	0.19093184
13	0x3e77be7d	0.2419376
14	0x3e91d4ef	0.28482768
15	0x3d9d5091	0.076813824
16	0xbeb5ec40	-0.35531807
17	0xbe26e91a	-0.16299859
18	0x3e6e6ecb	0.23284452
19	0x3eb278ca	0.3485778
20	0xbedda4ff	-0.43289945
21	0xbe8e50a4	-0.277959
22	0xbe43d774	-0.19125158
23	0x3eb639df	0.35591027
24	0xbdd4113f	-0.10354852
25	0x3ea79133	0.32727966
26	0x3ea4ec8e	0.32211727
27	0x3e05e080	0.13073921
28	0xbeb57edc	-0.3544835
29	0xbdeb2d2d	-0.11483226
30	0xbeaad3ec	-0.3336481
31	0xbd948a4f	-0.07252943
32	0xbe839dce	-0.25706333
33	0xbe8253eb	-0.2545465
34	0xbeb95622	-0.36198527
35	0x3e9bae15	0.30406252
36	0x3eac84c1	0.33695033
37	0x3c1e5f33	0.009666252
38	0x3ec46737	0.38359997
39	0x3e25b8ec	0.16183823
40	0x3e5757b7	0.21029554
41	0xbe77663b	-0.24160092
42	0xbe29dfab	-0.16589229
43	0xbe81ff6e	-0.2539019
44	0x3e9c6dcc	0.30552518
45	0x3e85c628	0.26127744
46	0xbe90b7b6	-0.2826516
47	0x3e6cb14f	0.23114513
48	0xbeb2569b	-0.348317
49	0x3e8aaf9e	0.2708711
50	0x3e94e702	0.29082495
51	0x3e6b3da3	0.22972731
52	0x3ee13211	0.4398351
53	0xbe8f8b0d	-0.28035775
54	0xbe1fa608	-0.1559068
55	0x3eccfab4	0.4003502
56	0x3eaba828	0.3352673
57	0x3e8652a7	0.26234934
58	0xbe180f3e	-0.14849564
59	0xbea6adee	-0.32554573
60	0x3e0fea82	0.14054301
61	0xbe8c72c9	-0.27431324
62	0xbe5f4fdb	-0.21807806
63	0xbecb35a7	-0.3968937
64	0xbebbaf58	-0.36657214
65	0x3e8d7ce7	0.27634355
66	0x3ea4e3fe	0.32205194
67	0xbe875c42	-0.26437575
68	0xbeb0fe7e	-0.34569162
69	0xbeb42ead	-0.3519186
70	0xbe4ffde6	-0.20311698
71	0xbea800a9	-0.32813004
72	0xbdf07058	-0.11740178
73	0xbe7a96b9	-0.24471559
74	0x3e9b44d0	0.30325937
75	0xbe901cdd	-0.2814702
76	0x3e80f8a6	0.25189704
77	0x3e8e3e8c	0.27782094
78	0xbe089514	-0.13338119
79	0xbe7344e4	-0.23756748
80	0xbe7d4ff7	-0.24737535
81	0xbe9df109	-0.30847958
82	0x3ea407a7	0.32037088
83	0x3e378786	0.17922792
84	0x3e85990d	0.2609333
85	0x3e739a59	0.23789348
86	0xbe2130ff	-0.15741347
87	0xbeaf40eb	-0.34229216
88	0x3e885995	0.26630846
89	0xbea521dd	-0.32252398
90	0x3e2a2972	0.16617373
91	0xbef23d6d	-0.4731249
92	0x3e5dc378	0.21656597
93	0x3d982413	0.074287556
94	0xbe743ef1	-0.23852135
95	0xbee4d231	-0.44691613
96	0xbe835cec	-0.2565683
97	0x3e88793d	0.26654997
98	0x3dbf9ce8	0.09356099
99	0x3eb25a92	0.34834725
100	0x3e7d4e51	0.24736907
101	0x3e5b0c00	0.21391296
102	0x3d8ad1cd	0.067782976
103	0x3d93781e	0.07200645
104	0xbe358a81	-0.17728616
105	0xbe9106c9	-0.2832549
106	0xbd6003ca	-0.054691114
107	0x3d55bcd9	0.052182052
108	0xbe3ef3ce	-0.18647692
109	0xbe758e4c	-0.23980063
110	0x3e52795e	0.2055411
111	0x3e4d3c44	0.20042521
112	0xbe85e4b5	-0.26151052
113	0xbe9e208f	-0.30884215
114	0xbe877f4d	-0.2646431
115	0x3e814fd6	0.25256222
116	0x3e8644f0	0.2622447
117	0x3e51dd7c	0.20494646
118	0xbe6e8078	-0.23291194
119	0xbed1082f	-0.40826556
120	0x3d411cf7	0.047146764
121	0xbe454036	-0.19262776
122	0x3e88b8e5	0.26703563
123	0xbeaabe50	-0.33348322
124	0xbe5fe110	-0.21863198
125	0xbe83c332	-0.2573486
126	0xbe2369b2	-0.15958288
127	0xbe736624	-0.23769432
128	0x3d27d1d7	0.040971603
129	0xbdc01552	-0.093790665
130	0x3e9e978e	0.30975002
131	0x3e833de4	0.25633156
132	0x3e52e872	0.20596483
133	0xbdee149d	-0.116250254
134	0x3ea46d8c	0.32114828
135	0xbdb0e8fc	-0.08638188
136	0xbe84f942	-0.2597142
137	0xbdddbb0a	-0.108266905
138	0xbdae5208	-0.0851174
139	0xbc7129b6	-0.014719417
140	0xbe5d3ee8	-0.21606028
141	0xbe49c5d8	-0.19704378
142	0x3e9999e3	0.3000022
143	0x3e85b2fc	0.26113117
144	0xbea3287f	-0.31866834
145	0xbd824512	-0.0636083
146	0x3e332aee	0.17496845
147	0x3e4d1ae9	0.20029797
148	0x3e3e90ff	0.18609999
149	0xbe826029	-0.2546399
150	0x3e24bfc2	0.16088775
151	0xbeb567cf	-0.35430762
152	0xbea887ae	-0.32916015
153	0x3dfd739d	0.12375567
154	0x3e198a10	0.14994073
155	0xbeeab9c6	-0.4584486
156	0xbea8dcb4	-0.32980883
157	0xbebdb630	-0.3705306
158	0x3b9966e4	0.004681455
159	0x3e4a2a1d	0.19742627
160	0xbe7a7d8d	-0.24461956
161	0x3e7777df	0.24166821
162	0x3e92863c	0.28618038
163	0x3eaef22e	0.34169143
164	0x3e97e8ae	0.29669708
165	0xbe6124aa	-0.21986642
166	0xbe70e438	-0.23524559
167	0xbca9d955	-0.020733515
168	0x3e978863	0.29596242
169	0x3dcb27db	0.09919711
170	0x3e503bcc	0.2033531
171	0x3e0d2ca6	0.13786563
172	0xbe1238b5	-0.14279445
173	0x3d91988f	0.07109176
174	0xbe716f69	-0.23577656
175	0x3e75b409	0.23994459
176	0x3e2b138c	0.16706675
177	0xbd2727a4	-0.04080929
178	0xbd2ce91d	-0.0422145
179	0x3e8faa39	0.28059557
180	0x3e65e921	0.22452213
181	0xbde0c93c	-0.109758824
182	0xbe6a5cbb	-0.22886936
183	0x3c7841bd	0.015152392
184	0xbe9a402f	-0.30127093
185	0xbe45d859	-0.19320811
186	0xbd225a57	-0.039636936
187	0x3e1006c2	0.14065078
188	0xbe3e97c8	-0.18612587
189	0x3e8d0736	0.27544564
190	0x3e2aeda5	0.16692217
191	0x3e0ed8dc	0.13949913
192	0x3db51fec	0.08843979
193	0x3e17d67c	0.14827913
194	0x3e47a5b7	0.19496809
195	0x3de6695a	0.11250563
196	0x3e86020c	0.26173437
197	0xbe8c8c64	-0.2745086
198	0x3e91deec	0.28490388
199	0xbe937a83	-0.28804407
200	0x3b20ce19	0.0024536906
201	0xbf072f36	-0.52806413
202	0x3e8278b1	0.25482705
203	0x3edc7497	0.430577
204	0xbe05c27b	-0.1306247
205	0xbe8af80e	-0.27142376
206	0x3db5c798	0.0887596
207	0x3eb7f1cf	0.35926673
208	0xbc1a27f0	-0.009408936
209	0x3dfc2e7f	0.12313556
210	0xbd17fe2d	-0.037107635
211	0xbddf629b	-0.109074794
212	0x3e2904ae	0.16505691
213	0xbc8ede7f	-0.017440079
214	0x3caec6fc	0.021335118
215	0xbeca6287	-0.39528295
216	0x3e828c6d	0.2549776
217	0xbe35dccd	-0.1776001
218	0xbdf33041	-0.11874438
219	0xbafe1355	-0.0019384424
220	0x3e91f1ef	0.28504893
221	0x3f880ff8	1.0629873
222	0xbe8950a9	-0.2681935
223	0x3d3a5736	0.045493327
224	0x3eed4b99	0.4634674
225	0xbe219017	-0.15777622
226	0xbe85908e	-0.2608685
227	0xbcc8fe99	-0.024535464
228	0x3eb19b62	0.3468886
229	0x3ea73143	0.3265477
230	0x3c3ae44a	0.011406967
231	0xbe49791a	-0.19675103
232	0x3e0cc22e	0.13745949
233	0x3f1ad96f	0.6048803
234	0xbcac5e3f	-0.021041034
235	0xbe8d7818	-0.27630687
236	0xbe5b0c7c	-0.21391481
237	0xbe0dca7b	-0.13846771
238	0xbea4b695	-0.3217055
239	0xbeb8d4d1	-0.36099866
240	0xbe097014	-0.1342166
241	0x3f2e1edf	0.68015856
242	0xbd66b3d9	-0.05632386
243	0xbdb6ce50	-0.0892607
244	0x3d1fe5c8	0.039037496
245	0xbc79b80f	-0.015241637
246	0xbd136820	-0.035987973
247	0xbec807a6	-0.39068335
248	0x3ea1d26c	0.31605852
249	0x3d28b8e7	0.04119196
250	0xbefe371d	-0.49651423
251	0x3cd308e9	0.025761085
252	0xbe55d877	-0.20883356
253	0xbd8c3bfc	-0.068473786
254	0xbe19e5cd	-0.15029068
255	0x3e73601c	0.23767132

fc3.bias f4 [3]
0	0xbc684792	-0.01417722
1	0x3c553215	0.013012429
2	0xbd94c840	-0.07264757
