models/home_state_dict.pt (torch, 49439 bytes, 6 tensors)

fc1.weight f4 [100, 13]
0.20521656 0.057653844 0.041987866 -0.27345744 0.0780161 0.09715861 -0.16662163 -0.043917984
-0.047958344 -0.012800485 -0.27402794 -0.23381974 -0.14927009 0.2721835 -0.30275297 0.088897444
0.6876295 0.26366195 0.09390925 -0.7632925 -0.18393758 -0.087103225 -0.40529406 -0.19468802
-0.29984075 -0.042469062 -0.108417 0.31866667 0.23735516 -0.2340347 0.03584758 0.16086638
-0.2713604 -0.0041909222 0.09223202 0.21654427 0.11713118 0.16969891 -0.049211614 -0.18370168
-0.23128082 0.082540065 0.2881782 0.14102213 0.1495518 0.1298923 0.3118218 0.014759754
-0.19448246 -0.21462752 -0.21546482 0.046741493 -0.031399325 -0.08409867 0.09681666 0.19676611
-0.21470827 0.2184956 -0.054219306 -0.26138002 0.14526626 0.20571798 0.1536045 0.00091537833
0.1204527 -0.20827183 0.007803916 0.015965411 0.14453799 0.12849738 0.04152974 0.019603252
0.19922215 0.11205688 0.103524275 -0.05809578 -0.04143073 0.047868323 0.073153615 -0.017143548
0.02801317 0.2002671 0.0031465888 -0.03353174 0.22377017 -0.14053869 0.15804464 -0.18196091
0.058089584 0.098629475 0.2112552 0.15277454 0.23980871 -0.2597579 -0.13466345 -0.25796485
-0.003640473 0.14230129 0.22331187 -0.20234966 0.2744284 0.21662179 -0.20081776 0.20831922
-0.16736819 -0.07168044 -0.11517322 -0.014048576 -0.22940579 0.03844878 0.2665876 -0.01652044
0.25782993 -0.023020625 -0.22294012 0.23136905 0.24947634 0.11037254 0.0623568 0.11214021
0.0808779 -0.17752036 0.015939265 0.07486078 -0.11964531 -0.2374297 0.12850416 0.2662665
0.27071413 0.21252471 -0.27290308 0.13625357 0.1523982 -0.14374347 -0.27498806 0.14042261
0.08753842 0.18012732 0.22351709 0.2346324 0.26385203 -0.15986636 0.26986453 0.16536832
0.11659899 0.17315069 0.25082347 -0.0068191886 -0.041417792 0.22391567 -0.10854854 -0.09271164
0.109549224 0.26238897 0.030391246 -0.17411834 -0.19827247 -0.16127877 -0.018890113 -0.22451037
-0.12430358 -0.27375424 0.18501076 -0.039300352 -0.20878032 -0.018005133 0.12681225 -0.20272839
0.12761867 -0.14397763 -0.010770738 -0.084384695 0.23383547 -0.05243549 -0.20408234 0.24544738
-0.07158814 -0.06796857 -0.24535717 0.17345616 -0.07186309 0.08073993 -0.061767682 0.14187115
0.07136929 -0.03534466 -0.2104645 0.099457115 0.10171625 -0.16703439 -0.21347213 0.053685933
0.19312665 0.038387746 -0.14200793 -0.12306689 -0.2739226 -0.053637657 0.013895242 0.03346137
0.18344107 0.20474327 0.14395745 0.20971768 -0.14911772 0.17803437 0.080127835 -0.08118179
-0.20859458 0.15360054 -0.106391564 0.111278504 0.25338855 -0.13588555 0.023909837 0.08033636
0.16058749 -0.16350725 0.2674941 -0.2205851 0.19412163 0.08824235 -0.06560233 -0.19828318
-0.112425044 -0.02891618 -0.07354657 -0.16536638 0.27632466 0.11229667 0.21603948 0.14043126
-0.1265616 -0.20781568 -0.15511334 -0.15213816 -0.275173 0.21148382 0.21819904 -0.09063149
-0.09778121 0.13514996 0.08912745 -0.18212259 0.01796123 -0.15955271 -0.14827204 0.07051304
-0.0621043 0.22176534 0.01596412 0.13017657 0.01303494 -0.017940342 0.009775937 0.20746431
00000000: 4a24 523e 7026 6c3d 78fb 2b3d 9d02 8cbe
00000010: e8c6 9f3d 18fb c63d dc9e 2abe 58e3 33bd
00000020: f86f 44bd 20b9 51bc 644d 8cbe 716e 6fbe
00000030: 42da 18be a35b 8b3e 7002 9bbe dd0f b63d
00000040: 7d08 303f b3fe 863e 7e53 c03d 2367 43bf
00000050: 225a 3cbe 2d63 b2bd b482 cfbe 4c5c 47be
00000060: ba84 99be 0af4 2dbd bb09 debd 4728 a33e
00000070: 3b0d 733e cba6 6fbe e9d4 123d 28ba 243e
00000080: c0ef 8abe 0154 89bb 24e4 bc3d c8bd 5d3e
00000090: 79e2 ef3d 8dc5 2d3e 1e92 49bd 4b1c 3cbe
000000a0: e1d4 6cbe c40a a93d 188c 933e 1b68 103e
000000b0: 1b24 193e 7d02 053e 1ba7 9f3e e5d2 713c
000000c0: 6926 47be 51c7 5bbe cfa2 5cbe 0274 3f3d
000000d0: 949c 00bd ec3b acbd d047 c63d 0e7d 493e
000000e0: 7cdc 5bbe 50bd 5f3e 1015 5ebd 9ad3 85be
000000f0: aec0 143e bca7 523e 804a 1d3e 00f6 6f3a
00000100: e8af f63d 3645 55be feb7 ff3b e5c9 823c
00000110: c401 143e d194 033e 171b 2a3d 0097 a03c
00000120: e400 4c3e 147e e53d 8904 d43d d7f5 6dbd
00000130: 45b3 29bd 9311 443d 90d1 953d a070 8cbc
00000140: e07b e53c d212 4d3e 0037 4e3b 9458 09bd
00000150: 0224 653e 60e9 0fbe 74d6 213e f653 3abe
00000160: 58ef 6d3d 40fe c93d 4853 583e ee70 1c3e
00000170: 6a90 753e fdfe 84be 37e5 09be f813 84be
00000180: 0095 6ebb 6eb7 113e deab 643e c034 4fbe
00000190: e181 8c3e 1ad2 5d3e 2ca3 4dbe a251 553e
000001a0: 9162 2bbe 32cd 92bd f0df ebbd 002c 66bc
000001b0: 5ae9 6abe 787c 1d3d 2b7e 883e e055 87bc
000001c0: 4902 843e c095 bcbc 6a4a 64be 02ec 6c3e
000001d0: ba76 7f3e 000b e23d d869 7f3d c4a9 e53d
000001e0: 50a3 a53d e6c7 35be 1093 823c 9c50 993d
000001f0: 9a08 f5bd c520 73be 9896 033e 1554 883e
00000200: 0b9b 8a3e 14a0 593e f4b9 8bbe 0e86 0b3e
00000210: 460e 1c3e 7d31 13be 3ccb 8cbe f2ca 0f3e
00000220: 5847 b33d 4c73 383e aae1 643e 7a43 703e
00000230: 9d17 873e 02b4 23be af2b 8a3e 5056 293e
00000240: 74cb ee3d 6a4e 313e ef6b 803e 8073 dfbb
00000250: b4a5 29bd 264a 653e b24e debd 9adf bdbd
00000260: 585b e03d d957 863e 10f7 f83c 144c 32be
00000270: f007 4bbe 4326 25be 70bf 9abc 0ce6 65be
00000280: e092 febd 8429 8cbe 7673 3d3e 68f9 20bd
00000290: 82ca 55be 807f 93bc 12db 013e 0898 4fbe
000002a0: 78ae 023e df6e 13be c077 30bc e2d1 acbd
000002b0: 9172 6f3e 99c6 56bd f6fa 50be 8f56 7b3e
000002c0: ce9c 92bd 1b33 8bbd e93e 7bbe 7e9e 313e
000002d0: f52c 93bd fa5a a53d 1c00 7dbd ac46 113e
000002e0: 102a 923d 90c5 10bd 0284 57be 2cb0 cb3d
000002f0: 9c50 d03d 100b 2bbe 7098 5abe c8e5 5b3d
00000300: fec2 453e 783c 1d3d 876a 11be 7e0a fcbd
00000310: 953f 8cbe 29b3 5bbd dea8 633c ca0e 093d
00000320: fad7 3b3e 38a8 513e 9569 133e 3bc0 563e
00000330: 51b2 18be a44e 363e 101a a43d a342 a6bd
00000340: d199 55be 7649 1d3e d2e3 d9bd fce5 e33d
00000350: 25bc 813e 9525 0bbe 90de c33c 6487 a43d
00000360: 0c71 243e 726e 27be fdf4 883e 0fe1 61be
00000370: d2c7 463e 68b8 b43d 845a 86bd bf0a 4bbe
00000380: 1a3f e6bd a0e1 ecbc 969f 96bd ce55 29be
00000390: 6d7a 8d3e ccfb e53d 7439 5d3e 36cd 0f3e
000003a0: 5d99 01be a2cd 54be 08d6 1ebe 1bca 1bbe
000003b0: 7ae3 8cbe 378f 583e 926f 5f3e 019d b9bd
000003c0: 8441 c8bd c064 0a3e 7488 b63d 587e 3abe
000003d0: 6e23 933c c961 23be a0d4 17be 2469 903d
000003e0: 1461 7ebd 7416 633e 30c7 823c 024d 053e
000003f0: 8090 553c a0f7 92bc 402b 203c 8671 543e

fc1.bias f4 [100]
0.04859191 0.31522337 -0.09478346 -3.102443e-05 -0.24590278 -0.08130048 -0.1673472 -0.08160445
-0.25650552 -0.24637681 0.02485916 0.058459073 -0.17316449 -0.24158485 -0.10530466 0.004883564
0.12643582 -0.15471336 0.22891814 0.21916887 0.24187103 0.12050092 -0.19386154 0.07307717
0.24290177 -0.22613597 -0.067623675 0.05042821 -0.2755849 -0.1399972 0.23026714 -0.014564335
-0.74336135 -0.25654495 -0.0634478 -0.108623 0.42824966 0.20731947 0.066090375 -0.004282683
-0.00998956 0.12053257 -0.2704882 0.24031076 0.49932787 0.44160232 -0.1462801 0.041612435
0.22743717 -0.1350107 -0.19708541 0.1335701 0.18660867 -0.16723725 0.22933011 0.043934584
-0.13941115 0.015108764 -0.037006885 -0.03936909 0.22722414 -0.09882477 0.24960479 0.25384626
0.10534969 0.076012194 -0.17750295 0.078914344 -0.092508495 0.33331904 0.14127603 -0.07583821
-0.112215996 -0.21891533 0.24585828 0.2368634 0.27089706 -0.14853218 -0.13351935 -0.07252072
-0.013579488 0.21550614 -0.025314659 -0.06940642 0.13169686 -0.06871922 0.44918382 -0.20298466
-0.027794508 -0.070380226 -0.17411873 -0.12435886 -0.69298595 0.09700021 0.2332994 -0.057761505
0.24031934 -0.115384296 0.24535242 -0.046658695
00000000: 5008 473d f564 a13e d51d c2bd 3a20 02b8
00000010: f0cd 7bbe de80 a6bd 105d 2bbe 3c20 a7bd
00000020: b154 83be 344a 7cbe 70a5 cb3c c872 6f3d
00000030: 0852 31be 0562 77be f8a9 d7bd 4e06 a03b
00000040: 6478 013e 2e6d 1ebe 8469 6a3e ce6d 603e
00000050: 0aad 773e 30c9 f63d a483 46be 7ca9 953d
00000060: 3ebb 783e 3090 67be 487e 8abd d08d 4e3d
00000070: 7719 8dbe 6d5b 0fbe 26cb 6b3e 409f 6ebc
00000080: ee4c 3ebf dc59 83be ecf0 81bd bc75 debd
00000090: 8a43 db3e 8e4b 543e 645a 873d c055 8cbb
000000a0: 40ab 23bc c8d9 f63d 6e7d 8abe 0614 763e
000000b0: e7a7 ff3e b319 e23e 73ca 15be cd71 2a3d
000000c0: 4ae5 683e 3f40 0abe c2d0 49be 9ac6 083e
000000d0: 5816 3f3e 3e40 2bbe 83d5 6a3e c0f4 333d
000000e0: ccc1 0ebe c08a 773c 8894 17bd 7c41 21bd
000000f0: 72ad 683e a464 cabd 6698 7f3e 23f8 813e
00000100: 94c1 d73d 48ac 9b3d 55c3 35be d89d a13d
00000110: 1875 bdbd cba8 aa3e aaaa 103e 1051 9bbd
00000120: 80d1 e5bd 572b 60be 46c2 7b3e 528c 723e
00000130: 05b3 8a3e d218 18be 4cb9 08be be85 94bd
00000140: 807c 5ebc a4ad 5c3e b060 cfbc f424 8ebd
00000150: 8bdb 063e aabc 8cbd 6cfb e53e 36db 4fbe
00000160: 4fb1 e3bc 8223 90bd 2e4c 32be dcaf febd
00000170: 8767 31bf 0ca8 c63d 0ae6 6e3e 5497 6cbd
00000180: 4616 763e 9a4e ecbd aa3d 7b3e 301d 3fbd

fc2.weight f4 [100, 100]
-0.033345602 -0.616395 -0.1557424 0.101559885 0.06256116 -0.05335788 0.0068430435 -0.018538637
-0.029268442 0.048985712 0.01589767 0.064882256 -0.00947132 0.012347611 -0.031193152 0.05535154
-0.019330638 0.0073688775 0.014399749 0.06334213 -0.04063943 0.05764576 -0.047276735 0.029066764
0.075590864 -0.008497611 0.02259625 -0.06941955 0.10923241 -0.051768087 -0.37780964 0.087864704
0.61008507 -0.002442278 0.050036065 -0.09911626 -0.2462941 0.028849281 -0.027738787 -0.053739242
-0.05163753 0.09900243 0.076171815 0.11397748 -0.17123665 -0.6881254 0.07639633 -0.021016119
-0.018770322 0.058217116 -0.011071622 0.07475645 0.08764475 -0.07787249 0.027677989 0.053288646
-0.03167981 0.10229583 -0.06481142 0.040881522 -0.04107944 0.08922559 0.026336424 0.097240254
-0.058312424 0.08245378 -0.01736978 -0.07753059 -0.08830986 -1.0172063 -0.013739649 0.032076765
-0.01488775 0.026151009 -0.09098641 -0.08489507 -0.040686227 0.074215055 0.08467228 0.08175634
0.05618473 0.017875575 0.053413093 0.004082372 -0.026225843 0.016241841 -0.33117414 0.105084054
-0.08001047 0.1190107 -0.034156673 -0.09695355 0.8041207 0.039517947 -0.03209625 0.08068383
0.07862762 0.05050624 -0.08272425 0.081696026 -0.06913614 0.13324842 0.08072336 -0.028484344
-0.013245844 0.113132805 -0.036628008 0.0324612 -0.032857895 -0.013798497 -0.018126233 -0.01375296
-0.00930531 0.14841273 -0.046442438 -0.0190495 0.06240005 -0.026388451 -0.015025484 -0.03008838
0.033698574 -0.035312578 -0.061282504 0.00046132505 -0.0032573482 0.096571945 -0.0884867 -0.005947551
0.053061254 0.12277309 0.058661934 0.016419128 -0.6270477 -0.05051726 0.040566616 -0.050314393
0.11921594 -0.04498898 -0.0025907755 -0.013070054 -0.07313861 -0.038674533 0.10753875 0.07549462
-1.8608581 -1.0127835 0.0070776534 0.07911536 -0.04335865 -0.03302233 -0.010914288 -0.0026619583
-0.03079252 -0.088693395 0.13918442 -0.012703501 -0.012429655 0.102474906 0.11313557 -0.09915632
0.029922567 -0.031450957 -0.0483369 0.0981415 0.070822835 -0.086842954 0.014133583 0.13009036
0.006742403 -1.6596575 0.002868127 -0.018413765 0.093049385 0.092511736 -0.038896598 0.019111596
0.08849131 -0.07706481 -0.023765586 0.079388164 0.04791814 -0.03353709 0.12630716 0.09737364
-0.04669422 0.13679032 -0.073065504 -0.035284318 -0.1850911 0.113151886 0.0032308958 -0.0455598
-0.9757174 0.13908347 0.1178238 0.08800896 -0.042003933 0.14267588 -0.056655325 -0.030403994
0.06603316 0.24513869 -0.021830771 0.014816781 -0.051846147 0.09250133 0.08903786 -0.04430943
0.07794302 0.09288473 0.089995876 -0.0019367337 0.04032605 0.060113885 0.028579481 -0.07987106
0.12820297 -0.011343837 0.011070661 -0.09852339 -0.04248295 -0.025205681 -0.0154247135 0.06978031
0.116222836 -0.03787141 -0.025691018 0.035027087 0.1306981 0.13273095 0.333524 -0.09191358
-0.21790478 0.06828531 -0.05136887 -0.03659737 0.669053 0.024234273 0.036390267 0.090732746
-0.028945819 -0.0091622695 0.0874848 0.101438485 -3.129041 -1.6414852 0.011690332 -0.040564254
-0.054178204 -0.04151406 -0.09703153 -0.09023436 -0.09066385 -0.09536665 0.15802087 -0.050810408
00000000: 6695 08bd 10cc 1dbf f07a 1fbe a1fe cf3d
00000010: 1120 803d cb8d 5abd 9c3b e03b 57de 97bc
00000020: 5fc4 efbc 3ea5 483d d53b 823c fde0 843d
00000030: 982d 1bbc a24d 4a3c c888 ffbc 4cb8 623d
00000040: 495b 9ebc a076 f13b edec 6b3c 85b9 813d
00000050: 8875 26bd f61d 6c3d 40a5 41bd 6c1d ee3c
00000060: 62cf 9a3d 9039 0bbc c51b b93c d62b 8ebd
00000070: 3eb5 df3d c60a 54bd 4470 c1be 69f2 b33d
00000080: 892e 1c3f a00e 20bb 9ef2 4c3d 77fd cabd
00000090: 8534 7cbe 5455 ec3c 743c e3bc ae1d 5cbd
000000a0: e081 53bd c9c1 ca3d f8ff 9b3d 066d e93d
000000b0: a958 2fbe fc28 30bf ae75 9c3d ff29 acbc
000000c0: 38c4 99bc 1275 6e3d c065 35bc e919 993d
000000d0: 177f b33d 9d7b 9fbd f3bc e23c 3245 5a3d
000000e0: b0c2 01bd 7a80 d13d dabb 84bd 6273 273d
000000f0: ea42 28bd e8bb b63d 7cbf d73c e625 c73d
00000100: 02d9 6ebd 87dd a83d 124b 8ebc 5cc8 9ebd
00000110: cddb b4bd d133 82bf 441c 61bc ed62 033d
00000120: c0eb 73bc a43a d63c 1557 babd 77dd adbd
00000130: 9aa6 26bd 10fe 973d a968 ad3d de6f a73d
00000140: f621 663d cc6f 923c b0c7 5a3d 6bc5 853b
00000150: 94d7 d6bc 9c0d 853c a88f a9be 4f36 d73d
00000160: 87dc a3bd e2bb f33d dee7 0bbd 958f c6bd
00000170: dbda 4d3f 92dd 213d 5c77 03bd 903d a53d
00000180: 8507 a13d a2df 4e3d 556b a9bd 3f50 a73d
00000190: 4097 8dbd 4672 083e 4a52 a53d 0058 e9bc
000001a0: 1905 59bc 2cb2 e73d 4007 16bd 09f6 043d
000001b0: 0096 06bd 1713 62bc 777d 94bc 1854 61bc
000001c0: 4d75 18bc 82f9 173e 6d3a 3ebd b20d 9cbc
000001d0: 3297 7f3d 982c d8bc 732d 76bc e87b f6bc
000001e0: 8407 0a3d eca3 10bd 5d03 7bbd 00de f139
000001f0: 3c79 55bb 83c7 c53d 8438 b5bd ade3 c2bb
00000200: c256 593d 7570 fb3d 7f47 703d 6881 863c
00000210: 3386 20bf 30eb 4ebd 2e29 263d 7716 4ebd
00000220: 7d27 f43d 5d46 38bd 00ca 29bb c823 56bc
00000230: b2c9 95bd 3069 1ebd 473d dc3d ec9c 9a3d
00000240: 9930 eebf e4a2 81bf a9eb e73b 3c07 a23d
00000250: d798 31bd 6c42 07bd d8d1 32bc 4074 2ebb
00000260: 9840 fcbc e2a4 b5bd 5c86 0e3e 5822 50bc
00000270: c0a5 4bbc 5dde d13d 9fb3 e73d 7812 cbbd
00000280: 2c20 f53c b8d2 00bd eafc 45bd 69fe c83d
00000290: 900b 913d b8da b1bd 8b90 673c 6836 053e
000002a0: 60ef dc3b a86f d4bf 30f7 3b3b 77d8 96bc
000002b0: ad90 be3d cb76 bd3d 0a52 1fbd ec8f 9c3c
000002c0: ef3a b53d 28d4 9dbd 0cb0 c2bc 4396 a23d
000002d0: d045 443d 305e 09bd aa56 013e d56b c73d
000002e0: 7042 3fbd c312 0c3e 5ea3 95bd 4a86 10bd
000002f0: 8588 3dbe 2dbc e73d 70bd 533b ea9c 3abd
00000300: 9ec8 79bf e66b 0e3e 9b4d f13d 0b3e b43d
00000310: 510c 2cbd a019 123e 6a0f 68bd cc11 f9bc
00000320: 653c 873d a305 7b3e 72d6 b2bc 15c2 723c
00000330: a05c 54bd 5671 bd3d 7b59 b63d ce7d 35bd
00000340: 97a0 9f3d 593a be3d c24f b83d 00da fdba
00000350: ee2c 253d fa39 763d 841f ea3c 7093 a3bd
00000360: a447 033e 80db 39bc b861 353c a2c6 c9bd
00000370: 9a02 2ebd 257c cebc f0b7 7cbc fbe8 8e3d
00000380: 3d06 ee3d 0d1f 1bbd f875 d2bc 9078 0f3d
00000390: b9d5 053e 9fea 073e a8c3 aa3e 303d bcbd
000003a0: 6e22 5fbe 2bd9 8b3d 2a68 52bd 20e7 15bd
000003b0: 0f47 2b3f f486 c63c f60d 153d 17d2 b93d
000003c0: c81f edbc 581d 16bc 3b2b b33d fbbe cf3d
000003d0: 3542 48c0 301c d2bf ce88 3f3c b426 26bd
000003e0: f7e9 5dbd a60a 2abd 78b8 c6bd cbcc b8bd
000003f0: f8ad b9bd 974f c3bd 39d0 213e 931e 50bd

fc2.bias f4 [100]
0.097113594 -0.02988542 0.12824675 -0.036419343 -0.09252474 -0.12228255 -0.02282374 0.10972963
-0.030227413 0.0038644923 -0.07283423 -0.00073871535 -0.001660799 0.013941436 0.11708582 -0.047679882
0.06612693 0.05527227 -0.03948693 -0.14205259 0.07571974 -0.11116341 0.037533797 -0.01636039
-0.116981365 -0.03933769 -0.08533424 -0.054832622 -0.048289318 0.0892583 0.01027904 -0.04919733
0.016947227 -0.010988922 0.013575302 -0.028733112 -0.13052674 0.050867174 -0.03247681 0.08990324
-0.021664422 -0.026595034 -0.07894103 -0.023795221 0.086558074 -0.016090244 -0.016234107 0.078831606
0.07163199 0.0040482134 -0.111839406 0.092960365 0.1367018 -0.06540625 -0.05700477 -0.10068611
-0.06018032 -0.06341507 0.01917406 -0.045530744 -0.013170752 0.040902514 0.029002346 -0.0040720403
0.03410299 -0.00092198787 -0.009780946 0.016065562 0.11132967 -0.007020073 -0.06935944 -0.0026851548
0.07437386 -0.024525158 -0.08313808 -0.08683529 0.07377756 -0.049641274 -0.07750002 -0.05051224
-0.016668027 0.09993181 -0.01582414 -0.07202755 0.022799697 -0.0037362792 -0.123474784 0.0010770811
-0.048305053 -0.012259168 -0.062332958 0.051788878 -0.03472042 0.045687415 -0.05677663 0.024368444
0.07332679 0.0788067 -0.067005746 -0.0044049188
00000000: 7ee3 c63d 45d2 f4bc 1e53 033e 732c 15bd
00000010: 9c7d bdbd 466f fabd daf8 babc eeb9 e03d
00000020: 7b9f f7bc 6c43 7d3b 1d2a 95bd 59a6 41ba
00000030: 2baf d9ba 9f6a 643c b1ca ef3d fb4b 43bd
00000040: 8e6d 873d 2d65 623d 0cbd 21bd 3c76 11be
00000050: f312 9b3d a4a9 e3bd 0abd 193d 3906 86bc
00000060: ed93 efbd 8f20 21bd b8c3 aebd 2c98 60bd
00000070: 05cb 45bd 0ecd b63d 6b69 283c 2483 49bd
00000080: e9d4 8a3c e10a 34bc f26a 5e3c b461 ebbc
00000090: cda8 05be 195a 503d 6706 05bd 311f b83d
000000a0: 9679 b1bc d4dd d9bc d6ab a1bd 32ee c2bc
000000b0: 5c45 b13d b0cf 83bc 64fd 84bc 7772 a13d
000000c0: cbb3 923d e0a6 843b 0f0c e5bd 0162 be3d
000000d0: 8ffb 0b3e b6f3 85bd d57d 69bd 8534 cebd
000000e0: a47f 76bd c3df 81bd eb12 9d3c 727e 3abd
000000f0: 23ca 57bc 6589 273d 5496 ed3c c06e 85bb
00000100: 94af 0b3d 8fb1 71ba 4340 20bc ed9b 833c
00000110: cf00 e43d a408 e6bb 520c 8ebd 6cf9 2fbb
00000120: 5351 983d fce8 c8bc 4c44 aabd b3d6 b1bd
00000130: b018 973d a654 4bbd 55b8 9ebd ece5 4ebd
00000140: 638b 88bc 0ca9 cc3d a0a1 81bc 2e83 93bd
00000150: 6ec6 ba3c 5ddc 74bb 59e0 fcbd d82c 8d3a
00000160: 85db 45bd adda 48bc d850 7fbd 9320 543d
00000170: 0037 0ebd ba22 3b3d 9d8e 68bd 55a0 c73c
00000180: 5b2c 963d 6865 a13d 4f3a 89bd 2357 90bb

fc3.weight f4 [3, 100]
0.33204514 -0.19286987 -0.12960322 0.26264223 0.22581992 -0.20879865 0.25867638 0.47825813
0.2541603 0.43314222 -0.2601352 -0.27360207 0.3614686 0.38819054 0.45333165 0.39483485
-0.42168075 0.3784832 -0.63265514 0.10894185 0.41161603 0.17044513 -0.10509844 -0.0077133453
-0.24860099 0.4127164 0.10085386 -0.34496722 -0.5442876 -0.342324 0.3411157 -0.3766145
0.29638985 -0.035228446 -0.27615738 -0.3888815 -0.34042633 0.2885302 -0.34749982 0.30453968
-0.3861779 0.39452818 0.05321887 0.2670534 -0.24872792 0.35677525 0.13134627 0.22101723
0.43947265 -0.30047125 -0.39753696 -0.5327937 0.3840842 -0.093882166 -0.32616535 -0.29988444
-0.42189613 -0.31695154 0.3911229 -0.1723968 -0.33798453 -0.33742714 -0.41601926 0.33641967
-0.41339862 -0.25051624 0.28535578 0.3399134 0.40371934 -0.21562682 0.274612 0.17138891
-0.38848242 0.3494599 -0.35909826 0.27826375 0.31910345 -0.47216082 -0.08322926 -0.5245905
0.53598213 0.26500747 -0.35096544 0.33035055 -0.44091195 0.09465698 -0.2846164 -0.46326694
-0.30972543 0.34323367 -0.25189084 -0.10190704 0.43101314 -0.34263307 -0.2984345 -0.26753554
-0.35639706 -0.2998849 -0.35677138 0.16321996 -0.41322863 -0.46118233 -0.5463735 -0.46445882
0.08514127 0.39850658 -0.42032668 -0.3908281 -0.027817296 -0.25623357 0.5211587 0.33773005
-0.45987454 -0.46871027 -0.45381933 -0.26529723 0.4929743 -0.5555771 0.34766772 0.2865563
-0.4253174 0.2863343 -0.4561709 0.5140822 0.22923568 -0.41753954 0.397839 0.6309553
0.22842333 -0.21530199 -0.4173203 0.34215838 -0.52248436 0.4324877 0.31022084 0.50077784
0.48860377 -0.51013863 0.46701828 -0.4442375 0.19795848 -0.441242 0.45767903 -0.42719802
-0.40932438 -0.4810315 -0.39073345 -0.41629234 -0.222176 -0.34445998 0.3378244 0.38858694
-0.54410374 0.5537746 -0.16290012 0.30819637 0.27899262 -0.2802914 -0.37211883 -0.63845503
0.3633192 0.23792936 0.3855304 -0.31220278 0.46975872 -0.3887547 -0.31205958 -0.46140876
-0.41573218 -0.51274574 0.1785686 0.2827303 0.52943206 -0.3653065 0.3892516 -0.25077903
-0.29411414 0.11447031 0.58022314 0.101100415 -0.49812138 -0.4712755 -0.41136032 0.2014834
0.3246672 0.43027002 0.40295246 0.3519219 0.33185676 0.09102366 0.23551914 -0.4577693
-0.6259361 0.22987075 0.3211112 0.5112407 0.20717883 -0.13626385 0.2671371 0.38342595
-0.07918639 0.6589503 0.7970717 0.22208591 -0.6356088 -0.2870263 -0.16792923 -0.36711657
-0.5480862 -0.33819517 -0.12135379 0.051970392 -0.018468026 0.019011654 -0.094737954 -0.15578488
0.12646672 0.15016668 0.25473484 -0.6869508 -0.11787971 -0.578387 0.5812319 -0.45856693
0.20373319 -0.08245562 -0.5207845 -0.47618738 0.49566612 0.6738814 -0.32654956 0.2305825
-0.025049146 -0.55142766 -0.08054282 -0.06008677 -0.024345722 0.043778993 0.05478934 0.16486362
0.31448823 0.0069902767 -0.6851907 -0.13822965 0.7550987 -0.098904036 0.48981693 -0.11425397
-0.35797572 0.7526572 0.06458105 0.5059292 -0.003765707 -0.35774207 0.6871049 0.15741676
00000000: d201 aa3e ae7f 45be b5b6 04be 0b79 863e
00000010: 563d 673e 50cf 55be 3b71 843e 40de f43e
00000020: 4d21 823e d1c4 dd3e 7130 85be 9215 8cbe
00000030: 6a12 b93e e9c0 c63e 161b e83e cb27 ca3e
00000040: 8ae6 d7be 8dc8 c13e b0f5 21bf e81c df3d
00000050: 56bf d23e 2b89 2e3e da3d d7bd 3bc0 fcbb
00000060: 4291 7ebe 904f d33e 788c ce3d 8b9f b0be
00000070: 6f56 0bbf 1745 afbe b8a6 ae3e 9ed3 c0be
00000080: 69c0 973e b44b 10bd 8064 8dbe 7a1b c7be
00000090: 5c4c aebe 3bba 933e 7feb b1be a0ec 9b3e
000000a0: 1cb9 c5be 99ff c93e 08fc 593d 39bb 883e
000000b0: 88b2 7ebe 3fab b63e a37f 063e 5752 623e
000000c0: 8f02 e13e 5ed7 99be f789 cbbe 2b65 08bf
000000d0: afa6 c43e 4b45 c0bd 25ff a6be 748a 99be
000000e0: c502 d8be 7947 a2be 4341 c83e c988 30be
000000f0: 4f0c adbe 40c3 acbe 7a00 d5be 333f ac3e
00000100: fca8 d3be aa43 80be 271a 923e 2109 ae3e
00000110: 4db4 ce3e 47cd 5cbe f299 8c3e 9380 2f3e
00000120: 2be7 c6be 68ec b23e badb b7be 9678 8e3e
00000130: 8761 a33e 10bf f1be 1a74 aabd 904b 06bf
00000140: 2036 093f 0faf 873e beb1 b3be b523 a93e
00000150: 36bf e1be 85db c13d 3eb9 91be 5331 edbe
00000160: 5594 9ebe 53bc af3e d6f7 80be a3b4 d0bd
00000170: c1ad dc3e 9a6d afbe 68cc 98be 6bfa 88be
00000180: ad79 b6be 838a 99be bdaa b6be 2223 273e
00000190: b492 d3be 1720 ecbe 22df 0bbf 8ccd edbe
000001a0: 8c5e ae3d 0e09 cc3e 0f35 d7be 9f1a c8be
000001b0: 19e1 e3bc 0c31 83be a86a 053f f4ea ac3e
000001c0: ad74 ebbe cbfa efbe 025b e8be 0ad5 87be
000001d0: 2167 fc3e 4d3a 0ebf 8101 b23e 82b7 923e
000001e0: 34c3 d9be 699a 923e 3b8f e9be e49a 033f
000001f0: c2bc 6a3e bec7 d5be 8eb1 cb3e 4986 213f
00000200: cee7 693e 2078 5cbe 02ab d5be 622f af3e
00000210: 89c1 05bf 076f dd3e 44d5 9e3e fa32 003f
00000220: 462a fa3e 7298 02bf 051d ef3e 1973 e3be
00000230: a1b5 4a3e 79ea e1be e854 ea3e b3b9 dabe
00000240: f792 d1be c349 f6be 370e c8be 4524 d5be
00000250: 1b82 63be 0f5d b0be 52f7 ac3e def4 c63e
00000260: 624a 0bbf 2cc4 0d3f 4acf 26be eacb 9d3e
00000270: 1fd8 8e3e 5b82 8fbe 5c86 bebe ca71 23bf
00000280: f904 ba3e c1a3 733e 3e64 c53e 0bd9 9fbe
00000290: 3784 f03e db0a c7be 46c6 9fbe c53d ecbe
000002a0: d9da d4be 4e43 03bf b0da 363e 07c2 903e
000002b0: dc88 073f 7409 bbbe fc4b c73e 1c66 80be
000002c0: 2196 96be 696f ea3d 8189 143f bc0d cf3d
000002d0: c409 ffbe 064b f1be d29d d2be aa51 4e3e
000002e0: c73a a63e 5a4c dc3e c94f ce3e 1b2f b43e
000002f0: 21e9 a93e 9d6a ba3d ee2b 713e bd60 eabe
00000300: 593d 20bf 3d63 6b3e b068 a43e ace0 023f
00000310: b026 543e c088 0bbe 32c6 883e 6850 c43e
00000320: 792c a2bd f8b0 283f e40c 4c3f 7d6a 633e
00000330: 42b7 22bf 1cf5 92be a4f5 2bbe b4f6 bbbe
00000340: 614f 0cbf eb27 adbe 5688 f8bd e8de 543d
00000350: 424a 97bc 54be 9b3c f905 c2bd 1286 1fbe
00000360: 7e80 013e 4bc5 193e 9b6c 823e 02dc 2fbf
00000370: eb6a f1bd 2c11 14bf 9dcb 143f 49c9 eabe
00000380: 6f9f 503e 7ede a8bd 2252 05bf d5ce f3be
00000390: f3c7 fd3e 7e83 2c3f 8131 a7be d21d 6c3e
000003a0: de33 cdbc 5d2a 0dbf a2f3 a4bd 8c1d 76bd
000003b0: ae70 c7bc 9a51 333d c96a 603d 02d2 283e
000003c0: 9a04 a13e b10e e53b a868 2fbf 138c 0dbe
000003d0: 264e 413f 338e cabd 49c9 fa3e fcfd e9bd
000003e0: 9848 b7be 24ae 403f 1243 843d 9384 013f
000003f0: 14ca 76bb f829 b7be 1be6 2f3f dc31 213e

fc3.bias f4 [3]
0.043290935 0.044073462 0.00984412
00000000: d651 313d 6086 343d 3b49 213c
