models/home_state_test.onnx (onnx, 47829 bytes, 6 tensors)

fc1.weight f4 [100, 13]
-0.4222239 -0.12729655 -0.21985108 -1.0444382 -0.4338617 -0.28353253 1.4771887 -0.08796765
0.14999099 0.270831 -0.30620718 -0.10862618 0.012565081 -0.103383616 0.2103355 0.24104872
-0.17248273 -0.18562396 0.073777586 -0.062506795 0.2763507 -0.05203329 -0.105785266 0.25376633
-0.0060402453 -0.20727299 0.14332715 0.047291573 0.07430865 -0.21665812 0.09784378 0.1303208
-0.21976016 -0.05683558 0.19281997 -0.08832543 0.21233374 0.04627861 -0.123996094 0.17014521
-0.14978981 0.054476142 0.094846964 0.0065005124 -0.13788009 -0.05434163 -0.16011076 -0.14557584
0.23566452 0.27518198 0.24898961 0.103845716 -0.2638453 0.16752961 0.056707017 -0.044300575
0.14759247 -0.12995026 0.1348571 0.18752486 0.23303469 -0.17460205 -0.22836949 0.1531945
-0.09774804 0.2271426 -0.16735387 0.14636561 -0.0827298 -0.24216843 0.09568325 -0.24719152
0.2468147 -0.1888897 -0.24384591 0.03875768 0.25020424 -0.21272364 -0.26292676 -0.044081315
-0.049865574 0.23993638 0.21500742 0.13378301 0.25063267 0.07581246 0.2168945 0.0501222
0.20282114 0.025078207 -0.22730887 0.01959917 0.020427793 0.2183741 -0.19256875 0.12998638
0.11562574 -0.06758173 0.02897641 -0.038433746 -0.17900705 -0.15502106 0.15587053 0.20917428
0.26422682 -0.16993621 0.052548796 -0.2611995 -0.080499664 0.21928698 -0.025345415 0.14640266
0.11655986 -0.193519 -0.19521165 0.12082875 0.10887 -0.061355323 0.03625679 0.006645471
-0.20332478 0.26804462 -0.24264057 -0.013380021 -0.2768187 0.042459965 -0.25789234 -0.1542004
-0.26781705 -0.17198464 -0.23221266 -0.009987712 -0.025301516 0.055220693 0.079278916 -0.04840301
-0.20501177 -0.25252938 0.035452813 -0.12632917 -0.23391962 -0.22799297 0.12946433 0.14018452
-0.12206735 -0.20654128 -0.061277226 0.172366 0.16719466 -0.16366747 0.009983242 0.19249114
-0.010332793 -0.031309724 -0.2100975 -0.1950036 -0.12232206 -0.31413218 0.047260568 -0.17717138
-0.19271785 -0.22832973 0.35836038 -0.13041426 -0.017529925 -0.10759827 -0.09633694 0.08087479
-0.0041136607 0.43430686 -0.90378064 -1.2840003 0.3496477 -0.027662657 -0.31088746 0.24670091
0.5194758 2.396309 -2.0688899 1.9486179 0.5587042 -0.009515827 0.0075609386 0.07683247
-0.044175938 0.19333446 -0.17408264 -0.06740977 -0.14243336 0.14221174 -0.18870363 0.2725431
-0.26945254 0.15397772 -0.26140893 0.15372244 0.26858464 0.105728954 0.19439003 -0.226743
-0.16087648 -0.045374736 -0.03147927 -0.2588184 0.12607503 -0.12117103 0.07597706 -0.2703803
0.15562665 0.19422469 -0.20977244 -0.21243425 -0.10684393 0.04919973 -0.20688534 0.07913977
0.12615672 -0.22626716 0.05949202 -0.22802794 -0.13850068 -0.20235962 0.1947616 0.22748867
0.05631751 -0.23170793 0.22449848 -0.13509598 -0.02227071 0.06732082 0.20231304 -0.0010710061
0.16176066 -0.09295365 -0.09405238 0.4082321 -0.40424904 0.42010015 -0.04709656 -0.90643
-2.8097627 0.21571119 -1.3646572 1.0668429 -1.0303572 -1.5150245 -0.06695887 -0.1451424
0.2527733 -0.1803312 0.01645171 0.23392679 0.027474044 -0.0022181969 0.26375458 0.23328294
00000000: bb2d d8be 075a 02be a420 61be 27b0 85bf
00000010: 1f23 debe 2d2b 91be 8514 bd3f 6228 b4bd
00000020: 3d97 193e 5caa 8a3e 30c7 9cbe 6777 debd
00000030: c5dd 4d3c caba d3bd 3062 573e 7ad5 763e
00000040: 509f 30be 3514 3ebe b418 973d 9003 80bd
00000050: d77d 8d3e dc20 55bd f2a5 d8bd a9ed 813e
00000060: 40ed c5bb 5f3f 54be 5ac4 123e cfb4 413d
00000070: 222f 983d a0db 5dbe 5262 c83d d172 053e
00000080: cf08 61be 6dcc 68bd 9972 453e f7e3 b4bd
00000090: 046e 593e a48e 3d3d aaf1 fdbd 8c3a 2e3e
000000a0: 8062 19be 6022 5f3d 203f c23d 4002 d53b
000000b0: 7030 0dbe 5495 5ebd 13f4 23be d511 15be
000000c0: 0a52 713e a7e4 8c3e 22f7 7e3e 10ad d43d
000000d0: bb16 87be e28c 2b3e 9e45 683d 8574 35bd
000000e0: 7b22 173e ae11 05be fb17 0a3e 8406 403e
000000f0: a5a0 6e3e e1ca 32be b1d9 69be 05df 1c3e
00000100: 2030 c8bd 1298 683e d05e 2bbe dee0 153e
00000110: 3e6e a9bd 00fb 77be 94f5 c33d c61f 7dbe
00000120: febc 7c3e 4d6c 41be beb2 79be 60c0 1e3d
00000130: c51a 803e 3ad4 59be 569e 86be 9c8e 34bd
00000140: d83f 4cbd e2b1 753e e82a 5c3e 6afe 083e
00000150: ed52 803e 9043 9b3d 9819 5e3e f04c 4d3d
00000160: 58b0 4f3e d070 cd3c a8c3 68be 708e a03c
00000170: 3058 a73c 769d 5f3e be30 45be 261b 053e
00000180: 30cd ec3d 4a68 8abd f05f ed3c b46c 1dbd
00000190: a04d 37be d7bd 1ebe 869c 1f3e c831 563e
000001a0: bd48 873e c203 2ebe 683d 573d f1bb 85be
000001b0: 02dd a4bd c48c 603e 30a1 cfbc 94ea 153e
000001c0: f0b6 ee3d d829 46be 90e5 47be 1075 f73d
000001d0: 3cf7 de3d b84f 7bbd 0082 143d 40c2 d93b
000001e0: 5f34 50be 253d 893e c576 78be e037 5bbc
000001f0: 2ebb 8dbe 80ea 2d3d 770a 84be b6e6 1dbe
00000200: 511f 89be be1c 30be 28c9 6dbe 80a3 23bc
00000210: 2045 cfbc 182f 623d fc5c a23d 3c42 46bd
00000220: 9bee 51be 884b 81be f836 113d 6f5c 01be
00000230: a088 6fbe fd76 69be 4c92 043e 888c 0f3e
00000240: 72fe f9bd 8f7f 53be d4fd 7abd b680 303e
00000250: 1435 2b3e 7298 27be c090 233c 661c 453e
00000260: e04a 29bc a03e 00bd cd23 57be 06af 47be
00000270: fd83 fabd efd5 a0be 4c94 413d 6a6c 35be
00000280: d457 45be 45cf 69be 037b b73e 518b 05be
00000290: eb9a 8fbc 7b5c dcbd 4d4c c5bd afa1 a53d
000002a0: e3cb 86bb 785d de3e 2b5e 67bf 1f5a a4bf
000002b0: 0605 b33e cc9c e2bc a42c 9fbe 2a9f 7c3e
000002c0: 5efc 043f 205d 1940 b168 04c0 506c f93f
000002d0: 3d07 0f3f 45e8 1bbc c0c1 f73b 585a 9d3d
000002e0: d4f1 34bd 78f9 453e b842 32be 220e 8abd
000002f0: 0dda 11be f49f 113e 863b 41be c58a 8b3e
00000300: aff5 89be 56ac 1d3e 64d7 85be 6a69 1d3e
00000310: ed83 893e 6c88 d83d 2e0e 473e 512f 68be
00000320: cebc 24be dcda 39bd 68f0 00bd d883 84be
00000330: d019 013e 8428 f8bd dc99 9b3d 496f 8abe
00000340: 985c 1f3e d6e2 463e 96ce 56be 5d88 59be
00000350: fed0 dabd a885 493d c0d9 53be 0814 a23d
00000360: 3a2f 013e 94b2 67be e8ad 733d 2880 69be
00000370: 1fd3 0dbe 5c37 4fbe 966f 473e caf2 683e
00000380: 30ad 663d d844 6dbe eee2 653e 9a56 0abe
00000390: 1071 b6bc 80df 893d 262b 4f3e 0061 8cba
000003a0: 96a4 253e 7c5e bebd 899e c0bd cc03 d13e
000003b0: bbf9 cebe 5e17 d73e 53e8 40bd cc0b 68bf
000003c0: 27d3 33c0 65e3 5c3e 16ad aebf 4f8e 883f
000003d0: bfe2 83bf 53ec c1bf bb21 89bd 36a0 14be
000003e0: 816b 813e bea8 38be bdc5 863c 818a 6f3e
000003f0: 3f11 e13c 2b5f 11bb d70a 873e b9e1 6e3e

fc1.bias f4 [100]
-0.5358825 0.115668654 -0.059205253 -0.046880305 0.035605825 0.14528984 -0.16774288 0.11871192
0.06865594 0.046174824 0.23420027 0.10154924 -0.39525932 1.3379213 0.053285718 -0.17002378
0.21975446 -0.03557785 0.15819132 0.18853585 0.0305745 0.034416527 0.13169853 -0.20077178
0.03016606 0.19705814 1.9092124 -0.00013940001 -0.14347689 -0.11145094 0.013040613 -0.17580232
0.26842645 -0.27172363 0.14020689 0.14454779 -0.2585938 0.257369 0.014903665 0.17100373
-0.19675958 -0.27140298 -0.1591655 0.22791013 -0.14439562 0.24503984 0.19221747 -0.105215296
-0.72326607 -0.2469907 0.04258448 1.3644717 -0.27690956 0.21679315 -0.26085842 0.024700701
0.12271249 -0.3770337 1.4054801 -0.25067148 0.19640753 0.024111569 0.2590507 -0.24971272
0.0811384 0.24535158 0.002116859 -0.08842099 -0.0055378973 0.035247564 -0.053491727 0.0023723543
0.13043481 -0.08970666 -0.0074359775 0.08524215 -0.120241895 0.05908984 -0.14921857 0.016665846
-0.3634891 0.14090708 1.3633323 -0.24156365 0.004755026 -0.22183718 -0.170189 0.0022744834
-0.12942186 0.08385241 -0.16972242 -0.15471503 0.16652474 0.17193025 0.23263781 0.25129095
-0.011369377 -0.27379093 0.07535413 0.016007423
00000000: 982f 09bf b0e3 ec3d 3581 72bd 9005 40bd
00000010: 6ad7 113d dcc6 143e cac4 2bbe 3c1f f33d
00000020: 7c9b 8c3d d021 3d3d 32d2 6f3e 0cf9 cf3d
00000030: 6e5f cabe 0141 ab3f 2042 5a3d b71a 2ebe
00000040: 5007 613e 14ba 11bd e8fc 213e 8b0f 413e
00000050: 6077 fa3c 58f8 0c3d fbdb 063e 1e97 4dbe
00000060: d01e f73c 9cc9 493e 1261 f43f e82b 12b9
00000070: 9beb 12be 6440 e4bd 4ca8 553c 8605 34be
00000080: 316f 893e 5c1f 8bbe 6592 0f3e 5604 143e
00000090: 6866 84be dfc5 833e 802e 743c 9a1b 2f3e
000000a0: 587b 49be 55f5 8abe 48fc 22be 4661 693e
000000b0: 72dc 13be b9eb 7a3e a8d4 443e 1e7b d7bd
000000c0: f727 39bf 21eb 7cbe 106d 2e3d 02a7 ae3f
000000d0: 17c7 8dbe 06ff 5d3e 3c8f 85be 2059 ca3c
000000e0: b050 fb3d 900a c1be c6e6 b33f 0358 80be
000000f0: 0e1f 493e a085 c53c 4ba2 843e b1b4 7fbe
00000100: e42b a63d 723d 7b3e 00bb 0a3b 1016 b5bd
00000110: 4077 b5bb c05f 103d 241a 5bbd 8079 1b3b
00000120: b490 053e 20b8 b7bd 80a9 f3bb 7093 ae3d
00000130: 6241 f6bd 3008 723d c1cc 18be d086 883c
00000140: 3e1b babe f249 103e ac81 ae3f 765c 77be
00000150: 0dd0 9b3b 4929 63be 0646 2ebe 800f 153b
00000160: 2a87 04be d0ba ab3d b7cb 2dbe 9e6d 1ebe
00000170: 7685 2a3e 7c0e 303e 9b38 6e3e 35a9 803e
00000180: a046 3abc 532e 8cbe 4453 9a3d 0022 833c

fc2.weight f4 [100, 100]
-0.78189474 0.094498344 -0.04863672 -0.15147266 0.031100146 0.085683875 -0.08731269 -0.12194039
-0.06467303 -0.0320078 -0.21159787 0.09552694 -0.16545899 1.2742069 -0.002598688 0.090576716
-0.05436964 0.08339452 0.7103908 0.024050733 -0.14299554 -0.048771407 -0.027804246 -0.099941805
-0.1266641 -0.024440572 1.5439764 0.0023018208 -0.25340176 -0.011881223 0.06101498 0.099405326
-0.016221106 -0.22273153 0.16149215 0.058298476 -0.14219797 -0.21177103 -0.10302305 -0.05057051
-0.027356923 0.019100718 -0.1447019 0.027783105 -0.095215075 0.022111818 -0.1081194 -0.14122859
-1.027425 -0.13149057 0.033366166 1.0023582 -0.13786799 -0.25276598 -0.15283439 0.06040158
-0.03839928 -0.34341732 0.70203114 -0.092274666 0.038287584 -0.04105892 -0.027388683 0.05078389
-0.062292922 0.09091273 0.07108932 -0.03226167 -0.24757954 0.099109896 0.0024072751 -0.3059357
0.06513784 -0.07159933 0.0002200231 -0.12684034 -0.11459676 -0.09142412 0.00041669424 -0.19083993
-0.23602769 0.046621032 1.5357046 -0.17786641 0.0038714663 -0.0034039197 -0.048837867 0.01266394
-0.15544009 -0.09919091 -0.03449286 -0.26527798 0.082731865 0.06967879 -0.07968483 -0.05881107
-0.27651623 -0.058527734 0.005455031 -0.12434913 -0.45281735 0.0762156 0.06366641 -0.095581226
0.09201053 0.08989639 -0.067701325 0.10994213 0.16257517 0.085561626 -0.0829164 -0.046939578
-0.1289281 2.0164137 0.09943708 -0.07547679 0.08752861 0.07183189 0.07661682 -0.052957002
-0.112623945 -0.038880814 -0.019576749 -0.007510923 -0.1315396 -0.08008665 1.3839955 -0.049007643
-0.2017035 -0.033387467 -0.07982684 0.03867387 -0.024613537 -0.15856889 -0.13109186 -0.001479283
-0.05998188 -0.10230342 -0.075436726 0.037795525 -0.021316133 0.014073176 -0.055091858 -0.19170499
0.094508536 0.055446167 0.04619342 -0.037881915 -0.80804926 0.020776084 0.03463871 0.77867275
-0.13849923 -0.021763494 -0.047066513 -0.008043609 -0.039031234 -0.44560704 1.2812501 -0.1585172
-0.073404215 -0.0902704 0.08873219 -0.048227772 -0.08907274 -0.14362958 -0.040603805 -0.04009352
-0.20877147 -0.09420069 -0.034983203 0.045129936 0.09249932 0.046018593 0.060323082 -0.036049124
-0.049723588 -0.02160497 -0.016523166 -0.16838318 -0.21230762 -0.015703842 0.68809336 -0.24934317
-0.018968068 0.012833053 -0.051618576 -0.029006748 -0.22012931 -0.23598067 -0.09773198 -0.18138443
0.049914815 -0.0017873496 0.073673405 0.02979844 -0.040205583 0.030664258 0.4511996 0.01822071
1.1586969 -0.026998281 0.03872313 -0.120512314 -0.0037724406 0.08148547 -0.048508074 -0.20571472
0.1259354 0.08490092 0.023061054 0.053323157 0.08705364 -0.94246316 -0.08516508 0.057346545
0.08207036 -0.0628245 -0.9038579 -0.0759878 -0.12011665 0.050297342 -0.0060838517 -0.027221873
-0.12939201 0.087527834 -1.4327857 -0.077797115 0.011625519 -0.058739603 -0.00019461081 0.045916565
-0.033623323 0.08102982 -0.079958335 0.0883111 -0.022307053 0.13399865 -0.19710627 -0.04849295
0.08821692 0.0048596705 -0.10876389 -0.0364812 -0.03794651 -0.0487774 0.02199667 -0.154032
1.905166 -0.16229524 0.0944059 -1.1117554 -0.0043267934 -0.20793086 -0.21060666 -0.052053515
00000000: 412a 48bf 5988 c13d 4c37 47bd a61b 1bbe
00000010: bcc5 fe3c 077b af3d ffd0 b2bd e2bb f9bd
00000020: 4b73 84bd 9c1a 03bd 1dad 58be a1a3 c33d
00000030: 156e 29be 3619 a33f c04e 2abb 4980 b93d
00000040: b3b2 5ebd bfca aa3d 2cdc 353f 0b06 c53c
00000050: 6c6d 12be 87c4 47bd bbc5 e3bc 4aae ccbd
00000060: 3cb4 01be 9837 c8bc 05a1 c53f 25da 163b
00000070: e0bd 81be 76a9 42bc d8ea 793d 0595 cb3d
00000080: 20e2 84bc bc13 64be 335e 253e 62ca 6e3d
00000090: 589c 11be 81da 58be c0fd d2bd 0623 4fbd
000000a0: a01b e0bc 1c79 9c3c bc2c 14be 6599 e33c
000000b0: 1f00 c3bd d823 b53c b46d ddbd 3a9e 10be
000000c0: aa82 83bf 77a5 06be f6aa 083d 464d 803f
000000d0: 442d 0dbe 8b6a 81be 9e80 1cbe a667 773d
000000e0: 9048 1dbd 65d4 afbe 50b8 333f 80fa bcbd
000000f0: 71d3 1c3d 662d 28bd 3b5e e0bc c502 503d
00000100: dd26 7fbd 7430 ba3d 4797 913d d024 04bd
00000110: 7e85 7dbe 21fa ca3d 60c3 1d3b 9ba3 9cbe
00000120: fd66 853d aba2 92bd 00b6 6639 6fe2 01be
00000130: b5b1 eabd 923c bbbd c177 da39 8b6b 43be
00000140: 3eb1 71be b2f5 3e3d f891 c43f 9d22 36be
00000150: 6db8 7d3b 4c14 5fbb 370a 48bd 6a7c 4f3c
00000160: b02b 1fbe 9b24 cbbd 6348 0dbd 84d2 87be
00000170: 536f a93d c1b3 8e3d cd31 a3bd e0e3 70bd
00000180: 8993 8dbe c7ba 6fbd 1ec0 b23b c2aa febd
00000190: add7 e7be ed16 9c3d 8963 823d 17c0 c3bd
000001a0: 0470 bc3d 991b b83d fea6 8abd 5729 e13d
000001b0: 1b7a 263e ef3a af3d 13d0 a9bd b743 40bd
000001c0: ba05 04be ec0c 0140 aba5 cb3d 9393 9abd
000001d0: 3342 b33d 991c 933d 48e9 9c3d 71e9 58bd
000001e0: 62a7 e6bd 7d41 1fbd 6b5f a0bc 301e f6bb
000001f0: 51b2 06be 7804 a4bd c426 b13f 3dbc 48bd
00000200: 5d8b 4ebe 4cc1 08bd 417c a3bd 7e68 1e3d
00000210: 54a2 c9bc e25f 22be f23c 06be 80e4 c1ba
00000220: 8faf 75bd 7584 d1bd 927e 9abd 7bcf 1a3d
00000230: 2c9f aebc 2e93 663c 00a8 61bd 504e 44be
00000240: b18d c13d 851b 633d 5035 3d3d 112a 1bbd
00000250: 51dc 4ebf 9b32 aa3c 52e1 0d3d 1957 473f
00000260: bed2 0dbe 5b49 b2bc d1c8 40bd 57c9 03bc
00000270: 37df 1fbd 9b26 e4be 0100 a43f 5552 22be
00000280: f354 96bd b0df b8bd 39b9 b53d 7c8a 45bd
00000290: c56b b6bd a213 13be 2d50 26bd 1a39 24bd
000002a0: 30c8 55be 4bec c0bd 8c4a 0fbd 2bda 383d
000002b0: 4970 bd3d fe7d 3c3d 5615 773d 3fa8 13bd
000002c0: f6aa 4bbd e8fc b0bc 975b 87bc a46c 2cbe
000002d0: 2b67 59be 58a5 80bc e326 303f d153 7fbe
000002e0: ec62 9bbc ba41 523c 006e 53bd 8f9f edbc
000002f0: 9469 61be eba4 71be b427 c8bd d7bc 39be
00000300: 7a73 4c3d 8045 eaba 15e2 963d dc1b f43c
00000310: 9cae 24bd 9c33 fb3c a203 e73e 9943 953c
00000320: 2e50 943f 802b ddbc 259c 1e3d 29cf f6bd
00000330: 0d3b 77bb dbe1 a63d 67b0 46bd e1a6 52be
00000340: 36f5 003e 89e0 ad3d 89ea bc3c 6269 5a3d
00000350: 2e49 b23d 4445 71bf 086b aebd 36e4 6a3d
00000360: 8114 a83d 22aa 80bd 3b63 67bf 7e9f 9bbd
00000370: b8ff f5bd 9604 4e3d 0c5b c7bb 6800 dfbc
00000380: 577f 04be cb41 b33d 8665 b7bf 1854 9fbd
00000390: f678 3e3c f098 70bd 7110 4cb9 0213 3c3d
000003a0: 9cb8 09bd f6f2 a53d 32c1 a3bd 73dc b43d
000003b0: 48bd b6bc f136 093e 3ad6 49be 8ba0 46bd
000003c0: 13ab b43d df3d 9f3b 9abf debd 506d 15bd
000003d0: cd6d 1bbd d0ca 47bd 5c32 b43c 91ba 1dbe
000003e0: 7bdc f33f b930 26be e157 c13d 004e 8ebf
000003f0: c6c7 8dbb d4eb 54be 46a9 57be 1136 55bd

fc2.bias f4 [100]
-0.20007457 -0.18197565 -0.18536969 -0.3190915 -0.06866789 -0.0631431 -0.22307253 0.055917583
-0.21796364 -0.12073358 0.038542993 -0.24319723 -0.17456062 -0.17621404 -0.21071932 -0.17624938
-0.009335962 -0.33884495 -0.31344903 -0.2252701 -0.1634746 -0.18178624 -0.008457109 -0.13852203
-0.19036986 -0.12830955 -0.23698053 -0.22840925 -0.23549674 -0.193021 -0.2584178 -0.08495449
-0.16399537 -0.040259 -0.067134365 -0.07136246 8.09872e-05 -0.15713122 0.009413234 -0.17880218
-0.06931265 -0.315114 -0.19745655 -0.10004679 -0.11502814 -0.18354124 -0.1340436 -0.173749
0.006577324 -0.17468607 -0.12899196 -0.14108442 0.0048892284 -0.055336725 -0.20430072 0.0019350767
-0.16141969 -0.20354025 -0.17367987 -0.09218455 -0.043193195 -0.08057613 -0.18568952 -0.3012927
-0.2640163 -0.22700067 -0.17253874 -0.121911354 -0.1404066 -0.18675138 -0.21826804 -0.35183677
-0.1481822 -0.109421894 -0.08112035 0.037468094 -0.08001516 -0.0580374 -0.040441606 -0.11227453
-0.11584085 -0.16433255 -0.017574588 -0.27764475 -0.22269797 0.009258062 -0.058483098 -0.23634012
-0.044961467 -0.017321154 -0.13895822 -0.014137323 -0.13397868 -0.11045697 -0.0964724 -0.09206979
-0.11348866 -0.09322713 -0.27998716 -0.080970116
00000000: 59e0 4cbe d357 3abe 8dd1 3dbe f65f a3be
00000010: c0a1 8cbd 2b51 81bd 206d 64be d609 653d
00000020: dc31 5fbe 2b43 f7bd 42df 1d3d b208 79be
00000030: 05c0 32be 7471 34be cec6 57be b87a 34be
00000040: ddf5 18bc 167d adbe 647c a0be 35ad 66be
00000050: e365 27be 2c26 3abe b08f 0abc b8d8 0dbe
00000060: 51f0 42be 9463 03be 06ab 72be 1de4 69be
00000070: 0f26 71be 4ca7 45be 564f 84be 9ffc adbd
00000080: 67ee 27be 9fe6 24bd be7d 89bd 7b26 92bd
00000090: acd7 a938 02e7 20be f739 1a3c eb17 37be
000000a0: caf3 8dbd 9f56 a1be 0d32 4abe 55e5 ccbd
000000b0: e093 ebbd 3cf2 3bbe ba42 09be 42eb 31be
000000c0: 9886 d73b e8e0 32be 7816 04be 6f78 10be
000000d0: d235 a03b c3a8 62bd 3534 51be 66a2 fd3a
000000e0: 344b 25be db6c 50be 23d9 31be 41cb bcbd
000000f0: 59eb 30bd 1905 a5bd 6525 3ebe 0943 9abe
00000100: 252d 87be dd72 68be ffad 30be a9ac f9bd
00000110: bfc6 0fbe c13b 3fbe a881 5fbe f323 b4be
00000120: 13bd 17be 9618 e0bd 6d22 a6bd 2578 193d
00000130: fdde a3bd a0b8 6dbd 19a6 25bd 30f0 e5bd
00000140: f83d edbd cb46 28be 95f8 8fbc 7427 8ebe
00000150: f00a 64be 20af 173c f98b 6fbd 2503 72be
00000160: 8429 38bd 18e5 8dbc 104b 0ebe 3ba0 67bc
00000170: b531 09be 4437 e2bd 5293 c5bd 168f bcbd
00000180: be6c e8bd deed bebd 7a5a 8fbe a9d3 a5bd

fc3.weight f4 [3, 100]
-0.1667065 -0.077639 0.24778616 0.024793336 0.29091728 0.102131814 0.31070673 0.19170631
0.2105743 -0.09271109 0.29056242 -0.15704657 -0.73474634 0.07984196 0.37128517 0.2496787
0.11644099 -0.14037941 0.2874465 0.30135188 -0.10414234 0.44525388 0.26722965 0.1614716
0.3216184 -0.59867924 -0.20839262 -0.3961549 -0.22081243 0.03674909 -0.064794496 -0.37781918
0.297097 0.1772251 0.22358318 0.2677695 -0.19101834 -0.0844584 0.08539594 0.27562806
0.087295026 -0.31630373 -0.11730289 0.061397724 -0.9427266 -0.093808524 -0.2905363 0.33887777
-0.22613604 0.26341665 0.18086988 -0.07542925 -0.16924459 -0.62252456 -0.061951123 -0.07363161
0.326697 -0.4812112 0.21745737 0.33038917 0.1297048 0.009751556 -0.22822943 -0.1893028
-0.13781445 0.40706044 -0.333927 -0.5298602 -0.30799797 0.20063576 -0.5616779 -0.06990509
-0.063133985 0.28914613 -0.077702984 0.056106556 0.32336128 0.26592472 -0.42993575 -0.018452102
0.3031295 -0.4407259 -0.024195617 -0.05295401 0.29158664 -0.08062102 0.07685141 -0.45515424
0.34848842 -0.005137296 0.13587585 0.21199249 -0.19333924 0.17703451 0.20456238 0.24731518
0.22516452 0.23376088 -0.29322457 0.32403916 0.18653911 0.25463888 -0.11459828 0.25160673
-0.30303097 -0.45296422 -0.25785953 -0.41191518 -0.044664424 0.20793884 -0.41977668 0.093461126
0.20020048 0.06437669 0.3440226 -0.18385102 -0.57779676 0.07360156 0.22611839 0.21245548
0.09441863 -0.3045433 -0.2463887 -0.36591387 0.28622827 0.14349931 0.24158843 0.09628014
0.27174205 0.2701634 0.20404449 0.16071032 -0.17140137 -0.25975466 -0.28810588 -0.29234385
-0.32682428 -0.26338637 -0.31572422 0.22379394 -0.45539823 0.19342645 0.18682994 -0.4513114
0.23953684 0.17844288 0.03649655 0.36032534 -0.36441642 0.30816144 -0.3225102 0.3032869
0.06408889 0.118966416 0.2741119 -0.42147103 0.39376292 0.21510397 -0.2588084 -0.3160779
-0.1813496 -0.4350052 0.23606046 0.1350584 0.19039911 0.40196607 0.17824256 0.1602532
-0.3125185 0.12499547 0.10030206 0.1536852 0.31109074 -0.20666283 -0.41326296 -0.4871425
0.25058737 -0.41151127 0.06941934 -0.04295889 -0.106017925 0.13714907 -0.38473758 0.21858825
-0.31222612 -0.61686414 0.19492263 0.20327266 -0.21584293 -0.62733936 0.21259339 -0.25280932
0.10053251 -0.3051354 -0.149962 0.30227405 0.29573044 -0.3309248 0.2108869 -0.30933937
0.03904449 -0.13139369 -0.03513274 -0.24252711 -0.056425374 0.43323043 -0.10250985 0.037761234
-0.15393202 -0.26203442 0.2364607 0.07939766 0.43441883 0.07543381 -0.7249913 -0.07546406
0.36076796 0.08000128 -0.72084725 -0.5768215 -0.018720457 -0.14937818 -0.02737416 0.07814423
-0.6990573 0.31684092 0.037616223 0.25681955 -0.09252607 -0.2543457 -0.03212415 0.12649466
-0.10376809 0.21605921 0.13380049 0.17753565 0.523257 0.19206329 0.1064568 -0.31958598
0.13807853 0.16595083 -0.05163096 0.29021254 0.36831793 -0.02651767 0.19005446 -0.7653942
0.4332436 -0.7128396 0.20244695 -0.017573088 0.24264143 0.3550918 -0.14267081 0.32695562
00000000: 1cb5 2abe 3201 9fbd a8bb 7d3e 651b cb3c
00000010: 1cf3 943e 7c2a d13d f414 9f3e a94e 443e
00000020: caa0 573e 50df bdbd 99c4 943e d1d0 20be
00000030: 5618 3cbf 2e84 a33d 1719 be3e c6ab 7f3e
00000040: 9d78 ee3d 9fbf 0fbe 302c 933e cb4a 9a3e
00000050: 9448 d5bd 51f8 e33e 53d2 883e d058 253e
00000060: 2bab a43e 0b43 19bf e064 55be d1d4 cabe
00000070: a71c 62be 3786 163d fab2 84bd 8471 c1be
00000080: 191d 983e 7f7a 353e fdf2 643e 1519 893e
00000090: 509a 43be 87f8 acbd 11e4 ae3d 1f1f 8d3e
000000a0: bcc7 b23d 90f2 a1be 7f3c f0bd 2e7c 7b3d
000000b0: 8856 71bf af1e c0bd 2dc1 94be 6381 ad3e
000000c0: 3590 67be 8cde 863e f435 393e a77a 9abd
000000d0: 744e 2dbe c55d 1fbf 76c0 7dbd 2bcc 96bd
000000e0: d444 a73e 5061 f6be 25ad 5e3e c528 a93e
000000f0: 56d1 043e fec4 1f3c fab4 69be 98d8 41be
00000100: 3b1f 0dbe 3a6a d03e 7bf8 aabe eba4 07bf
00000110: e9b1 9dbe 7673 4d3e 1fca 0fbf 662a 8fbd
00000120: 644c 81bd f60a 943e be22 9fbd fdcf 653d
00000130: 9c8f a53e 4927 883e 8a20 dcbe dd28 97bc
00000140: ca33 9b3e d3a6 e1be e335 c6bc 4ee6 58bd
00000150: d84a 953e a21c a5bd 4664 9d3d fa09 e9be
00000160: 136d b23e c356 a8bb 0a23 0b3e 8f14 593e
00000170: b9fa 45be 8948 353e cd78 513e 3140 7d3e
00000180: 8791 663e 035f 6f3e 8821 96be 76e8 a53e
00000190: 1c04 3f3e 0760 823e 81b2 eabd 99d2 803e
000001a0: e026 9bbe edea e7be 2a06 84be 8ce6 d2be
000001b0: 0bf2 36bd ebed 543e f8ec d6be 8c68 bf3d
000001c0: 5b01 4d3e edd7 833d bb23 b03e 7143 3cbe
000001d0: 7dea 13bf 6abc 963d 948b 673e ee8d 593e
000001e0: 8e5e c13d 19ed 9bbe 524d 7cbe 1059 bbbe
000001f0: 838c 923e 7cf1 123e f562 773e 862e c53d
00000200: c621 8b3e db52 8a3e 0af1 503e 3f91 243e
00000210: d783 2fbe 90fe 84be 9d82 93be 18ae 95be
00000220: 8355 a7be 94da 86be 9ba6 a1be 3d2a 653e
00000230: f529 e9be 9511 463e 5950 3f3e 4a12 e7be
00000240: 2549 753e bbb9 363e 687d 153d 907c b83e
00000250: ca94 babe 56c7 9d3e 0f20 a5be 6c48 9b3e
00000260: 0941 833d aaa4 f33d 6558 8c3e 0dcb d7be
00000270: 4b9b c93e 3744 5c3e 8982 84be f6d4 a1be
00000280: b6b3 39be 00b9 debe d5b9 713e c04c 0a3e
00000290: fcf7 423e 7fce cd3e 3885 363e 6a19 243e
000002a0: 6d02 a0be a0fd ff3d 2b6b cd3d a75f 1d3e
000002b0: 4947 9f3e 6c9f 53be 3497 d3be be6a f9be
000002c0: fd4c 803e 9bb1 d2be ba2b 8e3d a9f5 2fbd
000002d0: ed1f d9bd ce70 0c3e 53fc c4be 99d5 5f3e
000002e0: 1adc 9fbe cfea 1dbf cc99 473e b526 503e
000002f0: ee05 5dbe 5099 20bf 15b2 593e 3970 81be
00000300: fde3 cd3d b53a 9cbe a38f 19be aac3 9a3e
00000310: fb69 973e fa6e a9be bcf2 573e bb61 9ebe
00000320: 1ded 1f3d 118c 06be 59e7 0fbd 0759 78be
00000330: 4b1e 67bd 61d0 dd3e aff0 d1bd 86ab 1a3d
00000340: 5ba0 1dbe 6029 86be c122 723e 3e9b a23d
00000350: 256c de3e 0b7d 9a3d 0899 39bf e78c 9abd
00000360: 94b6 b83e b6d7 a33d 7289 38bf 93aa 13bf
00000370: a55b 99bc 98f6 18be c63f e0bc 150a a03d
00000380: 6bf5 32bf f938 a23e 7813 1a3d da7d 833e
00000390: 4f7e bdbd 9939 82be 9d94 03bd d187 013e
000003a0: 5d84 d4bd a03e 5d3e ff02 093e e8cb 353e
000003b0: 2cf4 053f 3dac 443e 0606 da3d c6a0 a3be
000003c0: 7564 0d3e 04ef 293e fc7a 53bd bd96 943e
000003d0: 2b94 bc3e 963b d9bc a39d 423e e0f0 43bf
000003e0: 1bd2 dd3e a87c 36bf 414e 4f3e 70f5 8fbc
000003f0: ff76 783e 98ce b53e 4c18 12be ba66 a73e

fc3.bias f4 [3]
-0.14540122 -0.047952212 0.16472954
00000000: 0fe4 14be 8a69 44bd dcae 283e
