models/home_state-opt.onnx (onnx, 48002 bytes, 6 tensors)

fc1.weight f4 [100, 13]
00000000: 6bb7 dbbd 92e1 f6bd 89e5 553e b78c 893e
00000010: c465 38be ed5b 613d f06d f13d 138c 44bd
00000020: d3d2 48be b95d 5c3e 9d6a 953d a84a 913e
00000030: 7e0b 103e 08a8 2dbd d680 4d3e e2c4 88be
00000040: 2830 273e 3075 bc3d b437 6ebd fe01 3c3e
00000050: c145 813e 6ea9 78be 18aa e63d 24d9 33be
00000060: 9a22 6c3e 18b8 0b3e 8a34 3e3e 5018 aabe
00000070: 6fac 40be b418 f6bd b012 313e b808 1e3f
00000080: 8cc3 bb3e c892 153e 498a 493f 8fe6 52bf
00000090: 0b00 193f baf9 a13e 18f2 86bd 6ef1 8dbe
000000a0: 7a2f 663e f034 e63d 53f9 8b3e b826 f73d
000000b0: 6cf6 b2bd 20c3 563e e82e 4bbe fc2f e93d
000000c0: c27a 003e b0b7 343d 68e0 863d 6c05 34be
000000d0: e055 193c d277 84bd 80b5 ad3b 7a6b 15be
000000e0: eb47 70be a0a7 8d3d 559a 3ebe e071 3ebc
000000f0: 92fd 223e 7ac3 1d3e d87a 46be 0765 8c3e
00000100: d0ae 293e 7a90 80bd f3f4 883e fcff a4bd
00000110: 5c7f 3a3e c0ca 16bc b2c2 373e c805 c43d
00000120: 9655 283e 78df 2abe 981d 223e 80ae 43bb
00000130: d21b 0bbe a087 5b3e 68d1 333e a0e0 38be
00000140: f6e3 40be 1e32 003d fa6d 073d 0e97 a9bd
00000150: 519c f7bd 8cff 52be 74b0 71be b58c aabd
00000160: 0175 d43d 9650 6fbe f08e 693d 22bb 6b3e
00000170: cac3 773e 06f7 5b3e 0362 5fbe a42b 3b3e
00000180: 84f6 35be e0c0 60be d00f b33d dbb6 87be
00000190: 3c94 963d 7812 73bd d8be e8bd 3e6f 1c3e
000001a0: 2c7a aa3d 7acd 323e ce42 3b3e 0ebb 263e
000001b0: 2e48 723e bedb 3dbe 1ec9 79be 976a 853e
000001c0: 3c66 233e e037 593e bb8f 0fbe 63df 823e
000001d0: 60fe ed3d b2b4 6fbe f88b e13d 1ed0 7b3e
000001e0: 184d 523e daee 08be dab2 043e c695 2b3e
000001f0: abea 86be 1094 14bd 309c 663d 9de2 843e
00000200: 165e c4bd 5b5f 93bd 50e7 df3c 2a2d 99bd
00000210: 80d3 613b e941 79be 0cf8 c83d 1ee8 3d3e
00000220: 20ac 443d 5620 753e 4236 9cbd 50cd 4e3e
00000230: e6a3 b7bd 20f6 013d 9a26 20be 00b1 88bc
00000240: 4041 a13b 0032 533a ec4e e53d f880 723d
00000250: d83c 973d f83c 70bd 0e3f 46be d228 363e
00000260: 80a6 b03d e81b 4f3e 86eb 1ebe 8ef6 48be
00000270: c89d 4bbe 9651 2b3e 8e61 a0bd 1808 463d
00000280: 1eb4 73be 8358 0cbe a427 25be f580 26be
00000290: 654c 81be 4cde a5bd 90fa 283d 700a b23d
000002a0: 29cc 8c3e d8ed 82bd a256 1d3e 4fea 17be
000002b0: 289d 413e b07d 7cbe 456e 85be f89c 633d
000002c0: aeb7 453e 44be ba3d c683 2f3e 0063 89be
000002d0: d099 8e3c c6b0 323e ec27 8bbd 126c 383e
000002e0: 84f6 a53d 204e 5e3d c8ba 1d3d 2427 463e
000002f0: fa6c 763e 0854 5bbd 282a 01bd 1ede 7f3e
00000300: 4e76 053e 4e1e cbbd a99b 51be 80b0 983e
00000310: 6d95 f8be 92a8 94be f5df d73b 399d 493e
00000320: 3ff3 193e 797b 413f 875b be3f aa47 603f
00000330: 1a4c 7fbf dbd6 a43f 8782 4a3f 22c6 2ebd
00000340: c026 813d acdf be3d b899 8bbe 1206 7b3e
00000350: 7499 d1bd 408c c43c 804c ad3d b069 4ebe
00000360: a02f 983d d071 bd3c 408f 88be 4447 1dbd
00000370: 2cb8 bebd 407f 56bd 37cc f1bc 2888 273e
00000380: e7f2 81be 5642 8a3e 8f48 2bbd dd58 453b
00000390: 3e42 5b3e 3389 32be 10a8 b43d 0052 05be
000003a0: 4090 3dbe fd28 17be 392d 443e 8b5a ee3c
000003b0: 3743 163d a125 063f 3292 933e c1a7 423e
000003c0: f24f 0ebf a74d 37bd 2cbb 89be d2f6 95be
000003d0: 78df 9b3d 623e 84be 1b48 2dbd 2498 77bd
000003e0: 54b7 083e 4015 173c cf2d 03be 0ff6 6dbe
000003f0: 2842 383d 06eb 6b3e be25 51be 8602 dfbd
-0.107283436 -0.12054743 0.20888342 0.2686517 -0.1800757 0.055019308 0.11788547 -0.047985148
-0.19611673 0.21520127 0.072957255 0.2837727 0.14066884 -0.042396575 0.20068678 -0.2671271
0.16326964 0.09202039 -0.05815859 0.18360135 0.2524853 -0.24283382 0.112629116 -0.17563301
0.23060074 0.13644445 0.1857473 -0.33221674 -0.18815778 -0.120164305 0.17292285 0.61732054
0.36672628 0.14606774 0.7872663 -0.82383054 0.5976569 0.3163584 -0.065891445 -0.2772326
0.22479048 0.11240566 0.27338657 0.12067932 -0.087384075 0.20972872 -0.19842112 0.113861054
0.12546828 0.04412049 0.06585771 -0.17580193 0.009358853 -0.064681664 0.0053011775 -0.1459178
-0.23464935 0.069167376 -0.1861356 -0.01162383 0.15917042 0.154066 -0.19382799 0.27420828
0.16570592 -0.06277557 0.2674938 -0.08056638 0.18212646 -0.009203613 0.17945364 0.09571415
0.16438898 -0.16686809 0.15831602 -0.0029858649 -0.13584831 0.21438456 0.17560351 -0.18054438
-0.1883696 0.031297795 0.033063866 -0.082807645 -0.12090362 -0.20605296 -0.23602468 -0.08327619
0.10373879 -0.23370585 0.05702108 0.23020604 0.24195781 0.2148095 -0.21814732 0.18278366
-0.1776982 -0.21948576 0.0874325 -0.26506695 0.07352492 -0.059343785 -0.113645256 0.1527681
0.08324084 0.17461196 0.18287203 0.16282293 0.23660347 -0.18540856 -0.24393126 0.26057884
0.15956968 0.21212721 -0.14019673 0.25561056 0.11620784 -0.23408774 0.11013025 0.24591109
0.20537221 -0.13372365 0.12958851 0.16756353 -0.26350912 -0.036274016 0.056301296 0.25954142
-0.09588258 -0.07195922 0.027331978 -0.074793175 0.003445834 -0.24341549 0.09812936 0.18545577
0.048015714 0.23938116 -0.07627536 0.20195508 -0.08966808 0.031728864 -0.15639725 -0.016685963
0.0049211085 0.0008056462 0.11196694 0.059205025 0.07384652 -0.058651894 -0.19359991 0.17789009
0.08625507 0.20225489 -0.15519533 -0.19625303 -0.19884408 0.16730341 -0.07831107 0.048347563
-0.23799178 -0.1370564 -0.16128403 -0.1626013 -0.25253597 -0.080990404 0.04125458 0.08693397
0.27499512 -0.06393021 0.15365079 -0.14835475 0.18907607 -0.24657321 -0.2606069 0.05556962
0.1930835 0.091183215 0.17140111 -0.26833344 0.017407328 0.17450246 -0.06794724 0.18009976
0.0810366 0.054273725 0.038508207 0.19350868 0.24065009 -0.053546935 -0.031534344 0.24987075
0.13033411 -0.099178895 -0.20469536 0.2982216 -0.48551503 -0.2903486 0.006587977 0.19688882
0.15034197 0.7557903 1.4871682 0.8760935 -0.99725497 1.2878069 0.7910542 -0.042669423
0.06306219 0.09320006 -0.27265716 0.24514034 -0.10234347 0.023992658 0.08461857 -0.20157504
0.07430959 0.02312556 -0.2667179 -0.038398042 -0.09312472 -0.05236745 -0.029516323 0.16360533
-0.25380632 0.27003735 -0.041817244 0.003011278 0.21411988 -0.1743515 0.08821118 -0.13019562
-0.18512058 -0.1476173 0.19157876 0.029095909 0.036685195 0.5240117 0.28822476 0.19009306
-0.55590737 -0.04475179 -0.26900613 -0.2928987 0.07610983 -0.25828844 -0.042305093 -0.060447827
0.13351184 0.009221375 -0.12810443 -0.23238395 0.044984967 0.23038873 -0.20424554 -0.10889153

fc1.bias f4 [100]
00000000: f710 8abd 8cc8 5a3e bb47 753e 401d 253c
00000010: 94a3 923d a0a8 9b3c c734 183e 881c be3d
00000020: ee5b 7c3e df98 1abe 069b 6d3e 4a71 64be
00000030: c65b e3bd ae4b 0abe 6401 55bd e5b6 423f
00000040: 1e4d 42be c436 ddbd f0eb b53e 4e6c 39be
00000050: 1070 5abe b624 63bf 02e8 4fbe 0a7c 713e
00000060: a427 6cbe 16f2 3f3e d076 cf3d f622 7dbe
00000070: f089 a2bc 349d ab3d 3138 f83d 7f6b 023c
00000080: 287c 2cbf 3823 513e 7e19 71be 6f61 1cbd
00000090: 6b15 f3bd 9353 01be 04bb 9b3e 15ad 23be
000000a0: b491 033e f0a0 abbd ba41 493e 243b d53d
000000b0: 7345 01be c474 a2bd d26b 48be c0ad 5d3d
000000c0: b054 e73d 1bee 13be d84a 503e 2792 8cbe
000000d0: f1f2 0b3e 310d 8cbe 6c38 933d c8af 2bbd
000000e0: d08c c3bc 00b3 433d fc57 53be 5053 283e
000000f0: 00c0 173c 508e c8bc 1088 e9bd 202b 63be
00000100: 328c 00be ec02 82be 1e8d 1b3d 3692 6abe
00000110: d845 8a3d 23d8 253d 54f4 c13d 0026 133e
00000120: 18e4 003d ebc0 993e caf8 99bd cce7 603e
00000130: 18fd 3e3e c0e5 753c 1ab3 313e 0798 813e
00000140: 4a9d 39be 4bbd e43e a04c 7fbe bbfa d63e
00000150: 8ebf c5be 7228 2cbe e137 27be c838 68bd
00000160: 2672 e6bd 0045 673c daa5 373e 32eb 6d3e
00000170: 8e71 093e 12ce f9bd 36a6 a7bd 9c3b 78be
00000180: 8054 7c3b eaa9 b83d be48 223f 380f 343d
-0.06741517 0.21365565 0.23953144 0.0100777745 0.07160106 0.019001305 0.14863883 0.09282786
0.24644443 -0.15097378 0.23203668 -0.22308841 -0.11101489 -0.13505432 -0.05200328 0.76060325
-0.1897473 -0.10801461 0.3553157 -0.18107721 -0.21331811 -0.8872789 -0.20303348 0.23582473
-0.23061997 0.18744692 0.101300836 -0.24720368 -0.019841164 0.083795935 0.12120093 0.007960199
-0.6737695 0.20423591 -0.23544881 -0.038178857 -0.118693195 -0.12629537 0.3041612 -0.15983994
0.1284855 -0.08380306 0.19653979 0.10411671 -0.12624149 -0.079324275 -0.1957238 0.05412078
0.1129545 -0.14446299 0.2034105 -0.27455255 0.13666894 -0.27353814 0.07188496 -0.041915685
-0.023870856 0.04777813 -0.20639032 0.16438031 0.009262085 -0.024481922 -0.11402905 -0.2218442
-0.1255348 -0.25392854 0.037976377 -0.22907338 0.06751603 0.040489327 0.0947043 0.14369965
0.031467527 0.30029997 -0.07518156 0.21963423 0.18651235 0.01500839 0.17353478 0.253113
-0.18126407 0.4467567 -0.24931574 0.41988167 -0.38622707 -0.16812304 -0.1632991 -0.056694776
-0.11252241 0.014115572 0.17934361 0.23234251 0.13422224 -0.12197508 -0.08185999 -0.24241489
0.0038502514 0.090167835 0.63392246 0.043959826

fc2.weight f4 [100, 100]
00000000: 61b0 97bd d41e d3bd 42ef 873e bb02 bd3d
00000010: 89e9 513d e427 9dbd cd5e 70bd 5c21 1e3c
00000020: fe81 36bc d413 acbc 3240 613d f967 ae3d
00000030: b5c6 87bc b2d3 89bc e977 8e3d 4bf2 373f
00000040: 3494 febc f0ad c9bb b5eb fbbd ca35 693d
00000050: c94e b03d b5a9 d1be 93e4 08be 2668 11bd
00000060: da38 cabd fc40 823d d298 4f3d 92b0 acbd
00000070: af4b da3c 0a83 74bd a01b 4c3d 99ba 903d
00000080: 5d62 a83e 82bd 8dbd 4e64 b9bd 3049 6f3c
00000090: 7102 0a3d d371 7dbd 29a8 843e e084 96bd
000000a0: b270 703d 0000 9239 0be2 9abc f521 4ebd
000000b0: 1202 063d a8c5 bdbd 0cec 58bb a891 323c
000000c0: 455b 7abd b037 29bd 06ed 843d e142 b13d
000000d0: f659 b4bc f38e b2bc d149 5a3d cab2 94bd
000000e0: 6814 5e3c 6432 d73c 1ad8 923d d0b4 923c
000000f0: f948 3eba fc57 973d e3cb 5cbc 5a28 adbd
00000100: 6fbf 55bd 7a69 a5bd 634b 0540 46d1 d73a
00000110: 84c5 88bd 7454 fa3c 5e11 613d e7a1 8fbc
00000120: 33a8 82bc 2c4d 92bf 7fab 63bd 42e8 1f3c
00000130: 10a1 b53c 4b65 3a3d f5e1 16bb 7e2a 0f3d
00000140: 84f7 8fbd d31d 0ebd e6a2 15bd 82a0 d9bd
00000150: 216e 33be eacd d23c 4e61 ad3c f670 c0bd
00000160: f13b 903b 4b70 953d 3656 333d f788 2c3d
00000170: ca03 a6bb d654 5f3d 882c bcbd 92ad d0bd
00000180: 822c 473d db39 8dbd 2948 9a3f 0074 8c3c
00000190: 5241 02bd 89c1 b8bd 298b ccbe 6d64 1dbd
000001a0: 1963 ae3d 83dc d0bd 4425 3dbc 607e 8f3c
000001b0: 7e6a 10bd 5690 abbd c142 863d 2caf ea3c
000001c0: b785 263d 9518 ab3d 42e4 273d 374a 10bf
000001d0: ae4f 393d 3cb5 89bd 0a59 4b3e 14df bb3c
000001e0: 18c7 723c 8cd1 093f 7baf a5be 4476 d93c
000001f0: c879 183d e117 b63c 303e 29bd d5fd 88bd
00000200: 42d8 043c 801c b2bb c371 d4bd ae5d 6d3d
00000210: ee95 aabf a885 c5bd eb20 d6bd 7f4a ee3d
00000220: 4c5a 5ebe d8e1 1a3c 0f2d be3d 1c91 38bd
00000230: 82ba 493d 8591 a1bd 87e8 bebd 61b2 c63c
00000240: 11d9 c73d 5530 ddbd 3d0e 91bd 40d0 cebc
00000250: dfb9 f63c 09dd 953d f3b5 dabd 00bd 1a3b
00000260: 8fd0 d23c 41f3 cbbd a5d3 bb3c 2202 23bd
00000270: 7898 bf3c a07e 5c3b 3c1d 413d 44f4 403d
00000280: b325 983d ea93 bcbb 4d66 90bd 6c58 afbc
00000290: a02e 373d 40dd eaba 9cc2 0dc0 ce9c e5bb
000002a0: cb22 99bd 20c7 d8be ba21 303d f542 90bc
000002b0: 9e95 6fbb c2f4 d83f d66b 943d dcb2 68bd
000002c0: 343d 49bd 7657 4fbd ca7b bdbb 1072 bfbd
000002d0: ca0e a8bd e14e be3e ff67 8d3d 831a e23e
000002e0: 744a 293e 61d7 8abd b5d7 a83c 6aff 2c3d
000002f0: 58ca 923d 49a9 943d b3c6 a03d 9dfa 88bd
00000300: ad57 b43d 9810 27bc 48de b7bc 1393 913a
00000310: cc90 acbc b2da 633d e30c bdbf 8a19 2d3d
00000320: 397f e6bc 5749 2d3d 6245 f9be 07ce a03d
00000330: 7e4e 913d ea5a ec3c 916d 8b3b f468 aa3d
00000340: fa71 833d aa50 b8bd 645a 14bd 0080 a539
00000350: 8717 0abd 0897 d33d 590f 8a3d 914a 91bf
00000360: 9987 a33d 46b4 0fbd 3018 c9be ce6a 4a3d
00000370: 4020 0abb aeb4 1e3f af97 0f3f f796 c6bd
00000380: 417c 023d 74ca d73b 6e3a 5f3d 2196 693c
00000390: 2e4b c73d a80c 32bc 8498 683c 8b38 55bd
000003a0: 40c6 243f be92 1e3d 4be2 f7bc a929 44bb
000003b0: 744a ca3d 5a64 3abd 067e 8cbe c4c7 6fbc
000003c0: ec48 b93c fa88 8abd e0d3 fc3b 39cf 023e
000003d0: 9d7a 913d d4cd ca3d 23e4 153d 0c10 af3c
000003e0: 9b98 153d e443 12bd 39cf 66bd a010 a53b
000003f0: 0889 36bd c63e c73d a494 8abd f743 edbc
-0.074066885 -0.103086144 0.26549727 0.092290364 0.051248107 -0.07673624 -0.05868416 0.009651508
-0.011139391 -0.021005549 0.054992862 0.08515925 -0.016574243 -0.016824577 0.06956465 0.71854085
-0.031076528 -0.006154768 -0.12300817 0.056936063 0.08608777 -0.4094979 -0.13368444 -0.035499714
-0.09874125 0.06360051 0.05068285 -0.084321156 0.026647417 -0.05969528 0.049831033 0.07066841
0.32887545 -0.06920911 -0.09052335 0.014604852 0.033693735 -0.06187613 0.25909546 -0.07349563
0.058701225 0.0002784729 -0.018906614 -0.050325353 0.03271682 -0.092662156 -0.003309968 0.010898985
-0.061122198 -0.041312873 0.06490521 0.08655334 -0.022015553 -0.02179668 0.053293053 -0.07260664
0.01355467 0.026269145 0.07170124 0.017908484 -0.00072587986 0.073898286 -0.013476345 -0.08454962
-0.05218452 -0.08076759 2.0827262 0.0016465567 -0.06678298 0.030557849 0.054948203 -0.017533256
-0.015949344 -1.1429801 -0.055583473 0.009759964 0.022171527 0.045506757 -0.0023022864 0.034952633
-0.07029632 -0.03469641 -0.036532305 -0.106263176 -0.1752248 0.025732953 0.021164563 -0.093965456
0.004401677 0.07296809 0.04378339 0.042122807 -0.0050663697 0.054524265 -0.09188181 -0.10189356
0.04862643 -0.06895801 1.2053272 0.017145157 -0.031800576 -0.09021289 -0.3994992 -0.03842585
0.08514995 -0.10198309 -0.011544529 0.017516315 -0.03525781 -0.08377139 0.06555701 0.028647982
0.040654864 0.08354298 0.040989168 -0.5636324 0.045242004 -0.06724021 0.19858184 0.02293352
0.014817975 0.5383537 -0.32360443 0.026545651 0.037225515 0.022228183 -0.041319072 -0.066890396
0.0081082005 -0.0054355264 -0.10373261 0.057950668 -1.3327005 -0.096446335 -0.10455497 0.11635303
-0.21714133 0.009453259 0.09285938 -0.045060262 0.049250133 -0.07889084 -0.09321695 0.02425498
0.09758199 -0.10800234 -0.07082794 -0.025245786 0.030117927 0.0731755 -0.10679235 0.0023611188
0.025734214 -0.099585064 0.022928068 -0.039796956 0.023388132 0.003364481 0.04714702 0.04710795
0.074290656 -0.0057549374 -0.07050762 -0.021404468 0.0447222 -0.0017918721 -2.215003 -0.007007218
-0.07477339 -0.4233942 0.043000914 -0.017610053 -0.0036557685 1.6949694 0.072471306 -0.0568112
-0.049130633 -0.05062052 -0.005782579 -0.093479276 -0.08205946 0.37169555 0.06904601 0.44160852
0.16532308 -0.067793615 0.02061067 0.04223577 0.071675 0.07258851 0.07850399 -0.06688426
0.08805785 -0.010196827 -0.02244486 0.0011106454 -0.021065138 0.055628486 -1.4769558 0.042260684
-0.028136836 0.04230627 -0.48685747 0.078517966 0.07095049 0.028851945 0.0042550047 0.083207995
0.06418224 -0.089997604 -0.036219016 0.0003156662 -0.033713844 0.10331541 0.067412086 -1.1350881
0.079848476 -0.03508403 -0.39276266 0.049418263 -0.0021076351 0.61994445 0.56090826 -0.09696763
0.03185678 0.0065854136 0.054499082 0.014256985 0.09731136 -0.010867275 0.014196519 -0.052055877
0.64365005 0.038714163 -0.030259272 -0.0029932058 0.09877482 -0.04550586 -0.27439898 -0.01463503
0.02261778 -0.067644075 0.007715687 0.12774362 0.07103465 0.0990254 0.03659452 0.021369956
0.03652249 -0.035709277 -0.056349967 0.0050373822 -0.044564277 0.0972877 -0.06766632 -0.028963072

fc2.bias f4 [100]
00000000: c45f a6bc aeed 16bb 2483 5cbd 4272 84bc
00000010: b10d 19bd 6705 a4bd 3a2c 83bd 4344 9a3c
00000020: 88f9 2a3d 2f5b cabd 4349 ab3d 5825 b83d
00000030: 9eb5 a0bd 5029 903d 7e85 353d 4f18 97bb
00000040: 6aca aa3d a643 37bd 0948 953d 2971 cbbd
00000050: f6e8 e8bc 5150 29bd 6cd7 a8bd dae1 73bd
00000060: 59ac bebd e757 103d 491e 433d d918 5ebd
00000070: 438b b03d 5695 e33b 5ec2 9ebd 5847 af3d
00000080: 76c5 a93d 9841 06bc 836c 2dbc 271c 69bd
00000090: 770b 32bc 9818 8d3d 9337 873d 0e65 e53d
000000a0: 2f27 143d 1707 ee3c e8c8 c53c a838 99bc
000000b0: e254 5ebd d8f6 95bd e05b 9fbd 7b97 48bb
000000c0: 7136 c3bb 398d 413d be1d 5ebc 34c7 7dbd
000000d0: c306 65bd 41eb 22bd 043c a13d 4942 b7bd
000000e0: 11d9 f4bd b659 c83c 4c9e b9bd 6df9 f13d
000000f0: 82d2 c4bd 4acf a1bd c8c9 b33d 1ac7 233c
00000100: 6608 2dbd 7c89 a73d df6a 2fbc 6f01 d13d
00000110: 829a 2cbb a700 273d b501 32bd 7d01 0b3d
00000120: 6198 73bd 76bb d13d 89f6 ad3d 87d9 91bc
00000130: a9a3 723d 9b69 ff3b b560 973d 8500 81bd
00000140: 660f a33d 3e7e 5f3d ac51 7b3d 1089 763d
00000150: 700a bb3d 08b8 1fbd eaa1 923d ce02 5d3d
00000160: 1405 1fbd 9ccf 5fbc 47ea b83c 0ce1 5cbd
00000170: ed30 843d 4f59 7d3d 2a97 883d c014 b33b
00000180: 2795 f5bd cadf 64bd 2747 d33b 1ba1 ce3d
-0.020309336 -0.0023029852 -0.053836003 -0.016167764 -0.037366573 -0.08008843 -0.0640492 0.018831378
0.041741878 -0.09880673 0.08363583 0.08991498 -0.07847141 0.0703913 0.04431676 -0.004611052
0.08339389 -0.04474225 0.0728913 -0.09933693 -0.028431397 -0.04133636 -0.082442135 -0.05954156
-0.093102165 0.03524008 0.047636304 -0.054222915 0.08620312 0.0069452925 -0.07751916 0.085585296
0.08289616 -0.00819435 -0.010584953 -0.056911614 -0.010866991 0.068894565 0.06602397 0.11200915
0.03617018 0.029056115 0.024143651 -0.018703774 -0.05428017 -0.07322472 -0.07781196 -0.0030607868
-0.0059574177 0.04725382 -0.013556896 -0.061957553 -0.05591465 -0.039775137 0.07872775 -0.0894819
-0.11955465 0.02445684 -0.09063396 0.11815152 -0.09610464 -0.079008654 0.08778721 0.0099962
-0.042244337 0.0818052 -0.010706632 0.102053516 -0.002633721 0.040772106 -0.04345866 0.033936966
-0.05947149 0.102408335 0.084942885 -0.01780392 0.05923811 0.0077945716 0.07391492 -0.06298927
0.079619214 0.054563753 0.061357185 0.060189307 0.0913285 -0.038993865 0.07159789 0.053957753
-0.038823202 -0.013660338 0.02257265 -0.05392556 0.06454644 0.06185275 0.06669457 0.00546512
-0.11991339 -0.055877484 0.006447691 0.10089322

fc3.weight f4 [3, 100]
00000000: b0e4 353e 7cfe c3be f502 e63e 35bb 0b3f
00000010: f702 1dbf 98a1 d03e 7a25 e83e 5a01 e43e
00000020: 6ec0 f43c 5a6c 8ebe 72fa adbe 91cb 383e
00000030: 6a91 a7be 66b9 8a3e 4d7e 3e3e 8324 d93e
00000040: 3006 f03e 5a4c 5cbe a35c 00bf fa4b a5be
00000050: b510 ddbe 98ee 05bf de3d 07be df57 82be
00000060: 3eaa 8abe e898 113e 313e 883e c35e 693e
00000070: 0ef0 d8be c8ce bd3e 33a4 3dbe fbc2 3fbd
00000080: c993 d43e 11fc e6be 60d5 dbbe a81c aabe
00000090: 43e1 a53e 35c1 cdbe 4489 ccbe 3617 5c3e
000000a0: dc34 e2be 5f84 fa3e 8086 acbe 1097 e33e
000000b0: 9e38 e23e 3234 d2be 1ac0 a1be 2209 11bf
000000c0: 0a61 ce3e c842 86be d709 b13e efad d23e
000000d0: 6716 1c3e da28 e7be 181e 0cbf 9f22 d33e
000000e0: 3cb0 96be 5d00 cebe 4c9d 2abe 0076 f43e
000000f0: 532c 7ebd d757 8ebe 7491 4e3e 81a1 f23e
00000100: 43f9 fc3e db66 a2be 34d3 c2be 88f9 b23e
00000110: fe8e 003e a59a f6be 7a22 0a3f 2c7d babe
00000120: dd3d 12bf f7af dc3e a912 eebe 8d6f f13e
00000130: 9054 ccbe 9fb5 cf3e ac85 e9be 32a6 4abe
00000140: 8024 b5be 0ca1 0a3d b6c0 bcbe 262a b83d
00000150: b968 cdbd 7177 e23e 1f4a 053f cc12 8bbe
00000160: db45 95be 3b15 cd3e 0530 e63d eff2 f3bc
00000170: 9d51 9e3e 6729 da3e a537 fbbe 0ab2 9b3e
00000180: 0938 3cbe 6a58 863e 908c d6be ade9 ac3e
00000190: 38e5 ef3e b6f9 20bf 46b7 08bf 73fc b4be
000001a0: 2f4e dc3e fd75 c6be 1880 adbe cea4 9bbe
000001b0: 3b56 06bf a486 273e 01f3 d33e e096 a93e
000001c0: db55 a43e 001c d13e f365 033f 4a1d 4dbe
000001d0: 978d 0dbf f79c e1be 1e8a bc3e fb8e 26be
000001e0: 7309 633e 3495 b43e 5e40 fb3e 20e2 ba3e
000001f0: 4ad9 fb3e 7aab 043f f692 f0be 47f9 c0be
00000200: 40a1 9d3e aece 06bf a7e4 043f f1c0 14bf
00000210: 3738 12bf 6ced 66bf dab6 913e 548d a43e
00000220: 0673 e9be b676 a63e 8c4d c73d 138d 16bf
00000230: 7b26 8c3e fe1c d9be 8a3d 943e 9b8a 78be
00000240: 3c0f d0be 4929 2bbd 61b6 bcbc 1619 233e
00000250: 5478 11bf d9b4 a0be 0377 c1bc bf60 91bd
00000260: c38a 26bf 47f5 aa3e 01af be3d cb57 78be
00000270: b035 e23e 21e7 673e fafb b0be 0268 02bf
00000280: 7dc5 0a3f c393 1cbe e441 b43e 384f f9be
00000290: a10d fdbe 7164 b13e 0d6b ec3e 609a 08bf
000002a0: ca01 fe3e 939c 323e 3cb7 ddbe 3c56 bbbd
000002b0: c1ea 213e b1b8 50bd 8b39 b23e e841 0fbe
000002c0: 53a3 493e 1b87 98be 680b 113e 6de6 ee3e
000002d0: 7465 7c3e b44b 2fbf c09c f83d c9f6 143f
000002e0: 499a 1cbf a4f7 d7be 1084 09bf 9f1a 63be
000002f0: 8834 6cbe 9e2f d73d 00a8 c43e c73d 073f
00000300: ef3a 933e 9e6c 25bf 226c b03e f044 b73e
00000310: bcf2 003f ba64 9a3e 1a05 4c3e dd0f e5be
00000320: f027 edbe b763 203f 084f f53d 0e9f 9abd
00000330: becd c63d 5943 423e 8f98 76be 88fd e2bd
00000340: 2fc4 fa3e 8940 1a3d 81fb 043d 9f91 ffbe
00000350: 4e5f 9fbd 12ac 18bf bbf5 1dbf 5199 60be
00000360: 29e8 553d d6e4 f03e d26e 763e 1167 e53e
00000370: e48e 90bc 5036 923e 9417 bebe 755a 8dbe
00000380: 76e1 91be 5545 1abf 05fb 153e 5c4d 003d
00000390: f612 5e3e 9010 a2bc d267 c1be 5156 093f
000003a0: 35db 403e 235b 5d3f f777 743b 14f2 b33d
000003b0: dd65 e2bc 424b 0c3e 6108 783e 25f8 ac3e
000003c0: fab4 5d3e c36d 1cbe 9a22 103e 0da9 07be
000003d0: 6aa0 b03c 1a5c 923e 3cc7 ae3e 511b c93e
000003e0: 3a6a 493e c36a 1c3f 15fd 95be 871b 95be
000003f0: 70f2 d03e b812 1cbd dc08 1c3e a822 94be
0.17763019 -0.38280094 0.4492413 0.5458253 -0.6133265 0.40748286 0.45341092 0.4453228
0.029876914 -0.2781704 -0.33980137 0.18046404 -0.3272813 0.27094573 0.18602867 0.4241067
0.4687972 -0.21513501 -0.5014135 -0.32284528 -0.4317681 -0.5231719 -0.13207194 -0.25457665
-0.2708301 0.14218485 0.26609948 0.22790055 -0.42370647 0.37071824 -0.18519668 -0.046816807
0.41519 -0.45114186 -0.4293623 -0.33224988 0.32398424 -0.40186468 -0.39948475 0.2149323
-0.44180954 0.48929116 -0.33696365 0.4445119 0.4418382 -0.41055447 -0.31591874 -0.5665456
0.4030841 -0.26222825 0.3457782 0.41148326 0.15242921 -0.45148355 -0.5473342 0.4123735
-0.2943133 -0.40234652 -0.16661566 0.47746277 -0.06205399 -0.2780139 0.20172673 0.47388843
0.49408922 -0.31719097 -0.3805176 0.34956002 0.12554547 -0.4816486 0.5395886 -0.36423624
-0.57125646 0.43103 -0.46498612 0.4715542 -0.39908266 0.40568253 -0.45609796 -0.19789961
-0.3537941 0.033844993 -0.36865777 0.08992414 -0.1002974 0.44231752 0.52066225 -0.27162778
-0.29154858 0.4005526 0.11239628 -0.029778926 0.3092164 0.42609712 -0.4906589 0.3040927
-0.1838075 0.2623933 -0.41904116 0.3377203 0.46854568 -0.6288103 -0.53404653 -0.35348853
0.430284 -0.38761893 -0.3388679 -0.30399173 -0.5247533 0.16359955 0.41396335 0.3312292
0.32096753 0.40841675 0.5132744 -0.20030704 -0.55294174 -0.44065067 0.36824125 -0.1626548
0.22171573 0.35270083 0.49072546 0.36500645 0.49189216 0.5182415 -0.46987122 -0.37690184
0.30787086 -0.5265912 0.51911396 -0.58106905 -0.5711703 -0.9020603 0.28459817 0.32139075
-0.45595568 0.32512444 0.09731588 -0.5880901 0.27373108 -0.42404932 0.289532 -0.24271624
-0.40636623 -0.04178742 -0.023036184 0.15927538 -0.5682423 -0.31387976 -0.02361632 -0.07098531
-0.65055484 0.33390257 0.09310723 -0.2425224 0.44181585 0.22646762 -0.34567243 -0.50939953
0.54207593 -0.15290742 0.3520652 -0.48693252 -0.4942446 0.34646943 0.46175423 -0.5336056
0.4961074 0.17442541 -0.4330386 -0.09147307 0.15812208 -0.050957385 0.34809527 -0.13989985
0.1969121 -0.29790577 0.14164507 0.46660176 0.24648076 -0.6847489 0.12139273 0.58189064
-0.6117292 -0.42181122 -0.53717136 -0.22178124 -0.23066914 0.10507129 0.38409424 0.5282864
0.287559 -0.6461886 0.344575 0.35794783 0.50370383 0.30154973 0.19923821 -0.44738665
-0.46319532 0.6265215 0.11977965 -0.075498685 0.09707211 0.18971004 -0.24081634 -0.110835135
0.489778 0.0376592 0.032466415 -0.49915788 -0.0778185 -0.5963756 -0.6170308 -0.21933486
0.05222336 0.47049588 0.24065712 0.44805196 -0.01764626 0.28557062 -0.37127364 -0.27608076
-0.28492326 -0.6026204 0.14646538 0.031323776 0.2168692 -0.019783288 -0.3777452 0.53647333
0.18833621 0.8646719 0.003730295 0.08786407 -0.027636463 0.13700584 0.24221946 0.3378307
0.21651068 -0.15276246 0.140757 -0.13248082 0.021560866 0.28585893 0.3413638 0.39278653
0.19669428 0.61100405 -0.2929465 -0.29122564 0.40809965 -0.03810379 0.15237755 -0.2893269

fc3.bias f4 [3]
00000000: 1983 013e 27f3 f73c 09c1 343d
0.12647666 0.030267311 0.044129405
