models/home_state_dict.pt (torch, 49439 bytes, 6 tensors)

fc1.weight f4 [100, 13]
0	0x3e26e5cc	0.16298598
1	0xbe775b54	-0.24155933
2	0xbe507708	-0.20357907
3	0xbdbdb100	-0.09262276
4	0xbe5baf68	-0.21453631
5	0x3de3ca7c	0.11122605
6	0xbe5e05eb	-0.21681945
7	0x3e2c2130	0.16809535
8	0xbe3ae55f	-0.1825156
9	0x3e40faac	0.18845624
10	0xbdc5b580	-0.09653759
11	0xbe4df316	-0.20112261
12	0x3e58a0a8	0.21155035
13	0xbe7044f2	-0.234638
14	0x3d2c7a78	0.042108983
15	0x3dc5434c	0.096319765
16	0x3e778c8e	0.24174711
17	0x3e7b16d6	0.2452043
18	0x3e348c28	0.1763159
19	0x3e5e9c1a	0.21739236
20	0x3e6d19a6	0.23154315
21	0x3e7ee95a	0.24893704
22	0x3e4315a4	0.19051224
23	0x3e811ab7	0.25215694
24	0x3e2c1c5c	0.16807693
25	0x3e641046	0.22271833
26	0xbba42a40	-0.0050099194
27	0xbe4ffad0	-0.20310521
28	0x3e31695e	0.1732535
29	0xbd8f6dfc	-0.070034
30	0xbd4c0934	-0.049813464
31	0xbc87d830	-0.016582578
32	0x3cd33d00	0.025785923
33	0x3d92943c	0.0715718
34	0xbe599c29	-0.21250977
35	0x3db1f56c	0.08689389
36	0xbd539a98	-0.051661104
37	0x3e36d8dc	0.17856163
38	0x3e87d0c1	0.26526454
39	0xbd9e6ac6	-0.07735209
40	0xbbd23b40	-0.0064157546
41	0x3e512fa2	0.20428327
42	0xbbcc1d00	-0.006229043
43	0x3e86990d	0.26288643
44	0x3e4545f8	0.19264972
45	0xbe2bda95	-0.16782601
46	0x3e5f21c4	0.21790224
47	0xbe51bab0	-0.20481372
48	0xbd7cd7f0	-0.06172937
49	0x3d02ea70	0.03196186
50	0x3e79dd82	0.24400905
51	0x3e504e3c	0.20342344
52	0xbe3dfa3e	-0.18552491
53	0x3e47585c	0.194673
54	0xbe5c62fe	-0.21522138
55	0xbe556032	-0.20837477
56	0xbe150dda	-0.14556065
57	0x3d283ba0	0.041072488
58	0xbe79c66c	-0.24392098
59	0x3e17817c	0.14795488
60	0x3e850659	0.25981405
61	0x3da479fc	0.08031079
62	0xbdf5355c	-0.11973068
63	0x3e51336c	0.20429772
64	0xbe15423d	-0.14576049
65	0x3e7c18fa	0.24618903
66	0x3dfc0b80	0.12306881
67	0x3e4cd898	0.20004499
68	0x3c9fcf50	0.019508034
69	0xbe5d8180	-0.21631432
70	0xbe7cb187	-0.24677096
71	0xbe8941ca	-0.26808006
72	0x3e11b5e2	0.14229539
73	0x3e2875fc	0.16451257
74	0xbe619e8e	-0.2203314
75	0xbe083e2e	-0.1330497
76	0x3dbe2d18	0.09285945
77	0x3e52f6f8	0.20602024
78	0x3e86dbe1	0.2633963
79	0xbcca22c0	-0.024674773
80	0xbe614be1	-0.22001602
81	0x3e35a9ec	0.17740601
82	0x3e4252ac	0.1897685
83	0x3e72a99e	0.23697516
84	0xbdbd23be	-0.09235333
85	0x3e3e9610	0.18611932
86	0xbe6a035a	-0.22852841
87	0xbd1d9134	-0.038468555
88	0x3e4a0c02	0.19731143
89	0x3d3f7d60	0.046750426
90	0x3d6bb440	0.057544947
91	0x3d9bd39c	0.07608721
92	0x3e5a18e6	0.2129856
93	0x3e011e0c	0.12609118
94	0x3e47196c	0.19443291
95	0xbe282b0a	-0.16422668
96	0x3cea3a10	0.02859214
97	0xbdc5ab08	-0.09651762
98	0xbd7b2cb4	-0.06132193
99	0x3e14be4e	0.1452572
100	0x3d39a1a8	0.045320183
101	0x3dda5140	0.106600285
102	0xbd9eddc0	-0.07757139
103	0xbe42493e	-0.18973252
104	0x3e2d34a2	0.16914609
105	0x3df49118	0.11941737
106	0xbe011651	-0.1260617
107	0xbe1ebfb8	-0.15502822
108	0x3e811c7b	0.2521704
109	0x3d004b48	0.031321794
110	0xbd44b7d0	-0.04802686
111	0x3c9f4170	0.019440383
112	0x3e5dfd2c	0.21678609
113	0xbd0a1704	-0.033713356
114	0xbe048e93	-0.12945013
115	0xbe28d76d	-0.16488428
116	0xbe539670	-0.20662856
117	0x3e2ad26a	0.16681829
118	0x3e6ecd22	0.2332044
119	0x3e68dd32	0.2274063
120	0x3d7c1a48	0.0615485
121	0x3e3399fc	0.17539209
122	0x3da9d27c	0.082921
123	0x3c262fe0	0.01014325
124	0xbe72c781	-0.23708917
125	0xbe841c9c	-0.25803077
126	0xbe5fa786	-0.21841249
127	0x3e7487ba	0.238799
128	0xbe54729f	-0.2074685
129	0x3e52e4e6	0.2059513
130	0x3e007fb8	0.12548721
131	0xbe74e655	-0.2391599
132	0xbdc523a6	-0.0962594
133	0x3e47d03a	0.19513026
134	0x3daf49b0	0.08558977
135	0xbe8bdd75	-0.27317396
136	0xbe7c7121	-0.2465253
137	0x3e597a84	0.21238142
138	0x3e5a9c28	0.21348631
139	0x3dcd70d8	0.10031289
140	0xbdb3fc3a	-0.08788343
141	0xbe81964f	-0.2530999
142	0xbe512424	-0.20423943
143	0xbe826f6a	-0.25475627
144	0x3e290d62	0.16509011
145	0x3d47c238	0.048769206
146	0x3d1259a8	0.035730034
147	0xbe093265	-0.1339813
148	0x3e56a2a6	0.20960483
149	0xbe880118	-0.26563334
150	0x3e679ef6	0.22619233
151	0x3e7693ea	0.24079862
152	0xbe07a0c4	-0.13244921
153	0x3c91ccd0	0.017797858
154	0xbe56ccf2	-0.20976618
155	0xbdd65ec2	-0.10467292
156	0xbd247f0b	-0.04016022
157	0x3e3234e2	0.17402986
158	0x3ea09ecc	0.31371152
159	0xbdcb3779	-0.0992269
160	0xbde158d8	-0.11003274
161	0xbdc43353	-0.09580102
162	0x3e3c37b6	0.18380627
163	0x3e1b295c	0.15152496
164	0x3eb89e01	0.36058047
165	0xbea0552f	-0.3131499
166	0x3e0e94ef	0.13924001
167	0x3d8847a1	0.06654287
168	0x3e1ed2cf	0.15510105
169	0x3df54300	0.1197567
170	0xbe101a35	-0.14072497
171	0x3e1ff3ec	0.15620393
172	0xbdde00e6	-0.10840015
173	0xbe8c4668	-0.27397466
174	0xbde137a0	-0.10996938
175	0x3d82627c	0.06366441
176	0xbcd1e4b0	-0.025621742
177	0xbe2775a2	-0.16353467
178	0x3d00e218	0.03146562
179	0x3cf464f0	0.029833287
180	0x3da4df74	0.08050433
181	0xbe13f96c	-0.14450616
182	0x3da7ceb4	0.08193722
183	0xbe1312eb	-0.14362685
184	0xbdb257ba	-0.08708139
185	0xbe266e05	-0.16252907
186	0xbe888d8b	-0.2667049
187	0x3e037ca6	0.12840518
188	0x3bc9c340	0.006157309
189	0x3e812175	0.25220838
190	0xbe1511c1	-0.14557554
191	0xbdc703a8	-0.09717494
192	0xbdc28cc8	-0.09499508
193	0xbe099bc7	-0.1343833
194	0xbd7e1e68	-0.062040716
195	0xbd7e45c0	-0.062078238
196	0x3d93c7e0	0.072158575
197	0xbe8b7bf0	-0.27242994
198	0xbda76924	-0.08174351
199	0xbdd8e31e	-0.10590194
200	0x3ce6c110	0.028168231
201	0xbe8b1818	-0.2716682
202	0x3e71cabe	0.23612496
203	0xbe48ac30	-0.19596934
204	0x3e8d5425	0.2760326
205	0x3e269f74	0.16271764
206	0xbd4638a0	-0.048393846
207	0xbe1710b3	-0.14752464
208	0x3d900792	0.07032694
209	0x3e6c7deb	0.23094909
210	0xbe85655b	-0.2605389
211	0x3cae90c5	0.021309266
212	0x3e1d2025	0.15344293
213	0x3d378cac	0.04481189
214	0xbd5b0b53	-0.053477596
215	0xbcfce593	-0.030871188
216	0x3d0ca3bf	0.034335848
217	0xbe71085c	-0.23538345
218	0x3e0d4010	0.13793969
219	0xbe8b8b22	-0.27254587
220	0xbe25d0f0	-0.16192985
221	0x3c015ca0	0.007895619
222	0x3ade5500	0.0016962588
223	0x3e246ad0	0.1605637
224	0xbe7b08f9	-0.24515142
225	0xbe84a090	-0.2590375
226	0xbe02b3aa	-0.12763849
227	0xbab6e300	-0.0013953149
228	0x3db69e94	0.08916965
229	0x3e4e9008	0.20172131
230	0x3e663482	0.22480968
231	0x3df5b27c	0.11996934
232	0xbe8bc5a8	-0.27299237
233	0xbdd9adc6	-0.10628848
234	0x3e1343f2	0.14381388
235	0xbcdd1f90	-0.02699259
236	0x3c650140	0.013977349
237	0xbe8086e6	-0.2510292
238	0xbcbd7240	-0.023125768
239	0x3e38acaa	0.18034616
240	0xbe69f2e9	-0.22846569
241	0x3e4b6ee2	0.19866517
242	0xbe84b928	-0.25922513
243	0x3a378000	0.00069999695
244	0x3ddd7ccc	0.10814819
245	0xbda09e92	-0.07842745
246	0x3e190742	0.14944175
247	0xbe18a93d	-0.1490831
248	0xbdda5920	-0.106615305
249	0xbe3799ea	-0.17929807
250	0xbd176de0	-0.03697002
251	0xbe2a4f93	-0.16631918
252	0xbda5fba2	-0.08104636
253	0xbe569baf	-0.20957826
254	0x3e393292	0.18085697
255	0xbd80f8cc	-0.06297454

fc1.bias f4 [100]
0	0xbe133c76	-0.14378533
1	0x3ddf95e4	0.10917261
2	0x3dde97b0	0.10868776
3	0xbd2e358c	-0.042531535
4	0x3e6766ae	0.22597763
5	0x3e5438fa	0.2072486
6	0xbe22271c	-0.15835232
7	0x3e5fe776	0.21865639
8	0x3cdecd10	0.02719739
9	0x3d907dc0	0.07055235
10	0x3e4aefcc	0.19818038
11	0x3df75134	0.12076035
12	0x3e70051f	0.23439454
13	0x3e8c2e83	0.27379236
14	0x3d2d9188	0.042375118
15	0x3e57ae18	0.21062505
16	0xbe472def	-0.19451116
17	0xbd89840c	-0.06714639
18	0x3df78e10	0.12087643
19	0xbe2ca050	-0.1685803
20	0xbe86dc71	-0.26340058
21	0xbe3931b7	-0.18085371
22	0x3e192a02	0.14957431
23	0x3e01fdea	0.12694517
24	0x3e32310e	0.17401525
25	0x3e703912	0.2345927
26	0x3e4e3c6c	0.20140237
27	0x3dd3d64c	0.10343608
28	0x3e20e56e	0.1571252
29	0x3e3ae122	0.18249944
30	0xbcc9dd60	-0.024641693
31	0x3e2bfb96	0.16795191
32	0xbd81ecde	-0.06344007
33	0xbda9a784	-0.08283904
34	0x3e0fa00a	0.14025894
35	0x3e810c4f	0.25204703
36	0x3c8a7820	0.016902983
37	0x3f25bfa0	0.6474552
38	0x3e57be84	0.2106877
39	0xbb08d580	-0.002087921
40	0xbe518750	-0.20461774
41	0xbe259fc8	-0.16174233
42	0x3d7645b0	0.060125053
43	0xbe7efdc0	-0.24901485
44	0xbe14043a	-0.14454737
45	0x3df4286c	0.11921772
46	0xbe4b2dfa	-0.19841757
47	0x3e4952f8	0.19660556
48	0xbe4a1580	-0.19734764
49	0x3ce7c5e0	0.028292596
50	0x3e47237c	0.1944713
51	0xbc5c0c20	-0.013430625
52	0xbe743fec	-0.2385251
53	0xbe3ccbbd	-0.18437095
54	0x3e283370	0.16425872
55	0x3e36e618	0.17861211
56	0xbef40525	-0.47660175
57	0x3fc33d6b	1.5253118
58	0xbdf76f42	-0.120817676
59	0x3dca640e	0.09882365
60	0x3e806f0f	0.2508473
61	0xbe4d888a	-0.20071617
62	0x3d0aa570	0.03384918
63	0xbd6fa2f8	-0.05850503
64	0x3ea80563	0.3281661
65	0xbe684848	-0.22683823
66	0x3c914e80	0.017737627
67	0x3e441f9d	0.19152685
68	0x3e7111ee	0.23541996
69	0x3d8b7e4f	0.06811201
70	0xbd2c7728	-0.042105824
71	0xbe57cfea	-0.21075407
72	0x3e0ea9ea	0.13932005
73	0xbe3b7f36	-0.18310246
74	0xbe2ba4cf	-0.16762088
75	0x3e2dbc94	0.16966468
76	0xbe7fa217	-0.24964176
77	0xbe35b27b	-0.17743866
78	0xbd629410	-0.055316985
79	0x3de5a52c	0.11213145
80	0xbd14621c	-0.036226377
81	0xbd398708	-0.04529479
82	0xbcad26f0	-0.02113673
83	0xbdb93f70	-0.09045303
84	0x3e7285cf	0.23683856
85	0xbd7b0538	-0.061284274
86	0x3e7c5baa	0.24644342
87	0xbda83c46	-0.08214621
88	0xbbbe6b40	-0.005811125
89	0x3e158f60	0.14605474
90	0xbc98fb8a	-0.01867463
91	0xbd4d93a0	-0.050189614
92	0x3e345aaa	0.1761271
93	0xbe66504a	-0.22491565
94	0x3e61c14c	0.22046393
95	0x3e0a2fc6	0.13494787
96	0xbe74c8d6	-0.23904738
97	0x3e37ab9a	0.17936555
98	0xbdc7858e	-0.097422704
99	0xbe0c623c	-0.13709348

fc2.weight f4 [100, 100]
0	0x3ceec870	0.02914831
1	0xbd8fa951	-0.070147164
2	0xbda00b71	-0.07814682
3	0x3cda9364	0.02668161
4	0x3ca8dc78	0.02061294
5	0x3da8eb8a	0.082480505
6	0x3c46f68b	0.012143741
7	0x3dc0ed71	0.09420288
8	0xbc5fb130	-0.013653085
9	0x3bd540c4	0.006507965
10	0x3d098dd2	0.033582516
11	0x3da6fe25	0.08153943
12	0xbd33a510	-0.043858588
13	0xbd245c5a	-0.040127136
14	0x3dbba5f1	0.0916251
15	0xbdc49313	-0.09598365
16	0x3c69ee77	0.014278046
17	0xb9012000	-0.0001231432
18	0xbd5469d3	-0.051858734
19	0xbcee5aac	-0.02909597
20	0xbd22d5b9	-0.039754603
21	0x3d41c7fd	0.047309864
22	0xbd76055b	-0.0600637
23	0xbbd24511	-0.0064169248
24	0x3db3b79b	0.08775254
25	0x3ddd40f0	0.108034015
26	0xbda75239	-0.081699796
27	0xbd059dd8	-0.032621235
28	0x3ad84f2e	0.001650309
29	0xbd70053b	-0.05859874
30	0xbc96ab34	-0.018392183
31	0x39dc71b8	0.00042046397
32	0xbd1ee21f	-0.038789865
33	0xbd759e57	-0.059965458
34	0xbda7b893	-0.081895016
35	0x3d240489	0.040043388
36	0xbd2d7caf	-0.042355236
37	0xbf33a103	-0.7016756
38	0xbd95d6fd	-0.073163964
39	0x3d43e952	0.047829933
40	0x3d508e02	0.05091668
41	0x3d58da5a	0.05294261
42	0x3dc2201e	0.09478782
43	0x3deb408a	0.11486919
44	0xbd77e39f	-0.06051981
45	0x3c32ca30	0.010912463
46	0xbd9c295b	-0.076250754
47	0x3dcb1caf	0.0991758
48	0x3da2675d	0.07929871
49	0xbd8f486a	-0.06996234
50	0x3da6dc7b	0.08147522
51	0xbdabd31c	-0.08389875
52	0xbd7d7435	-0.0618784
53	0x3cc81cec	0.024427854
54	0x3d9d4817	0.07679766
55	0xbf84a0b3	-1.0361542
56	0x3f011c90	0.5043421
57	0xbf939f03	-1.1532902
58	0x3cf5253c	0.029924981
59	0xbd78c511	-0.060734812
60	0xbd1e1787	-0.038596656
61	0xbd1c4e9b	-0.0381609
62	0xbd3eed97	-0.046613302
63	0xbce230f6	-0.027611237
64	0xbf04a5e4	-0.5181563
65	0x3d5bc5ce	0.053655438
66	0xbb8dfa20	-0.0043327957
67	0xbd035139	-0.03205988
68	0x3da5d380	0.08096981
69	0xbd744191	-0.05963284
70	0x3ca96e42	0.020682458
71	0xbd4577d7	-0.04820999
72	0x3c732d2b	0.014842312
73	0x3d8e4249	0.06946237
74	0x3d19505e	0.03743016
75	0xbd1af4c7	-0.037831094
76	0x3d1fd7f7	0.03902432
77	0xbdc5a08a	-0.09649761
78	0xbd80d3b4	-0.06290379
79	0x3d9616c2	0.073285595
80	0x3daea846	0.08528189
81	0x3cac47a0	0.021030247
82	0x3d456221	0.048189286
83	0xbd98ad5b	-0.0745494
84	0x3d716819	0.058937166
85	0xbd985ac7	-0.074391894
86	0x3c51c1ff	0.0128026
87	0xbc66e990	-0.014093772
88	0xbdcc78cd	-0.099839784
89	0xbbfb3fe0	-0.0076675266
90	0xbe28ee80	-0.1649723
91	0x3db4cf2e	0.08828579
92	0xbb084067	-0.002079034
93	0xbdcc582d	-0.09977756
94	0x3cdad9c4	0.026715167
95	0xbd0d498a	-0.03449396
96	0x3b96100f	0.004579551
97	0x3d231406	0.039814018
98	0x3d677d91	0.056516234
99	0x3d37f6e7	0.0449132
100	0xbcf5feba	-0.03002869
101	0xbc8476bd	-0.0161699
102	0x3d8bb953	0.06822457
103	0xbce1a1ff	-0.027543066
104	0xbc880088	-0.016601816
105	0xbc6763f1	-0.014122949
106	0x3d8171bd	0.06320522
107	0x3d77c6fe	0.060492508
108	0xbd78a010	-0.060699522
109	0x3e01cbf8	0.12675464
110	0xbd672ce7	-0.056439307
111	0x3c681480	0.014165044
112	0x3de7bcdb	0.11315318
113	0x3dad0c27	0.084495835
114	0x3d3aee62	0.045637496
115	0x3c3a16e8	0.011358
116	0x3d92709e	0.07150386
117	0x3dabd591	0.08390344
118	0x3e01b633	0.1266716
119	0x3cfcf05a	0.030876327
120	0x3dcf8d04	0.101343185
121	0x3e0326dd	0.12807794
122	0x3e05613f	0.13025378
123	0xbd8c1cf6	-0.06841461
124	0xbd955a8b	-0.0729266
125	0x3c8d95e6	0.017283391
126	0x3d164394	0.03668554
127	0xbcfc9bf3	-0.030836081
128	0xbc5634fd	-0.013074157
129	0xbd47a391	-0.048739973
130	0xbdc38cc0	-0.0954833
131	0x3d02cea9	0.031935368
132	0x3de21f3a	0.11041112
133	0xbd631547	-0.055440214
134	0x3deb1936	0.11479418
135	0xbc3dbfaf	-0.011581345
136	0xbd3a820e	-0.045534186
137	0xbea0a006	-0.31372088
138	0xbcdc2246	-0.026871812
139	0x3dc696a9	0.09696705
140	0xbbf89ca0	-0.0075870305
141	0xbd680bad	-0.05665176
142	0x3dde9a7c	0.10869309
143	0xbc5c6341	-0.013451398
144	0x3dbc5d66	0.09197502
145	0xbdb69843	-0.0891576
146	0x3dc151f0	0.094394565
147	0xbc6ad0f1	-0.014332042
148	0x3d984b5d	0.074362494
149	0x3dc11901	0.09428597
150	0x3d441aee	0.047877245
151	0x3db8e2ad	0.0902761
152	0x3dc29522	0.09501101
153	0xbc514fbb	-0.012775357
154	0xbd7acc35	-0.061229903
155	0xc00db30c	-2.2140532
156	0xbea59771	-0.32342103
157	0xbeb94059	-0.36181906
158	0xbd230b0c	-0.039805457
159	0xbcbf428b	-0.02334716
160	0x3cfc6946	0.030811917
161	0x3d65f878	0.05614516
162	0xbda38e4d	-0.07986126
163	0x3da2b627	0.07944899
164	0xbe8b289b	-0.27179417
165	0xbdb21eca	-0.08697279
166	0x3d8e8ced	0.06960473
167	0xbd414be7	-0.047191527
168	0x3de54c4e	0.111961946
169	0x3d9b26b3	0.07575741
170	0x3cd46763	0.025928205
171	0x3ce691cc	0.028145693
172	0xbd86061c	-0.06544134
173	0xbccde714	-0.0251346
174	0x3e3808ac	0.17972058
175	0xbdbf8e28	-0.09353286
176	0xbd4e7021	-0.050399903
177	0x3d28cb02	0.04120923
178	0x3d4f8730	0.050666034
179	0x3ccf0bf5	0.025274256
180	0x3c5c04cb	0.013428877
181	0x3d995441	0.07486773
182	0x3d207bed	0.039180685
183	0x3d8d6d49	0.0690561
184	0xbd9c91c7	-0.07644992
185	0x3cc30671	0.023806782
186	0x3dfe6fce	0.12423669
187	0x3d486b0e	0.04893022
188	0x3d26abaf	0.040691074
189	0x3d42857e	0.04749059
190	0x3d86edf2	0.06588353
191	0x3e055325	0.13019998
192	0x3d96c629	0.07362015
193	0x3dc589e1	0.09645439
194	0x3dc91699	0.09818763
195	0x3c34c094	0.011032242
196	0x3bbabd61	0.0056988453
197	0xbdab72d6	-0.083715126
198	0x3dfa307d	0.1221628
199	0x3d118e84	0.035536304
200	0xbdbae94d	-0.0912653
201	0x3da74d05	0.08168987
202	0xbd81e94b	-0.06343325
203	0xbdab52f7	-0.08365434
204	0xbdc2b160	-0.09506488
205	0xbd05a40c	-0.03262715
206	0xbcb3ebfd	-0.021963114
207	0x3d3565a6	0.044286393
208	0x3d9cee17	0.076625995
209	0x3dbbe24d	0.09174023
210	0xbc41fa30	-0.0118394345
211	0x3db0f4f9	0.08640475
212	0x3c1df65e	0.009641258
213	0x3cc609f8	0.024174675
214	0x3caa7cec	0.02081152
215	0xbce26568	-0.027636245
216	0xbcef379f	-0.029201327
217	0xbceac1c0	-0.02865684
218	0x3dc50db9	0.09621758
219	0xbd7a0464	-0.061039343
220	0x3d5d7712	0.054068632
221	0xbccafaf5	-0.024777869
222	0xbcfcfaf0	-0.030881375
223	0xbc0a94cd	-0.008458328
224	0xbda45b6b	-0.08025249
225	0xbd3ac1de	-0.045595042
226	0xbd930055	-0.07177798
227	0x3d829021	0.06375147
228	0x3d56f9b4	0.05248423
229	0xbd9281d1	-0.07153667
230	0x3c8143ac	0.015779339
231	0xba8d974c	-0.0010802536
232	0x3d65d9b2	0.056115814
233	0xbdb155b7	-0.08658927
234	0x3c48c1d8	0.012253247
235	0xbd7f805a	-0.062378265
236	0x3d3c8da8	0.04603353
237	0x3f3bf708	0.73423815
238	0x3d981f07	0.07427793
239	0x3d52a07a	0.051422574
240	0x3c039ed8	0.008033477
241	0x3d7164ba	0.05893395
242	0x3d8cc2d6	0.068730995
243	0xbda89d4b	-0.08233126
244	0xbddae85a	-0.10688849
245	0x3dbeb1db	0.09311267
246	0x3d9f50cb	0.07779082
247	0x3d4a9f44	0.049468294
248	0x3db31419	0.08744068
249	0xbda79080	-0.08181858
250	0xbda7778d	-0.081770994
251	0xbdb9c18d	-0.0907012
252	0x3da37bb9	0.079825826
253	0x3c9d7af0	0.01922366
254	0xbd011a3e	-0.031519167
255	0x3fd08d80	1.6293182

fc2.bias f4 [100]
0	0xbd42095f	-0.04737222
1	0xbd8909cd	-0.066913225
2	0x3da6d664	0.081463605
3	0x3d49d7ef	0.049278196
4	0x3d097bfa	0.0335655
5	0xbdd8be6a	-0.105831936
6	0x3d17cfdf	0.037063476
7	0x3d2f0e97	0.042738523
8	0x3df29f0f	0.11846744
9	0x3cf2142e	0.029550638
10	0x3dad310e	0.08456622
11	0x3d7932f1	0.060839597
12	0xbc6111c8	-0.01373715
13	0xbdb31346	-0.087439105
14	0x3d940747	0.072279505
15	0xbc9c7899	-0.019100474
16	0x3c5653b3	0.013081479
17	0xbc228630	-0.009919688
18	0x3d1a8d29	0.037732277
19	0x3ad9d022	0.0016617815
20	0xbda42498	-0.08014792
21	0x3cefd3d6	0.029275816
22	0x3cd6e5db	0.02623265
23	0x3db6ad12	0.08919729
24	0x3e08864f	0.13332485
25	0xbcff08c5	-0.031132111
26	0xbd6fec36	-0.058574878
27	0xbc628a16	-0.013826868
28	0xbcf465e0	-0.029833734
29	0x3d49ce43	0.049268972
30	0xbd908f30	-0.07058561
31	0x3d9b8571	0.07593811
32	0x3d22f9c2	0.03978897
33	0x3d211c5a	0.03933368
34	0x3dd5a2b3	0.10431423
35	0xbd3dbd78	-0.04632327
36	0x3d25fd2d	0.04052465
37	0xbcce8b96	-0.025213044
38	0xbc838414	-0.01605419
39	0x3ae79a1c	0.001766983
40	0x3d1cd69d	0.03829061
41	0xbc022000	-0.0079422
42	0xbd4f390c	-0.050591514
43	0x3df88daa	0.12136395
44	0xbd94d179	-0.07266516
45	0xbd959b57	-0.07305019
46	0xbd8c179a	-0.06840439
47	0xbcc14b63	-0.023595518
48	0xbd6a1bed	-0.05715554
49	0xbdf28884	-0.118424445
50	0x3dcdbf5b	0.10046264
51	0xbd854887	-0.06507974
52	0x3d88b244	0.066746265
53	0x3d4f6d08	0.05064109
54	0x3d033173	0.03202958
55	0x3c0fddbb	0.008780892
56	0x3c647611	0.013944165
57	0x3d083b29	0.033259545
58	0x3d6f8849	0.05847958
59	0x3d2f6718	0.042822927
60	0xbdcbee5f	-0.09957575
61	0x3d21f95c	0.03954445
62	0x3ce43c8d	0.027860904
63	0x3d375262	0.0447563
64	0x3e05e445	0.13075359
65	0xbd8fffdb	-0.070312224
66	0xbde233bc	-0.11045024
67	0xbdcc17dc	-0.09965488
68	0xbc962eda	-0.018332887
69	0xbde0a34f	-0.10968649
70	0xbcc258a6	-0.023723911
71	0x3d0f6edc	0.035017833
72	0x3cfa1e6e	0.030532088
73	0x3d791e9c	0.060820207
74	0x3dbe8cd1	0.09304202
75	0xbde9d15c	-0.11416885
76	0xbdce3669	-0.10068972
77	0x3b3a9054	0.0028467374
78	0x3d1d038c	0.03833346
79	0xbd23b294	-0.039965227
80	0xbd863e1e	-0.06554817
81	0x3ce20227	0.027588917
82	0xbd654bb9	-0.055980418
83	0x3d873cc8	0.0660339
84	0xbd5a6522	-0.053319104
85	0x3ccfc888	0.025364175
86	0xbd8017a8	-0.06254512
87	0x3d788a91	0.060679022
88	0x3d8c267e	0.06843279
89	0xbda44594	-0.080210835
90	0xbc68c5b6	-0.014207294
91	0xbdf9e3da	-0.12201662
92	0xbd81b498	-0.06333274
93	0xbcd3dd92	-0.025862489
94	0x37026b80	7.773633e-06
95	0xbb4d75b5	-0.0031350676
96	0x3cd1d2dd	0.025613243
97	0x3d971db5	0.07378713
98	0x3deb4680	0.11488056
99	0x3b8f8213	0.0043795197

fc3.weight f4 [3, 100]
0	0x3ed206f8	0.41020942
1	0x3e9987cc	0.29986417
2	0xbf205241	-0.6262551
3	0xbeeb0fe0	-0.4591055
4	0x3df1a4e4	0.117990285
5	0xbf23f248	-0.64041567
6	0x3e0859c3	0.13315491
7	0x3e993933	0.29926452
8	0x3df46ad8	0.11934441
9	0xbeb059cb	-0.34443507
10	0x3eac8126	0.33692282
11	0x3ec5d9f9	0.38642862
12	0xbf18df99	-0.5971618
13	0x3e9bb44f	0.30411002
14	0x3cf44708	0.029819027
15	0xbf11b21b	-0.5691239
16	0xbeb7bf5c	-0.35888183
17	0xbe8ad294	-0.27113783
18	0x3ecfc0ca	0.40576774
19	0xbeba271b	-0.3635796
20	0xbf051234	-0.519809
21	0xbf23cd7d	-0.63985425
22	0x3e7e10d4	0.24811107
23	0x3ec9e554	0.39432776
24	0x3ee0a3a7	0.43874857
25	0x3cdcd494	0.026956834
26	0x3eec75c9	0.46183613
27	0x3eb63266	0.35585326
28	0x3eb45148	0.35218263
29	0x3ebc2c2d	0.36752453
30	0xbee627c7	-0.44952223
31	0xbee2f0e1	-0.443244
32	0x3eb042a8	0.34425855
33	0x3ee8f47a	0.4549902
34	0x3ea6dfe5	0.32592693
35	0x3ea63ac9	0.32466725
36	0xbef547a0	-0.47906208
37	0xbeafbccc	-0.34323728
38	0xbe88a12c	-0.26685464
39	0xbe9b557b	-0.30338654
40	0x3e97a048	0.29614472
41	0xbda27e2a	-0.0793422
42	0xbeef4a2a	-0.4673627
43	0x3e71e914	0.23624068
44	0x3ed6bf5a	0.41942865
45	0x3e77a3f3	0.24183635
46	0xbea13a0a	-0.31489593
47	0x3ecee53a	0.4040926
48	0xbf07054f	-0.52742475
49	0xbef5ad1d	-0.47983637
50	0x3eddd84d	0.43329087
51	0x3ef8316f	0.48475215
52	0xbebd5bee	-0.369842
53	0xbf17aae8	-0.5924516
54	0x3e91995c	0.28437316
55	0xbe9d45a8	-0.30717206
56	0x3ee3e913	0.4451376
57	0x3cab0e19	0.020880746
58	0x3ea8f758	0.33001208
59	0xbe5447e8	-0.20730555
60	0xbeb1fd97	-0.34763786
61	0xbefcdeb7	-0.49388668
62	0xbe40aee3	-0.18816714
63	0x3e9f3724	0.31096756
64	0x3e629c9c	0.22130054
65	0x3ec625e9	0.38700798
66	0xbee2119e	-0.44154066
67	0x3ed216e6	0.41033095
68	0xbea8ab26	-0.32943076
69	0x3c72a04b	0.014808725
70	0xbec949f3	-0.3931423
71	0x3e90369f	0.28166673
72	0xbf0e4ede	-0.5558909
73	0xbf073216	-0.528108
74	0x3e9ba095	0.30395952
75	0xbed1fa8e	-0.4101147
76	0x3e5a8b12	0.21342114
77	0x3e7c0283	0.24610333
78	0xbebbbd1c	-0.36667717
79	0x3eccf752	0.4003244
80	0xbf0adb12	-0.54240525
81	0x3e88424e	0.26613086
82	0xbe9fec5c	-0.31235015
83	0xbeac868d	-0.33696404
84	0xbe839fa7	-0.25707743
85	0xbe944e2a	-0.28965884
86	0x3eab9ccb	0.3351806
87	0x3ebaddde	0.36497396
88	0xbeceae83	-0.40367517
89	0xbf08ad9b	-0.533899
90	0xbe9ca008	-0.30590844
91	0x3e8e8fc3	0.27844056
92	0xbed8a5b9	-0.42313936
93	0xbecd5b87	-0.40108892
94	0x3e038dc9	0.12847055
95	0x3e9aad33	0.30210266
96	0x3e9eb20d	0.30995217
97	0x3ec0fd7d	0.37693396
98	0x3ee05140	0.4381199
99	0x3e93220d	0.28736916
100	0xbe5af202	-0.21381381
101	0x3e43a6d6	0.19106612
102	0x3ddde65a	0.10834952
103	0x3d70a065	0.058746714
104	0x3eab4ea5	0.3345844
105	0xbcc83bf3	-0.024442649
106	0x3e428b9a	0.18998566
107	0xbe8855a8	-0.2662785
108	0x3e91ba0c	0.28462255
109	0xbcebf9fe	-0.028805729
110	0xbe987ffc	-0.29785144
111	0xbe55106e	-0.20807049
112	0x3d6f10ae	0.058365516
113	0xbe7e33de	-0.24824473
114	0x3e44a68d	0.19204159
115	0xbe4d66f3	-0.20058803
116	0x3c9dbb08	0.019254223
117	0x3eab4105	0.33448043
118	0x3c0f2b45	0.008738344
119	0x3d95c86d	0.07313619
120	0xba74e61e	-0.00093421515
121	0x3ef462e5	0.477317
122	0x3e72f0c0	0.23724651
123	0x3cd05f60	0.025436103
124	0x3d041b12	0.03225238
125	0x3d2bf00c	0.041976973
126	0x3e07779f	0.13229226
127	0x3e021d46	0.1270648
128	0x3d8525b9	0.06501336
129	0xbe1e8e7e	-0.15484044
130	0x3e0406f2	0.12893274
131	0x3e0a1bee	0.13487217
132	0x3f0cd9dd	0.55019933
133	0x3d8a2aa7	0.067464165
134	0x3eaf94f4	0.3429333
135	0x3dcb6c09	0.099327154
136	0xbdc7c746	-0.09754805
137	0xbe0d5f3f	-0.13805865
138	0x3e0726d4	0.13198406
139	0x3dff4d53	0.1246592
140	0x3e32c437	0.17457663
141	0xbe3af58c	-0.18257731
142	0xbdb1b8d8	-0.08677834
143	0x3e617afe	0.22019574
144	0xbdd1f993	-0.10252681
145	0x3e16b28a	0.14716545
146	0xbe551bda	-0.20811406
147	0x3ead24ab	0.33817038
148	0x3dc3c50a	0.095590666
149	0x3ca42c94	0.020040788
150	0xbe909d5a	-0.2824505
151	0xbe5fe0aa	-0.21863046
152	0x3e540fae	0.20709106
153	0x3cb7d952	0.022442494
154	0xbead185d	-0.3380765
155	0xbbd9d430	-0.006647609
156	0x3e704de1	0.23467208
157	0x3e9d86c7	0.3076689
158	0xbeb5f078	-0.35535026
159	0x3dfab67a	0.12241836
160	0x3be8d17e	0.0071050515
161	0x3e21b17a	0.15790358
162	0xbe8b52c1	-0.27211574
163	0x3bbbd0d9	0.0057316837
164	0x3e9467cd	0.28985444
165	0xbeb7b44c	-0.35879743
166	0xbe271e19	-0.16320075
167	0xbef48b10	-0.47762346
168	0x3ec95044	0.3931905
169	0xbead7859	-0.3388088
170	0xbd06af8f	-0.03288227
171	0xbdcb7c2a	-0.09935792
172	0xbdd8a53a	-0.105783895
173	0xbe59e524	-0.21278816
174	0xbdeb2776	-0.11482136
175	0xbdba225a	-0.09088583
176	0xbecb11df	-0.39662072
177	0xbe9940e8	-0.29932332
178	0x3e312ae9	0.17301525
179	0xbd6acb7e	-0.05732297
180	0x3eb00d3b	0.34385094
181	0x3e20179f	0.1563401
182	0xbb04d406	-0.0020267977
183	0x3e81e41f	0.25369355
184	0x3d962782	0.07331754
185	0x3ebb9420	0.36636448
186	0xbeeeca91	-0.4663892
187	0x3d45d7b7	0.048301425
188	0x3d3ebcb6	0.046566688
189	0xbcd682fd	-0.026185507
190	0x3df82ec0	0.12118292
191	0xbea31b52	-0.3185678
192	0xbd915fa0	-0.07098317
193	0x3dcba186	0.099429175
194	0x3ea347a1	0.31890586
195	0x3e3c9418	0.18415868
196	0xbe54a94c	-0.20767707
197	0xbe2e3dce	-0.17015764
198	0x3dae7872	0.08519067
199	0xbe1716a4	-0.1475473
200	0xbeac4ded	-0.33653203
201	0xbf510ddf	-0.8166179
202	0x3e9e0e37	0.3087022
203	0x3eed2d2e	0.46323532
204	0xbf3a862b	-0.72860974
205	0x3f0091ce	0.5022248
206	0xbf13fcd8	-0.57807684
207	0xbdc622f1	-0.09674633
208	0xbeedeef1	-0.4647136
209	0x3f196cdb	0.59931725
210	0xbc88281f	-0.016620694
211	0xbef4a568	-0.47782445
212	0x3f0b1101	0.5432282
213	0xbebfebcf	-0.37484595
214	0xbf0037b2	-0.50084984
215	0x3f2b6818	0.6695571
216	0x3eec8e80	0.4620247
217	0xbdd37da5	-0.10326699
218	0xbf12e4cf	-0.57380384
219	0x3f182c35	0.59442455
220	0x3ecd635d	0.4011487
221	0xbd7c7582	-0.0616355
222	0xbf5903ec	-0.8477161
223	0xbf0dbc8f	-0.5536584
224	0xbf025035	-0.50903636
225	0xbd377fa7	-0.044799473
226	0xbf472524	-0.7779105
227	0xbf1dedbd	-0.61690885
228	0xbf206d69	-0.62666947
229	0xbf133331	-0.57499987
230	0x3ea4bed0	0.32176828
231	0x3f1afc65	0.60541373
232	0xbf66d7ce	-0.9017304
233	0xbf472832	-0.7779571
234	0xbf384575	-0.71980983
235	0xbf3fed87	-0.7497181
236	0x3f2006dc	0.62510467
237	0x3f05e96f	0.52309316
238	0x3eaa4a91	0.33260015
239	0x3e9ea5ca	0.30985862
240	0xbf2844a0	-0.65729713
241	0x3f1b2afb	0.6061246
242	0x3ede5093	0.43420848
243	0xbf257a4d	-0.6463974
244	0xbedf14e5	-0.4357063
245	0xbf18360f	-0.59457487
246	0x3ef023a3	0.4690219
247	0xbf491e1a	-0.78561556
248	0x3f02271a	0.50840914
249	0x3f0c848e	0.5488976
250	0xbec00af3	-0.37508354
251	0xbe9345cc	-0.28764188
252	0x3e6fac70	0.23405623
253	0x3f03f483	0.5154497
254	0x3e8e2b97	0.2776763
255	0x3ece4efb	0.40294632

fc3.bias f4 [3]
0	0x3d8a2319	0.067449756
1	0xbd36a863	-0.04459418
2	0x3d804074	0.062622935
